rl2024/exercise4/DDPG--racetrack-v0--critic_hidden_size:[64, 32, 32]_policy_hidden_size:[64, 64, 64]--1.pt (torch, 819011 bytes, 56 tensors)

weight f4 [64, 288]
0.051023003 0.02362318 0.02745865 -0.021027751 0.018985359 0.055503536 -0.016987443 -0.058253232
0.02491979 -0.03360293 -0.022423621 0.019563865 -0.006903641 -0.045114864 -0.017932031 -0.019511674
0.035360284 -0.015921991 -0.051262796 -0.056513317 0.055578467 0.053737696 0.037771244 0.041683074
-0.036107667 0.04868063 -0.0042193197 0.015347544 -0.039311685 -0.010240147 -0.019710984 -0.014597386
-0.011021845 -0.022845924 0.014250968 0.012460459 0.006082747 -0.021056559 -0.044760767 0.029660124
-0.012286656 -0.051053945 -0.009940388 0.007501837 -0.0054643676 0.056761842 -0.016819127 -0.043415926
-0.04897969 0.0024884343 0.0075496323 -0.055478882 -0.025538713 0.021263871 0.007663179 -0.05143705
0.010984254 0.013547715 0.024057563 0.0021106303 -0.017116487 0.017344695 -0.021269258 0.0013730675
0.030665401 -0.03580042 -0.0059259087 0.036331143 0.01882336 -0.054083638 0.022899045 -0.046817414
0.026356932 0.031619173 -0.039952606 -0.026679397 -0.011295699 0.037703525 0.015249044 -0.043287143
-0.025931481 -0.024469167 0.04707318 0.039729368 -0.017608762 0.007966038 0.017139284 -0.04986386
-0.006820889 -0.053051073 0.018628102 0.016865756 -0.03067034 -0.041527893 -0.022929072 0.014440756
-0.0072865374 0.034813102 -0.05234009 -0.031006895 -0.016213585 0.048901208 -0.01568538 -0.04725182
0.037018877 -0.00071094185 0.051640857 -0.021017708 -0.052247047 0.04704008 0.024428297 0.03221452
-0.034462012 0.055716064 0.01753726 -0.01895001 0.041257802 0.0022983747 -0.013774574 -0.016340572
0.0381391 0.03951901 -0.049998492 -0.00517888 -0.022853084 0.04984853 -0.027562171 0.010176871
-0.049210563 0.031744685 0.012276459 0.014608237 -0.012838669 -0.05848922 0.032187965 -0.03367781
-0.0097052865 -0.037239127 -0.03417003 -0.042337332 -0.030446595 -0.05245429 -0.011102598 0.008033577
0.0037283998 -0.007828465 -0.031775393 0.024286047 -0.0010325443 0.007925653 -0.039403632 0.027166553
0.045309003 0.02342861 0.05457326 -0.0199196 0.008198688 0.042712446 0.025728252 -0.04600359
0.027409123 0.04423798 0.0149460705 0.041405793 -0.02797386 -0.008360215 0.011999165 -0.015270173
-0.0032904984 -0.018753614 0.05965877 -0.042470664 0.044551466 0.0058696014 -0.0062455414 -0.040463414
0.055427566 -0.010551173 -0.0038821881 -0.02510489 -0.018972846 0.038494483 -0.024263471 -0.01903388
-0.03850658 -0.04357691 -0.0011375485 -0.01725718 0.009784136 0.030173767 -0.021239907 0.013521065
0.03619856 0.041609857 -0.024661474 -0.04819243 -0.0060398853 -0.029582318 -0.007210744 0.051209103
-0.040637303 -0.03203221 0.058814637 0.019028218 0.05664759 0.07184807 0.05359079 -0.046725504
-0.023314364 0.050671525 0.07460311 0.073452234 0.032928992 0.067219116 -0.0049016643 0.031602822
-0.030162837 -0.026392685 -0.03389742 0.05183482 0.03060727 0.04294421 0.013078623 0.030193973
0.032891866 -0.0065962533 0.05293298 0.0010594188 0.03263511 -0.004802446 -0.008548069 -0.010919898
0.0657682 -0.029312562 0.060986675 -0.008816599 0.06606915 0.030622113 0.019528408 0.058751963
-0.0075783357 0.039103583 0.025518702 0.052516453 0.03764979 0.04782198 0.00789818 0.0006409898
0.020408105 0.05178442 0.000113720176 0.05112826 -0.044576317 0.006546532 -0.05079028 -0.045369092
00000000: 7ffd 503d 6685 c13c f6f0 e03c 6442 acbc
00000010: 2f87 9b3c ad57 633d 4029 8bbc f19a 6ebd
00000020: 9624 cc3c 3aa3 09bd beb1 b7bc 6644 a03c
00000030: f037 e2bb 5dca 38bd 32e6 92bc f2d6 9fbc
00000040: f2d5 103d d66e 82bc f0f8 51bd 827a 67bd
00000050: 3fa6 633d 0f1c 5c3d 05b6 1a3d dfbb 2a3d
00000060: a2e5 13bd 5765 473d 3842 8abb 4474 7b3c
00000070: 4a05 21bd 4ac6 27bc ee78 a1bc e029 6fbc
00000080: f894 34bc 6027 bbbc e47c 693c f426 4c3c
00000090: c851 c73b ce7e acbc 1157 37bd caf9 f23c
000000a0: f84d 49bc f11d 51bd 02dd 22bc f8d1 f53b
000000b0: 700e b3bb 1b7f 683d 44c8 89bc e6d4 31bd
000000c0: ed9e 48bd 0015 233b e862 f73b d33d 63bd
000000d0: 9036 d1bc 9231 ae3c 681b fb3b a8af 52bd
000000e0: 4df7 333c 3cf7 5d3c 5e14 c53c 8052 0a3b
000000f0: e037 8cbc 7616 8e3c de3c aebc 80f8 b33a
00000100: 0236 fb3c 76a3 12bd 202e c2bb f7cf 143d
00000110: 7233 9a3c ce86 5dbd c796 bb3c 9ec3 3fbd
00000120: 7eea d73c 1b83 013d 58a5 23bd c08e dabc
00000130: 9811 39bc 036f 1a3d 20d7 793c dc4d 31bd
00000140: 426e d4bc 9073 c8bc cfcf 403d 43bb 223d
00000150: 4040 90bc fc83 023c af67 8c3c 0c3e 4cbd
00000160: c481 dfbb 154c 59bd f699 983c 0e2a 8a3c
00000170: 5d40 fbbc 2719 2abd c0d5 bbbc ec98 6c3c
00000180: e8c3 eebb 2f98 0e3d 9062 56bd 2c02 febc
00000190: 5ad2 84bc a24c 483d a07e 80bc 208b 41bd
000001a0: 1ba1 173d 805e 3aba 5d85 533d 542d acbc
000001b0: 0001 56bd 19ad 403d da1d c83c 5ff3 033d
000001c0: 0a28 0dbd 8736 643d 4daa 8f3c 0d3d 9bbc
000001d0: f1fd 283d 54a0 163b c0ae 61bc aadc 85bc
000001e0: bf37 1c3d afde 213d 38cb 4cbd 98b3 a9bb
000001f0: 6436 bbbc f92d 4c3d 10ca e1bc e4bc 263c
00000200: 0491 49bd b706 023d 3323 493c 6357 6f3c
00000210: 4859 52bc 6492 6fbd 87d7 033d bef1 09bd
00000220: ec02 1fbc 0e88 18bd e0f5 0bbd e969 2dbd
00000230: 236b f9bc 4fda 56bd ace7 35bc 449f 033c
00000240: 2b58 743b f642 00bc ea26 02bd 88f3 c63c
00000250: 7056 87ba 99da 013c b465 21bd 648c de3c
00000260: ef95 393d 5bed bf3c 3688 5f3d 6e2e a3bc
00000270: ca53 063c 3ff3 2e3d 0ec4 d23c 436e 3cbd
00000280: 1989 e03c e232 353d 5de0 743c 1f99 293d
00000290: 7029 e5bc 49f9 08bc 2598 443c bf2f 7abc
000002a0: 67a5 57bb 2ea1 99bc c15c 743d b8f5 2dbd
000002b0: 997b 363d c955 c03b 66a7 ccbb f7bc 25bd
000002c0: 0408 633d d4de 2cbc 4f6c 7ebb c5a8 cdbc
000002d0: f16c 9bbc 64ac 1d3d 30c4 c6bc f1ec 9bbc
000002e0: 13b9 1dbd b47d 32bd cb19 95ba ee5e 8dbc
000002f0: a44d 203c fa2e f73c 50ff adbc 7587 5d3c
00000300: f144 143d 196f 2a3d dc06 cabc 6d65 45bd
00000310: 3bea c5bb 9e56 f2bc 1b48 ecbb a3c0 513d
00000320: 4d73 26bd 3534 03bd 9ee7 703d 11e1 9b3c
00000330: 4e07 683d 1525 933d 0482 5b3d 3e63 3fbd
00000340: c4fd bebc f28c 4f3d 84c9 983d 206e 963d
00000350: 8de0 063d 2daa 893d 249e a0bb f671 013d
00000360: 0e18 f7bc 7935 d8bc 05d8 0abd c050 543d
00000370: 19bc fa3c 45e6 2f3d b947 563c 5a59 f73c
00000380: 9fb9 063d 6225 d8bb 41d0 583d 32dc 8a3a
00000390: 65ac 053d d65d 9dbb 330d 0cbc 5fe9 32bc
000003a0: 7ab1 863d e620 f0bc 2acd 793d 7f73 10bc
000003b0: 434f 873d 3adb fa3c 0afa 9f3c e6a5 703d
000003c0: b053 f8bb 142b 203d 990c d13c 7e1b 573d
000003d0: ab36 1a3d fbe0 433d 5e67 013c 1908 283a
000003e0: e62e a73c e61b 543d 0e7d ee38 de6b 513d
000003f0: a895 36bd 4a84 d63b 7809 50bd f1d4 39bd

bias f4 [64]
0.0015155795 -0.014342566 0.03464305 -0.018129885 -0.034230225 0.05725509 0.043263983 -0.011287243
0.020249294 -0.0036845969 0.0010279411 -0.017705873 0.08526727 -0.05456626 0.033723228 0.07760012
-0.045680605 0.05674058 0.029021094 -0.0367901 -0.022928657 0.014578363 -0.030140009 0.030534595
0.011319047 -0.020381667 0.037578024 -0.02231082 0.043887287 -0.011496146 -0.050299797 0.009132801
-0.020969693 -0.02131989 -0.013193337 0.018455096 0.019959554 0.06651227 0.018832747 0.037752315
-0.0315913 0.010667168 -0.017042723 -0.018970154 0.014845232 -0.056201544 -0.040680207 0.030941322
0.032264236 0.01653349 -0.04568211 0.044337746 -0.012733074 -0.011949369 -0.0024938968 -0.0027811937
0.045564953 0.046483394 -0.016463308 0.0059741447 -0.023505604 0.07684797 0.036050275 0.011190328
00000000: 69a6 c63a 15fd 6abc dfe5 0d3d 2085 94bc
00000010: fe34 0cbd 5084 6a3d 9335 313d 21ee 38bc
00000020: d9e1 a53c 4779 71bb fbbb 863a e80b 91bc
00000030: 9ba0 ae3d df80 5fbd 5e21 0a3d d0ec 9e3d
00000040: 961b 3bbd cf68 683d a5bd ed3c 37b1 16bd
00000050: e1d4 bbbc 16da 6e3c 2ee8 f6bc b023 fa3c
00000060: 8673 393c 74f7 a6bc 6aeb 193d 2ec5 b6bc
00000070: 28c3 333d 555a 3cbc 2907 4ebd bea1 153c
00000080: a2c8 abbc 0da7 aebc de28 58bc 242f 973c
00000090: 3882 a33c 9637 883d 2247 9a3c 2ca2 1a3d
000000a0: e165 01bd 58c5 2e3c 2e9d 8bbc 4c67 9bbc
000000b0: 6a39 733c 9733 66bd 4aa0 26bd a878 fd3c
000000c0: 8127 043d 3e71 873c 2a1d 3bbd 7f9b 353d
000000d0: 629e 50bc 49c7 43bc a570 23bb b044 36bb
000000e0: 51a2 3a3d 5f65 3e3d 0fde 86bc c2c2 c33b
000000f0: d38e c0bc 7862 9d3d 74a9 133d a357 373c

weight f4 [64, 64]
-0.09392672 0.08317292 -0.12470638 0.023375759 0.06238086 -0.09692454 0.010308321 -0.038501542
-0.120403446 -0.0063036545 -0.07955622 0.060551886 0.007878373 -0.04330641 -0.105081454 0.111273564
0.11978771 0.018815288 -0.11013856 -0.080575325 0.014872153 0.08891542 -0.04315972 0.11928287
0.01516057 -0.004168846 -0.026484516 0.0542568 0.019013746 -0.09471658 -0.11547354 0.09385861
0.02691569 0.014504815 -0.054495025 0.07941125 -0.11963183 0.08050053 -0.10421589 0.10375063
0.03877211 -0.024182554 -0.013266554 0.022770494 0.08495536 0.056270607 0.030699441 0.08186071
-0.05758339 0.06876013 -0.10945917 -0.014617178 0.11538973 -0.03602875 -0.06478631 0.04806859
0.0556888 0.0262633 0.09524107 -0.09319527 -0.040878735 -0.10145211 -0.092687376 -0.07586246
0.0061272434 0.07184736 0.07651573 0.035474226 -0.04228547 0.118203394 -0.022405544 -0.010233679
0.10245907 -0.107435346 0.0060374844 -0.034074415 0.10188859 -0.0956791 -0.07135649 0.048074137
-0.0024946346 -0.058378827 -0.015698131 0.045020178 0.037943773 0.114284664 0.036282606 -0.057851356
0.034883358 0.028730685 0.058266334 0.009048996 -0.033868972 0.018118164 -0.10026936 -0.024483748
0.014837935 0.077298366 0.063553184 -0.03128844 0.009652922 0.05930723 0.073515 -0.021403441
-0.058753602 0.00126675 0.08153553 -0.019678831 0.07273601 0.036772735 0.0399716 -0.019126628
-0.0489369 0.020055845 0.091647126 0.046284143 -0.017923418 -0.12248592 0.028360955 -0.0638279
-0.028360844 -0.11429604 0.046332948 -0.061594743 0.019830419 -0.008225304 -0.06082156 0.027635174
-0.058997624 0.08367913 -0.11803506 0.0602594 0.08505842 0.050752163 0.038039807 0.071060136
-0.11308326 -0.062917255 -0.033140972 0.001959754 0.09593124 0.050881095 -0.05408888 0.12605362
-0.05419184 0.030321237 0.11480409 -0.021353623 -0.09987008 -0.011247484 -0.103472896 0.12419288
0.08467386 0.04527884 0.117939666 -0.07598616 -0.08742171 0.010417536 -0.06960548 0.03355973
0.11274715 -0.048941307 0.013598912 0.046699196 0.048461724 -0.014798379 0.07161013 0.07694376
-0.012071232 -0.08041945 -0.075953014 -0.061508637 0.015582891 0.10949904 0.10921814 0.074625105
0.08432592 0.071331486 0.050588638 0.039114553 -0.123806 -0.11831364 -0.039784 -0.051493935
-0.028002888 -0.0036933336 -0.11848571 0.010274773 -0.06452192 0.048785232 0.083760425 -0.023321461
-0.055268496 0.013621062 0.07127039 0.04361877 -0.0016249418 0.040108666 0.02412802 0.07201773
0.027372152 -0.10760561 0.097385004 -0.115583315 0.047526315 0.050528362 -0.015377253 0.017990246
0.092448056 -0.08063057 0.11522424 -0.08276695 0.070344046 0.06635305 0.123983234 -0.12045331
0.0020032823 0.034749866 0.0422543 -0.040358663 -0.00046487153 -0.09182122 0.058561176 -0.0025149435
-0.07290648 -0.034313947 -0.10257226 -0.11130951 0.012509659 -0.087479874 -0.080885306 0.044345766
-0.092712834 -0.0813977 0.042328387 -0.066508695 -0.11077452 -0.04362461 -0.07080343 -0.07742025
0.042540655 0.121736646 0.0989895 -0.059225142 -0.0032776296 -0.030691668 -0.023315161 0.049306437
0.019651294 -0.114641756 0.020886436 -0.01866433 0.10171726 -0.015641645 -0.08747518 -0.05811782
00000000: a75c c0bd 9056 aa3d 0f66 ffbd 857e bf3c
00000010: 1383 7f3d 6080 c6bd 3be4 283c cbb3 1dbd
00000020: 1596 f6bd e38e cebb 5fee a2bd 4105 783d
00000030: 4b14 013c 1062 31bd f234 d7bd 65e3 e33d
00000040: 4253 f53d 8522 9a3c 5390 e1bd ad04 a5bd
00000050: 55aa 733c 4a19 b63d 3fc8 30bd 944a f43d
00000060: 0a64 783c d19a 88bb 0ef6 d8bc 613c 5e3d
00000070: b7c2 9b3c c4fa c1bd 647d ecbd f138 c03d
00000080: 4b7e dc3c 9ba5 6d3c 2d36 5fbd 5ea2 a23d
00000090: 8801 f5bd 76dd a43d 246f d5bd 367b d43d
000000a0: 81cf 1e3d 7e1a c6bc f65b 59bc 3089 ba3c
000000b0: 13fd ad3d 027c 663d 657d fb3c 97a6 a73d
000000c0: 90dc 6bbd 1cd2 8c3d 212c e0bd e37c 6fbc
000000d0: 7351 ec3d e292 13bd afae 84bd 92e3 443d
000000e0: f019 643d 2226 d73c c00d c33d 29dd bebd
000000f0: 7670 27bd 20c6 cfbd e1d2 bdbd c75d 9bbd
00000100: 0bc7 c83b b524 933d 47b4 9c3d 6c4d 113d
00000110: 8733 2dbd 9f14 f23d d58b b7bc 29ab 27bc
00000120: 10d6 d13d 1007 dcbd 17d6 c53b 9d91 0bbd
00000130: f7aa d03d 67f3 c3bd 5a23 92bd 63e9 443d
00000140: 067d 23bb a31e 6fbd 5e99 80bc 1467 383d
00000150: ee6a 1b3d 140e ea3d 129d 143d 8bf5 6cbd
00000160: dae1 0e3d 9d5c eb3c aea8 6e3d 3d42 143c
00000170: 31ba 0abd 8b6c 943c 065a cdbd 2492 c8bc
00000180: cf1a 733c 9b4e 9e3d 2c28 823d 4f28 00bd
00000190: 4a27 1e3c 23ec 723d 088f 963d 4556 afbc
000001a0: 9ea7 70bd 1409 a63a 1afc a63d 8035 a1bc
000001b0: 9ef6 943d 029f 163d 43b9 233d 72af 9cbc
000001c0: 0f72 48bd 284c a43c 7db1 bb3d 7194 3d3d
000001d0: 22d4 92bc e6d9 fabd 3c55 e83c 34b8 82bd
000001e0: 0055 e8bc 0b14 eabd 9ec7 3d3d c54a 7cbd
000001f0: 6773 a23c 6dc3 06bc 0720 79bd 2963 e23c
00000200: 7ea7 71bd f75f ab3d 5ebc f1bd 90d2 763d
00000210: 1c33 ae3d 80e1 4f3d a1cf 1b3d fa87 913d
00000220: 3298 e7bd c3da 80bd d4be 07bd 376f 003b
00000230: 9977 c43d b268 503d 4d8c 5dbd 3314 013e
00000240: 43f8 5dbd 3e64 f83c 681e eb3d cbed aebc
00000250: af88 ccbd 5e47 38bc 99e9 d3bd d658 fe3d
00000260: 7d69 ad3d 4e76 393d 5a8a f13d a29e 9bbd
00000270: 270a b3bd 50ae 2a3c 518d 8ebd ed75 093d
00000280: fae7 e63d ae76 48bd f9cd 5e3c a847 3f3d
00000290: cd7f 463d e674 72bc 55a8 923d b194 9d3d
000002a0: 6bc6 45bc f4b2 a4bd 418d 9bbd 7bf0 7bbd
000002b0: 624f 7f3c 0841 e03d c3ad df3d 0cd5 983d
000002c0: 11b3 ac3d 3e16 923d 0836 4f3d 9536 203d
000002d0: 008e fdbd 6c4e f2bd 8cf4 22bd 4eeb 52bd
000002e0: 5066 e5bc db0b 72bb a3a8 f2bd 8657 283c
000002f0: 1224 84bd 06d3 473d 968a ab3d a60c bfbc
00000300: 3861 62bd e02a 5f3c 36f6 913d 98a9 323d
00000310: 00fc d4ba fc48 243d 20a8 c53c 087e 933d
00000320: 903b e03c 5460 dcbd ca71 c73d f2b6 ecbd
00000330: f4aa 423d d4f6 4e3d e0f0 7bbc 4860 933c
00000340: 6855 bd3d a421 a5bd b0fa eb3d b881 a9bd
00000350: 8a10 903d 1ce4 873d ecea fd3d 3ab0 f6bd
00000360: 8049 033b e055 0e3d d812 2d3d 204f 25bd
00000370: 00ba f3b9 c40c bcbd d8dd 6f3d c0d1 24bb
00000380: fe4f 95bd c88c 0cbd 6811 d2bd 3ef6 e3bd
00000390: 50f5 4c3c a628 b3bd 32a7 a5bd e8a3 353d
000003a0: 3ae0 bdbd d6b3 a6bd 8860 2d3d b635 88bd
000003b0: c0dd e2bd b8af 32bd 6401 91bd 828e 9ebd
000003c0: 1c3f 2e3d 1051 f93d 02bb ca3d 1096 72bd
000003d0: 80cd 56bb 186d fbbc 70ff bebc 8cf5 493d
000003e0: c0fb a03c 4cc9 eabd 081a ab3c f0e5 98bc
000003f0: 2451 d03d e822 80bc 3026 b3bd f40c 6ebd

bias f4 [64]
0.046949316 0.07674185 0.10897603 -0.050593197 -0.009251133 0.12543075 0.09183052 0.008209285
-0.058288645 0.06689887 -0.03181202 0.021474818 0.066491984 0.065766186 -0.0030263788 0.15291703
-0.10781037 -0.02709425 -0.083658494 -0.123069204 0.042118397 0.06818903 -0.08619152 -0.05562885
0.14040835 0.08009871 0.050995775 0.038857218 -0.111016914 0.029997125 0.088944376 -0.05584277
0.040732216 -0.04905077 -0.09634278 0.040540963 0.0597563 -0.06259345 0.1577674 -0.012202654
0.13715741 0.06310657 0.1449329 -0.0293333 0.13707902 -0.08232118 -0.11502991 0.06323683
-0.044041786 0.044079393 -0.076403104 -0.09253299 -0.055629935 0.18103062 -0.09714365 0.13328323
0.058359195 0.104556784 -0.038052373 0.079556264 0.063130446 -0.0139148 0.07403592 -0.010574947
00000000: ed4d 403d d52a 9d3d d32e df3d d03a 4fbd
00000010: 1092 17bc eb70 003e a411 bc3d 3d80 063c
00000020: 13c0 6ebd 4602 893d 524d 02bd f5eb af3c
00000030: f32c 883d 6cb0 863d 3656 46bb 4896 1c3e
00000040: afcb dcbd c3f4 ddbc 2555 abbd b50b fcbd
00000050: 5784 2c3d b1a6 8b3d 2e85 b0bd 14db 63bd
00000060: 35c7 0f3e cb0a a43d f2e0 503d bf28 1f3d
00000070: d65c e3bd 88bc f53c 7828 b63d 63bb 64bd
00000080: d3d6 263d 76e9 48bd 5d4f c5bd 480e 263d
00000090: 06c3 743d ff30 80bd c78d 213e a4ed 47bc
000000a0: fe72 0c3e 043e 813d 4a69 143e 644c f0bc
000000b0: 715e 0c3e 0298 a8bd cd94 ebbd 5082 813d
000000c0: 2965 34bd 988c 343d 3b79 9cbd f081 bdbd
000000d0: 37dc 63bd 1760 393e 40f3 c6bd 667b 083e
000000e0: 0d0a 6f3d de21 d63d cedc 1bbd 65ee a23d
000000f0: 894a 813d e7fa 63bc 25a0 973d 8b42 2dbc

weight f4 [64, 64]
-0.12224027 -0.08321246 -0.048393376 0.083822936 0.024434447 0.07953008 0.026007473 -0.04945703
-0.09312254 -0.08926525 -0.11002702 -0.09056885 0.07317464 -0.064594775 0.052715242 -0.11604134
-0.033748433 0.04665639 -0.00087727606 0.06342664 -0.10830342 0.1016213 0.005212774 0.11331536
0.08097135 -0.03280849 -0.0954733 0.061204623 0.02626665 0.0050594397 -0.10714585 0.051407
0.00058639434 -0.051586755 0.10198835 -0.032433517 -0.05070719 -0.115351796 0.09752406 0.09637142
0.10918366 0.0358915 -0.12114578 -0.08734545 0.03574214 -0.06869963 0.091976926 -0.10912294
0.028681636 -0.09286944 0.07437239 -0.052175105 -0.0860746 -0.06319153 -0.039421484 0.09550232
0.0388124 0.010049087 -0.115328886 0.007964995 0.0460703 -0.10218723 0.08759418 0.05601848
-0.014539207 -0.005757518 -0.011705881 -0.075365454 -0.011485055 -0.017630044 -0.07306777 0.044117488
0.082380675 0.0072173993 -0.013489367 0.08691319 -0.09125922 -0.046001554 0.1020855 -0.087652035
-0.08031987 0.110662505 -0.07825285 -0.032484274 0.11827809 -0.10643304 0.05753387 -0.06709564
0.018271135 -0.024544107 0.11540603 0.005504399 -0.011924073 -0.11940296 0.0969213 0.118098915
-0.09420754 0.034922604 0.023198642 -0.11089471 0.052913122 0.040594637 -0.023976965 -0.12233766
0.10620793 -0.08041885 -0.006332193 -0.0040860954 -0.034806885 0.06553774 -0.093946666 0.096215785
0.042958673 0.08338165 0.0771631 0.00671678 -0.12442679 -0.076165654 0.09703214 -0.090670295
0.12486391 -0.041775376 -0.0729037 0.07314179 -0.121567585 -0.09033586 0.031437613 0.11769588
0.043326095 -0.051815048 -0.104840875 -0.033273578 0.08906864 -0.10780905 0.122701064 0.084523216
-0.08849381 0.045973063 -0.0736575 -0.12283413 0.035651967 -0.035005942 0.08469638 -0.032815248
-0.020603523 0.029093415 -0.02459769 -0.013602659 0.11582063 0.018420413 -0.07927771 0.09064676
-0.11771774 0.0132095665 0.10752602 -0.006611824 0.055471182 -0.01092273 0.035152078 -0.070929736
-0.0644466 -0.12485245 0.022748366 0.10233092 -0.10372171 -0.07695615 -0.07544544 0.02554445
-0.038370654 -0.064046904 0.078653574 0.11389881 0.07733542 0.0856823 0.026459828 -0.07822466
0.06448358 0.028299958 0.068819985 -0.10418898 0.027496293 0.0043096095 -0.11364378 -0.030778632
0.08414987 -0.004233539 -0.07144311 0.071468785 -0.035840318 0.0029269606 0.09640184 0.047418565
-0.12390751 -0.052616358 -0.04646583 -0.0037080646 -0.11053106 -0.1003503 -0.11567141 -0.04284308
-0.060055 -0.01835793 0.015651776 0.115640335 -0.0744426 -0.057945948 0.08474225 -0.035794675
-0.11366104 -0.09597096 0.09659533 -0.02589585 0.1115554 0.02018963 0.080452226 -0.02821429
0.09645218 0.036110494 0.052911837 0.008447538 -0.07207857 0.0037965612 0.043975264 -0.110365935
0.06096827 -0.059631158 -0.035238955 0.025297008 0.11220338 -0.09707366 0.039478537 0.00286776
0.11295249 -0.12323631 0.103682585 -0.004583297 -0.039125446 0.112051554 0.066552 0.02755844
-0.008576665 -0.0872235 0.10305156 -0.00451627 -0.10887075 -0.1183002 -0.1198754 0.079479195
-0.04149829 0.040671345 0.11661884 -0.11923805 -0.06457836 -0.05169397 0.11801796 -0.08087598
00000000: 1b59 fabd 4b6b aabd 2238 46bd 5cab ab3d
00000010: c02a c83c abe0 a23d a00d d53c 7493 4abd
00000020: 08b7 bebd b3d0 b6bd d955 e1bd 297c b9bd
00000030: 96dc 953d 444a 84bd f0eb 573d 15a7 edbd
00000040: cc3b 0abd c51a 3f3d 00f9 65ba d4e5 813d
00000050: 2fce ddbd d41e d03d ebcf aa3b e211 e83d
00000060: 4fd4 a53d 3262 06bd 8187 c3bd b3b1 7a3d
00000070: 282d d73c a8c9 a53b 496f dbbd 2590 523d
00000080: 42b8 193a a24c 53bd 45df d03d 02d9 04bd
00000090: 58b2 4fbd 903d ecbd b2ba c73d 615e c53d
000000a0: af9b df3d f702 133d 471b f8bd 2ce2 b2bd
000000b0: 5a66 123d 64b2 8cbd 665e bc3d d97b dfbd
000000c0: c0f5 ea3c 5532 bebd 8d50 983d 90b5 55bd
000000d0: e147 b0bd 906a 81bd 6c78 21bd b896 c33d
000000e0: c0f9 1e3d eda4 243c 8d31 ecbd 9c7f 023c
000000f0: 36b4 3c3d 8a47 d1bd 9464 b33d a273 653d
00000100: db35 6ebc 90a9 bcbb 06ca 3fbc 3459 9abd
00000110: d02b 3cbc e26c 90bc 8ea4 95bd 8ab4 343d
00000120: 33b7 a83d ef7f ec3b 8202 5dbc 8bff b13d
00000130: 1de6 babd 206c 3cbd 3412 d13d e982 b3bd
00000140: be7e a4bd 06a3 e23d 0843 a0bd 3b0e 05bd
00000150: c93b f23d 91f9 d9bd a3a8 6b3d 7069 89bd
00000160: 59ad 953c b910 c9bc ff59 ec3d 3f5e b43b
00000170: 305d 43bc 8a89 f4bd ad7e c63d d8dd f13d
00000180: e2ef c0bd 010b 0f3d 140b be3c c41c e3bd
00000190: 6ebb 583d 9046 263d 576b c4bc 2b8c fabd
000001a0: 8b83 d93d a3b2 a4bd 497e cfbb a7e4 85bb
000001b0: aa91 0ebd a738 863d 1c67 c0bd c80c c53d
000001c0: 6ff5 2f3d 00c4 aa3d b007 9e3d 6f18 dc3b
000001d0: 79d3 febd bdfc 9bbd c9b8 c63d 59b1 b9bd
000001e0: a6b8 ff3d a81c 2bbd 894e 95bd 5dcb 953d
000001f0: 6df8 f8bd 0202 b9bd bac4 003d 8a0a f13d
00000200: b476 313d 043c 54bd d0b6 d6bd e049 08bd
00000210: 9e69 b63d feca dcbd b24a fb3d 821a ad3d
00000220: 3e3c b5bd 404e 3c3d bed9 96bd 7690 fbbd
00000230: cc07 123d 6462 0fbd 4c75 ad3d 4869 06bd
00000240: b8c8 a8bc 5055 ee3c 1881 c9bc b0dd 5ebc
00000250: 5e33 ed3d 68e6 963c 5a5c a2bd 02a5 b93d
00000260: 0016 f1bd f06c 583c 9a36 dc3d 00a8 d8bb
00000270: c035 633d 40f5 32bc a0fb 0f3d 9c43 91bd
00000280: 94fc 83bd a4b2 ffbd c85a ba3c e092 d13d
00000290: 0c6c d4bd 309b 9dbd 2483 9abd 9842 d13c
000002a0: 8c2a 1dbd 062b 83bd 2015 a13d c843 e93d
000002b0: 0862 9e3d 347a af3d 48c2 d83c 4034 a0bd
000002c0: f80f 843d 50d5 e73c 7ef1 8c3d 0861 d5bd
000002d0: e83f e13c a037 8d3b 12be e8bd 7823 fcbc
000002e0: c456 ac3d 80b9 8abb c450 92bd 3a5e 923d
000002f0: 4ccd 12bd 40d2 3f3b 546e c53d f839 423d
00000300: 38c3 fdbd 4084 57bd f452 3ebd 0003 73bb
00000310: 1c5e e2bd 7584 cdbd 22e5 ecbd 3a7c 2fbd
00000320: 3bfc 75bd 5f63 96bc 2738 803c d7d4 ec3d
00000330: 5d75 98bd bb58 6dbd 588d ad3d 709d 12bd
00000340: 1fc7 e8bd 6c8c c4bd c6d3 c53d 8923 d4bc
00000350: 2877 e43d b964 a53c 23c4 a43d a821 e7bc
00000360: b888 c53d 99e8 133d 15ba 583d 8b67 0a3c
00000370: ee9d 93bd bacf 783b 681f 343d 8907 e2bd
00000380: ddb9 793d cd3f 74bd b956 10bd ac3b cf3c
00000390: e3ca e53d 8ece c6bd 3fb4 213d 07f1 3b3b
000003a0: a353 e73d 5263 fcbd 8957 d43d 7b2f 96bb
000003b0: 0142 20bd 497b e53d 6a4c 883d 3dc2 e13c
000003c0: 2485 0cbc 3ca2 b2bd b20c d33d 38fd 93bb
000003d0: a1f7 debd 6047 f2bd 3c81 f5bd fdc5 a23d
000003e0: 1cfa 29bd ff96 263d dcd5 ee3d 1433 f4bd
000003f0: a941 84bd 0ebd 53bd 66b3 f13d 4ea2 a5bd

bias f4 [64]
-0.0076023866 0.1084131 -0.08246346 0.022958193 -0.11161861 -0.09872571 -0.019792985 -0.057607725
-0.046491683 0.15419412 -0.08751732 -0.094451725 0.057561886 -0.0177164 0.13467728 0.19288318
-0.04979758 -0.0732476 0.1579765 0.002814622 0.028435545 0.18922146 0.0029270833 0.11188121
0.11548754 0.026093675 -0.09237992 -0.12086722 -0.098934084 0.0024587743 0.20849176 -0.07831548
-0.04409793 0.17423724 0.096842244 -0.073964596 0.08304702 -0.024240837 -0.047773167 0.15043293
0.19439036 0.17085795 -0.0070398585 -0.114640504 0.03937303 -0.03286718 -0.053463936 0.06261304
0.038993325 0.027271861 -0.058280587 0.07030373 0.121694475 -0.07801959 0.13971418 -0.01635326
0.1900456 0.022337798 -0.031129405 -0.055514753 0.03736545 0.023631249 0.0797845 0.058407914
00000000: 711d f9bb b007 de3d 9ae2 a8bd d212 bc3c
00000010: 4c98 e4bd b430 cabd e624 a2bc 14f6 6bbd
00000020: 106e 3ebd 10e5 1d3e 483c b3bd e86f c1bd
00000030: 03c6 6b3d fc21 91bc d7e8 093e 2b83 453e
00000040: 8cf8 4bbd d602 96bd 97c4 213e 8575 383b
00000050: a9f1 e83c 45c3 413e 4fd4 3f3b fa21 e53d
00000060: bb84 ec3d 67c2 d53c af31 bdbd 3c89 f7bd
00000070: f49d cabd 6323 213b dd7e 553e de63 a0bd
00000080: 08a0 34bd 3f6b 323e 3a55 c63d c07a 97bd
00000090: 8e14 aa3d b894 c6bc ccad 43bd 170b 1a3e
000000a0: 440e 473e 63f5 2e3e 9dae e6bb a4c8 eabd
000000b0: 9d45 213d bc9f 06bd 00fd 5abd 443b 803d
000000c0: 77b7 1f3d 3d69 df3c a0b7 6ebd 67fb 8f3d
000000d0: f43a f93d bcc8 9fbd 3c11 0f3e 46f7 85bc
000000e0: 509b 423e c2fd b63c 1803 ffbc 7063 63bd
000000f0: 840c 193d 5296 c13c 0e66 a33d 233d 6f3d

weight f4 [1, 64]
0.10995953 0.0054903217 0.08644764 -0.100703284 -0.07450551 0.029554158 -0.046325326 0.05783929
0.021084294 0.11541663 -0.09873138 -0.05559875 0.04701518 0.00022569788 0.18916492 0.20347682
0.0026609034 -0.033959214 0.13387604 -0.06390171 0.032762542 0.19176678 -0.031851113 0.1237358
0.059465606 0.06259378 -0.09371859 -0.0048885494 -0.05079952 -0.07035887 0.26555607 -0.027100772
-0.09789489 0.14580572 0.088844985 0.124094054 0.04380802 0.09549461 0.090750456 0.14087898
0.18886304 0.12023396 -0.042570177 -0.0879944 -0.0858175 0.0096321115 -0.099595726 -0.06029434
-0.02314631 0.03603983 0.08258991 -0.116784886 0.20297155 -0.11799225 0.11026441 -0.08204178
0.23279724 -0.10457266 -0.10813342 -0.03037493 -0.118676126 0.22341077 0.06927102 0.14872532
00000000: 7632 e13d 28e8 b33b 760b b13d 863d cebd
00000010: 5896 98bd 901b f23c a0bf 3dbd e4e8 6c3d
00000020: f8b8 ac3c 8e5f ec3d ae33 cabd 84bb 63bd
00000030: fd92 403d 50a9 6c39 73b4 413e 3a5c 503e
00000040: 8d62 2e3b d118 0bbd cd16 093e e6de 82bd
00000050: 0432 063d 835e 443e 5076 02bd 3269 fd3d
00000060: 3592 733d 2b31 803d 88ef bfbd 2030 a0bb
00000070: 2813 50bd 5018 90bd f7f6 873e 7002 debc
00000080: 1e7d c8bd 184e 153e 5cf4 b53d 0625 fe3d
00000090: 0a70 333d ae92 c33d 60db b93d 9442 103e
000000a0: 5065 413e 393d f63d 115e 2ebd 6836 b4bd
000000b0: 16c1 afbd 01d0 1d3c d8f8 cbbd 33f7 76bd
000000c0: 559d bdbc 809e 133d e624 a93d ea2c efbd
000000d0: c6d7 4f3e eca5 f1bd 4fd2 e13d 8505 a8bd
000000e0: 6662 6e3e 312a d6bd 0e75 ddbd d8d4 f8bc
000000f0: 780c f3bd cbc5 643e f7dd 8d3d 734b 183e

weight f4 [64, 288]
0.051023003 0.02362318 0.02745865 -0.021027751 0.019011365 0.055503536 -0.016987443 -0.058253232
0.024919795 -0.03360293 -0.022423621 0.019563865 -0.006903641 -0.045114864 -0.017932031 -0.019511674
0.035427462 -0.015921991 -0.051262796 -0.056513317 0.055578467 0.053737737 0.037771244 0.041683074
-0.036107667 0.04868063 -0.0042193197 0.015347544 -0.039311685 -0.01020201 -0.019710984 -0.014597386
-0.011021845 -0.022845924 0.014250968 0.012460459 0.006082747 -0.021056559 -0.044760767 0.029660124
-0.012286656 -0.051053945 -0.010728965 0.007501837 -0.0054643676 0.056761842 -0.016819127 -0.043415926
-0.04897969 0.0024884343 0.007549634 -0.055478882 -0.025538713 0.021263871 0.007663179 -0.051817186
0.010386537 0.013547715 0.024057563 0.0021106303 -0.017116487 0.017344695 -0.021269258 0.0013730675
0.030665401 -0.03580045 -0.0059259087 0.036331143 0.018350104 -0.054790203 0.02182996 -0.047358666
0.026356932 0.03161918 -0.039952606 -0.026679397 -0.011295699 0.037703525 0.014460853 -0.043287143
-0.025931481 -0.024469167 0.04707319 0.039729368 -0.017621418 0.007966038 0.017189685 -0.050064176
-0.0072177975 -0.05349631 0.018628102 0.016865756 -0.03067034 -0.041527893 -0.022929072 0.014440756
-0.0072865374 0.034813102 -0.05234009 -0.031006895 -0.016213585 0.0486041 -0.016233612 -0.04725182
0.037018877 -0.00071094185 0.051640857 -0.021017708 -0.052247047 0.04704008 0.024428297 0.03221452
-0.034462012 0.055716064 0.01737025 -0.0191294 0.041085366 0.0022435288 -0.013774574 -0.016340572
0.0381391 0.039519038 -0.049998492 -0.00517888 -0.022853084 0.04984853 -0.027562171 0.010176871
-0.049210563 0.031692762 0.011848996 0.014014015 -0.012838669 -0.05848922 0.032187965 -0.03367781
-0.0097052865 -0.037239157 -0.03417003 -0.042337332 -0.030446595 -0.05245429 -0.011102598 0.008033577
0.0019193564 -0.00889471 -0.0333011 0.022681328 -0.0022497156 0.007113398 -0.040007178 0.026462505
0.043751348 0.022225514 0.05319986 -0.021224115 0.0069482718 0.041759662 0.025376264 -0.04731884
0.026697122 0.04341763 0.014567718 0.040214848 -0.029261157 -0.010010618 0.01040973 -0.016702136
-0.004721206 -0.020053249 0.059066653 -0.042740166 0.04394459 0.0047242427 -0.0072660814 -0.042066444
0.053894583 -0.012136818 -0.005365595 -0.026708202 -0.019213744 0.038390756 -0.024295203 -0.019077348
-0.038903106 -0.04438771 -0.0025123425 -0.019134946 0.006946266 0.028025813 -0.022810088 0.011864014
0.035767883 0.041673046 -0.025005827 -0.04904819 -0.007062938 -0.031156357 -0.009077843 0.049137793
-0.04290384 -0.034196034 0.056113467 0.016769769 0.05284722 0.068324275 0.05102789 -0.049147837
-0.026748901 0.047100298 0.0702247 0.069296815 0.02834271 0.06321127 -0.0074337884 0.029647572
-0.03203363 -0.028082777 -0.03606152 0.049246863 0.027574943 0.04036257 0.009717818 0.027178511
0.02982905 -0.008623305 0.0502243 -0.0007403151 0.027975114 -0.009430033 -0.013166267 -0.015831862
0.061006393 -0.034536447 0.056044046 -0.013844015 0.061995707 0.027350245 0.016797578 0.056995936
-0.00806331 0.038721394 0.024670659 0.05230034 0.03688611 0.045923594 0.006042835 -0.0011303287
0.01874584 0.050931245 -0.00072642096 0.050196934 -0.04539825 0.005871492 -0.05099191 -0.04628724
00000000: 7ffd 503d 6685 c13c f6f0 e03c 6442 acbc
00000010: b9bd 9b3c ad57 633d 4029 8bbc f19a 6ebd
00000020: 9924 cc3c 3aa3 09bd beb1 b7bc 6644 a03c
00000030: f037 e2bb 5dca 38bd 32e6 92bc f2d6 9fbc
00000040: 631c 113d d66e 82bc f0f8 51bd 827a 67bd
00000050: 3fa6 633d 1a1c 5c3d 05b6 1a3d dfbb 2a3d
00000060: a2e5 13bd 5765 473d 3842 8abb 4474 7b3c
00000070: 4a05 21bd 5526 27bc ee78 a1bc e029 6fbc
00000080: f894 34bc 6027 bbbc e47c 693c f426 4c3c
00000090: c851 c73b ce7e acbc 1157 37bd caf9 f23c
000000a0: f84d 49bc f11d 51bd 8ac8 2fbc f8d1 f53b
000000b0: 700e b3bb 1b7f 683d 44c8 89bc e6d4 31bd
000000c0: ed9e 48bd 0015 233b ec62 f73b d33d 63bd
000000d0: 9036 d1bc 9231 ae3c 681b fb3b 423e 54bd
000000e0: 4b2c 2a3c 3cf7 5d3c 5e14 c53c 8052 0a3b
000000f0: e037 8cbc 7616 8e3c de3c aebc 80f8 b33a
00000100: 0236 fb3c 7ea3 12bd 202e c2bb f7cf 143d
00000110: f552 963c b16b 60bd bfd4 b23c 29fb 41bd
00000120: 7eea d73c 1d83 013d 58a5 23bd c08e dabc
00000130: 9811 39bc 036f 1a3d 37ed 6c3c dc4d 31bd
00000140: 426e d4bc 9073 c8bc d1cf 403d 43bb 223d
00000150: cb5a 90bc fc83 023c 62d1 8c3c 1810 4dbd
00000160: 4683 ecbb f21e 5bbd f699 983c 0e2a 8a3c
00000170: 5d40 fbbc 2719 2abd c0d5 bbbc ec98 6c3c
00000180: e8c3 eebb 2f98 0e3d 9062 56bd 2c02 febc
00000190: 5ad2 84bc 1815 473d 5afc 84bc 208b 41bd
000001a0: 1ba1 173d 805e 3aba 5d85 533d 542d acbc
000001b0: 0001 56bd 19ad 403d da1d c83c 5ff3 033d
000001c0: 0a28 0dbd 8736 643d 0e4c 8e3c 42b5 9cbc
000001d0: 2149 283d 2b08 133b c0ae 61bc aadc 85bc
000001e0: bf37 1c3d b7de 213d 38cb 4cbd 98b3 a9bb
000001f0: 6436 bbbc f92d 4c3d 10ca e1bc e4bc 263c
00000200: 0491 49bd 45d0 013d 4b22 423c 0a9b 653c
00000210: 4859 52bc 6492 6fbd 87d7 033d bef1 09bd
00000220: ec02 1fbc 1688 18bd e0f5 0bbd e969 2dbd
00000230: 236b f9bc 4fda 56bd ace7 35bc 449f 033c
00000240: ea92 fb3a 1ebb 11bc bc66 08bd 31ce b93c
00000250: f76f 13bb 8217 e93b 91de 23bd e5c7 d83c
00000260: 9d34 333d 4812 b63c 19e8 593d 32de adbc
00000270: 54ae e33b 2e0c 2b3d e2e1 cf3c 66d1 41bd
00000280: ecb3 da3c afd6 313d 70ad 6e3c 53b8 243d
00000290: 18b5 efbc 9303 24bc 928d 2a3c ebd2 88bc
000002a0: 59b4 9abb b646 a4bc e0ef 713d 5010 2fbd
000002b0: 3eff 333d d2cd 9a3b 4f18 eebb dd4d 2cbd
000002c0: 91c0 5c3d 81d9 46bc e0d1 afbb 29cb dabc
000002d0: 2466 9dbc a03f 1d3d bc06 c7bc 1948 9cbc
000002e0: dd58 1fbd e3cf 35bd 1da6 24bb e4c0 9cbc
000002f0: 819d e33b 6496 e53c 39dc babc 4861 423c
00000300: 5881 123d 5bb1 2a3d 05d9 ccbc c1e6 48bd
00000310: 3870 e7bb 9e3b ffbc 3cbb 14bc b644 493d
00000320: f0bb 2fbd 2411 0cbd 3cd7 653d c160 893c
00000330: 5476 583d 99ed 8b3d 9f02 513d 3e4f 49bd
00000340: 8320 dbbc 3eec 403d f8d1 8f3d 7deb 8d3d
00000350: f92e e83c e974 813d 2397 f3bb 77df f23c
00000360: b235 03bd da0d e6bc 3fb5 13bd 14b7 493d
00000370: d9e4 e13c 3953 253d 7c37 1f3c 78a5 de3c
00000380: 0d5c f43c c348 0dbc ffb7 4d3d b511 42ba
00000390: 112c e53c 6d80 1abc 54b7 57bc d2b1 81bc
000003a0: d7e1 793d 1776 0dbd 718e 653d 02d2 62bc
000003b0: 36ef 7d3d 9f0d e03c 139b 893c 9274 693d
000003c0: f91b 04bc 539a 1e3d 1f1a ca3c e238 563d
000003d0: e415 173d 611a 3c3d f902 c63b 8a27 94ba
000003e0: e090 993c 489d 503d 496d 3eba 4d9b 4d3d
000003f0: 84f3 39bd a565 c03b e5dc 50bd b097 3dbd

bias f4 [64]
0.0007273726 -0.014173422 0.0338923 -0.016274037 -0.033679333 0.056792043 0.04102658 -0.009720277
0.018564342 -0.0025992533 0.0011367472 -0.018783247 0.0819042 -0.053280577 0.033552077 0.074510545
-0.04490412 0.056175027 0.029470464 -0.03662615 -0.021842511 0.0131009165 -0.031962592 0.02920125
0.012951949 -0.019785263 0.037404615 -0.022857629 0.045347262 -0.0127891395 -0.05060366 0.009229661
-0.021037074 -0.021225162 -0.013073358 0.021225153 0.0194697 0.06631935 0.020715492 0.037997987
-0.035262 0.007060606 -0.016508907 -0.018500008 0.014626478 -0.0566691 -0.040341116 0.02984119
0.033099424 0.015135333 -0.045727216 0.04415617 -0.01222775 -0.011182105 -0.0036831605 -0.0026741058
0.045488972 0.044873938 -0.018273283 0.006073852 -0.023763515 0.07501935 0.033150475 0.010262159
00000000: 26ad 3e3a a437 68bc a7d2 0a3d 2151 85bc
00000010: 57f3 09bd c69e 683d 7d0b 283d cc41 1fbc
00000020: 3f14 983c 3c58 2abb e8fe 943a 53df 99bc
00000030: 64bd a73d bc3c 5abd e76d 093d fc98 983d
00000040: 62ed 37bd c917 663d 0b6c f13c 4d05 16bd
00000050: 11ef b2bc 3aa5 563c 35eb 02bd 7637 ef3c
00000060: 6934 543c b414 a2bc 9535 193d ec3f bbbc
00000070: 0dbe 393d 8a89 51bc c945 4fbd 0138 173c
00000080: f155 acbc 64e0 adbc a331 56bc 5fe0 ad3c
00000090: ec7e 9f3c 70d2 873d 89b3 a93c c7a3 1b3d
000000a0: e36e 10bd a85c e73b b03d 87bc 548d 97bc
000000b0: e5a3 6f3c dc1d 68bd ba3c 25bd 8375 f43c
000000c0: 4393 073d 30fa 773c 764c 3bbd 1add 343d
000000d0: e756 48bc 2635 37bc 2e61 71bb 0d40 2fbb
000000e0: a552 3a3d bccd 373d dab1 95bc 2a07 c73b
000000f0: b4ab c2bc bfa3 993d cbc8 073d 9d22 283c

weight f4 [64, 64]
-0.093871884 0.0831677 -0.12469564 0.023374466 0.062384482 -0.096921496 0.010310665 -0.038473025
-0.12039989 -0.0062827705 -0.07955011 0.060582284 0.007877134 -0.043301076 -0.10505759 0.11128234
0.11979568 0.018831883 -0.110136084 -0.080574386 0.014883316 0.088928916 -0.043132756 0.11928133
0.015171998 -0.0041690096 -0.026480855 0.054265477 0.019037299 -0.0947117 -0.115468174 0.0938687
0.026933407 0.014534311 -0.054482948 0.0794608 -0.11960022 0.080510885 -0.10418395 0.1037794
0.038810726 -0.024170274 -0.0132602025 0.022769941 0.08497169 0.056287598 0.030715596 0.08187315
-0.057537597 0.06878034 -0.109461695 -0.0145833995 0.11539457 -0.036015965 -0.06477983 0.048073642
0.055735417 0.026265532 0.09527659 -0.09318351 -0.040878035 -0.10144949 -0.09264548 -0.07583519
0.006808626 0.07186242 0.07668241 0.0355018 -0.042254284 0.11822193 -0.022524083 -0.010063395
0.102516435 -0.10733447 0.0060903714 -0.033826053 0.10176397 -0.09562711 -0.07113463 0.047934797
-0.0023418372 -0.058374126 -0.015671268 0.04502173 0.038009677 0.11428866 0.036526054 -0.05788021
0.034964807 0.02874766 0.05824842 0.009194211 -0.03376869 0.01819332 -0.10002916 -0.024407886
0.014870829 0.07748333 0.063712396 -0.031180982 0.009905881 0.059423786 0.07372216 -0.0211501
-0.05834754 0.0014565527 0.08154477 -0.019620981 0.07292994 0.0369091 0.040016986 -0.018964142
-0.048634753 0.020079521 0.09172049 0.046398435 -0.017864233 -0.122302994 0.028454592 -0.06381062
-0.027984735 -0.11433339 0.046703316 -0.061498065 0.019873371 -0.008295806 -0.060293503 0.027892478
-0.052657176 0.08376985 -0.11674603 0.060543153 0.085413925 0.051067874 0.037302084 0.07258673
-0.1125849 -0.06169915 -0.032785155 0.0040640696 0.09512092 0.05121551 -0.05207847 0.125205
-0.05263873 0.030382005 0.115015 -0.021338236 -0.09933527 -0.0111426925 -0.101423614 0.12404998
0.0852605 0.04541975 0.11780295 -0.074814625 -0.08641816 0.010845823 -0.06737205 0.033995826
0.11330821 -0.04738011 0.015092228 0.047530662 0.050855257 -0.013839808 0.07353212 0.0796023
-0.007871829 -0.07891281 -0.07567984 -0.061022643 0.01792325 0.11104802 0.109625876 0.07604676
0.08785897 0.07144327 0.051229198 0.039960574 -0.12333884 -0.11645046 -0.039116684 -0.051299643
-0.024105545 -0.003753662 -0.11508933 0.011092111 -0.064038634 0.04834008 0.08903828 -0.021196092
-0.055268496 0.013621071 0.07127039 0.04361877 -0.0016249418 0.040108666 0.02412802 0.07201773
0.027372157 -0.10760561 0.097385004 -0.115583315 0.047526315 0.050528362 -0.015377253 0.017990246
0.092448056 -0.08063057 0.11522424 -0.08276695 0.070344046 0.06635305 0.123983234 -0.12045331
0.0020032823 0.034749866 0.0422543 -0.040358663 -0.00046487153 -0.09182122 0.058561176 -0.0025149435
-0.07290648 -0.034313947 -0.10257226 -0.11130955 0.012509659 -0.087479874 -0.080885306 0.044345766
-0.09271288 -0.0813977 0.042328387 -0.066508695 -0.1107746 -0.04362461 -0.07080343 -0.07742025
0.042540655 0.121736646 0.0989895 -0.059225142 -0.00327763 -0.030691668 -0.023315161 0.049306437
0.019651294 -0.114641756 0.020886436 -0.01866433 0.10171726 -0.015641645 -0.08747518 -0.05811782
00000000: e73f c0bd d453 aa3d 6d60 ffbd cf7b bf3c
00000010: df86 7f3d c77e c6bd 10ee 283c e495 1dbd
00000020: 3894 f6bd b3df cdbb 2beb a2bd 2125 783d
00000030: 180f 013c 785c 31bd 6f28 d7bd ffe7 e33d
00000040: 7057 f53d 5245 9a3c 078f e1bd 2f04 a5bd
00000050: 27d9 733c 5d20 b63d f9ab 30bd c549 f43d
00000060: f993 783c 309c 88bb 61ee d8bc 7a45 5e3d
00000070: 1cf4 9b3c 35f8 c1bd 947a ecbd 3c3e c03d
00000080: 73a3 dc3c 5221 6e3c 8329 5fbd 58bc a23d
00000090: f6f0 f4bd e4e2 a43d 655e d5bd 4b8a d43d
000000a0: fff7 1e3d bd00 c6bc 5241 59bc 0788 ba3c
000000b0: a305 ae3d d38d 663d 469f fb3c 1cad a73d
000000c0: 8bac 6bbd b5dc 8c3d 742d e0bd 36ef 6ebc
000000d0: fd53 ec3d 7a85 13bd 4aab 84bd dee8 443d
000000e0: d24a 643d d02a d73c 5f20 c33d ffd6 bebd
000000f0: ba6f 27bd c0c4 cfbd eabc bdbd 7b4f 9bbd
00000100: e51a df3b 9b2c 933d ab0b 9d3d 566a 113d
00000110: d412 2dbd 571e f23d 6d84 b8bc f0e0 24bc
00000120: 23f4 d13d 2dd2 dbbd bd91 c73b 308d 0abd
00000130: a169 d03d 25d8 c3bd 08af 91bd 4757 443d
00000140: 8279 19bb b519 6fbd 0861 80bc b568 383d
00000150: 09b0 1b3d 2c10 ea3d 589c 153d cd13 6dbd
00000160: 4237 0f3d 3680 eb3c e595 6e3d 51a3 163c
00000170: 0a51 0abd 280a 953c 17dc ccbd 0cf3 c7bc
00000180: c7a4 733c 95af 9e3d a57b 823d 426f ffbc
00000190: 474c 223c 5b66 733d a5fb 963d f942 adbc
000001a0: d5fd 6ebd cce9 be3a f200 a73d 2ebc a0bc
000001b0: 4b5c 953d ff2d 173d dae8 233d b05a 9bbc
000001c0: 3c35 47bd cf7d a43c f4d7 bb3d 490c 3e3d
000001d0: 0358 92bc fe79 fabd 9b19 e93c 24af 82bd
000001e0: 3e40 e5bc a027 eabd fa4b 3f3d 65e5 7bbd
000001f0: 7bcd a23c 22eb 07bc 52f6 76bd c47e e43c
00000200: 0daf 57bd 878f ab3d 8b18 efbd 19fc 773d
00000210: 7fed ae3d 8c2c 513d 12ca 183d 5aa8 943d
00000220: e992 e6bd 3fb8 7cbd ba49 06bd e32b 853b
00000230: c2ce c23d 5bc7 513d 3c50 55bd bd35 003e
00000240: b59b 57bd afe3 f83c fc8c eb3d 86cd aebc
00000250: 4a70 cbbd d78f 36bc 2fb7 cfbd ea0d fe3d
00000260: 0f9d ae3d 0f0a 3a3d ac42 f13d 6938 99bd
00000270: 01fc b0bd aeb2 313c 5bfa 89bd 353f 0b3d
00000280: 230e e83d a511 42bd 6445 773c 83af 423d
00000290: 9a4d 503d 5dc0 62bc 0298 963d 8806 a33d
000002a0: d8f8 00bc 0a9d a1bd 08fe 9abd e1f2 79bd
000002b0: c8d3 923c 256d e33d 8883 e03d 67be 9b3d
000002c0: 67ef b33d d950 923d b5d5 513d b3ad 233d
000002d0: 1399 fcbd 947d eebd d138 20bd 931f 52bd
000002e0: fe78 c5bc 0000 76bb f4b3 ebbd afbb 353c
000002f0: b026 83bd 3f00 463d b459 b63d 6da3 adbc
00000300: 3861 62bd ea2a 5f3c 36f6 913d 98a9 323d
00000310: 00fc d4ba fc48 243d 20a8 c53c 087e 933d
00000320: 933b e03c 5460 dcbd ca71 c73d f2b6 ecbd
00000330: f4aa 423d d4f6 4e3d e0f0 7bbc 4860 933c
00000340: 6855 bd3d a421 a5bd b0fa eb3d b881 a9bd
00000350: 8a10 903d 1ce4 873d ecea fd3d 3ab0 f6bd
00000360: 8049 033b e055 0e3d d812 2d3d 204f 25bd
00000370: 00ba f3b9 c40c bcbd d8dd 6f3d c0d1 24bb
00000380: fe4f 95bd c88c 0cbd 6811 d2bd 43f6 e3bd
00000390: 50f5 4c3c a628 b3bd 32a7 a5bd e8a3 353d
000003a0: 40e0 bdbd d6b3 a6bd 8860 2d3d b635 88bd
000003b0: cbdd e2bd b8af 32bd 6401 91bd 828e 9ebd
000003c0: 1c3f 2e3d 1051 f93d 02bb ca3d 1096 72bd
000003d0: 82cd 56bb 186d fbbc 70ff bebc 8cf5 493d
000003e0: c0fb a03c 4cc9 eabd 081a ab3c f0e5 98bc
000003f0: 2451 d03d e822 80bc 3026 b3bd f40c 6ebd

bias f4 [64]
0.04713726 0.07716867 0.114750154 -0.050593197 -0.009251133 0.124861196 0.09586889 0.008666791
-0.0630197 0.06786681 -0.043244563 0.024545351 0.064992085 0.06508096 -0.0062856716 0.15262264
-0.10765027 -0.027221637 -0.083657436 -0.12323015 0.04050654 0.0681447 -0.080278374 -0.055041257
0.14227372 0.08094086 0.048399914 0.039056707 -0.111016914 0.029931897 0.09055563 -0.055973396
0.0375784 -0.049305815 -0.09635526 0.034130022 0.059580088 -0.06311878 0.16458632 -0.01015714
0.1403948 0.06542513 0.14957969 -0.02945369 0.13359974 -0.08236483 -0.11502125 0.06264793
-0.041134372 0.04339799 -0.077040054 -0.09279719 -0.054982666 0.17623252 -0.097144485 0.13830993
0.056600515 0.099380285 -0.03826621 0.08043267 0.061657917 -0.014475631 0.07222759 -0.010530976
00000000: 0013 413d 9c0a 9e3d 2102 eb3d d03a 4fbd
00000010: 1092 17bc 3ab7 ff3d e956 c43d 28ff 0d3c
00000020: 7910 81bd c1fd 8a3d 3621 31bd 5513 c93c
00000030: 921a 853d 2b49 853d 09f8 cdbb 1c49 1c3e
00000040: bf77 dcbd e9ff debc 9754 abbd 1760 fcbd
00000050: 30ea 253d 738f 8b3d fd68 a4bd f172 61bd
00000060: 34b0 113e 52c4 a53d fd3e 463d edf9 1f3d
00000070: d65c e3bd bd33 f53c 3b75 b93d 5c44 65bd
00000080: cfeb 193d e5f4 49bd e855 c5bd eccb 0b3d
00000090: 400a 743d 6b44 81bd 5189 283e 226a 26bc
000000a0: a8c3 0f3e 9cfd 853d 6b2b 193e dd48 f1bc
000000b0: 5fce 083e e4ae a8bd 4390 ebbd 8f4d 803d
000000c0: 847c 28bd 17c2 313d 2dc7 9dbd 740c bebd
000000d0: 8135 61bd 4c76 343e b0f3 c6bd 1ea1 0d3e
000000e0: f1d5 673d e487 cb3d 08bd 1cbd e2b9 a43d
000000f0: 038d 7c3d 322b 6dbc 0fec 933d 1d8a 2cbc

weight f4 [64, 64]
-0.12223211 -0.08318632 -0.048319716 0.083822936 0.024434447 0.079583265 0.026058586 -0.049445122
-0.09310764 -0.08919765 -0.110022016 -0.09056212 0.073189646 -0.0645752 0.052767836 -0.11601352
-0.03374268 0.046657268 -0.00087727606 0.06342664 -0.108275175 0.10163533 0.005228127 0.11332132
0.08103503 -0.0327811 -0.09543873 0.061215844 0.02626665 0.0050782505 -0.10710778 0.051407192
0.0006032547 -0.051587496 0.10198738 -0.032410044 -0.050678257 -0.11534755 0.09759944 0.09638373
0.10928646 0.035931926 -0.12112405 -0.08734588 0.035779256 -0.068699636 0.091978244 -0.10911796
0.028695876 -0.09284791 0.07437323 -0.052170955 -0.08606514 -0.06317357 -0.039421484 0.09557998
0.03881324 0.010062561 -0.115327016 0.0079995915 0.04607952 -0.10217074 0.08761779 0.05601963
-0.014571391 -0.005754579 -0.0116853835 -0.075365454 -0.011485055 -0.017713701 -0.07305712 0.044132363
0.082474954 0.0073242374 -0.013332074 0.08692971 -0.091329746 -0.046003196 0.10227308 -0.08774932
-0.08031832 0.11067065 -0.07825285 -0.032483626 0.11852671 -0.10643057 0.057579577 -0.06709234
0.01822564 -0.02458473 0.11552143 0.005582284 -0.011924073 -0.11941801 0.09688401 0.11810103
-0.09403934 0.034944844 0.023198336 -0.110624835 0.05292159 0.040684853 -0.023946807 -0.12232215
0.10634749 -0.080403745 -0.006362963 -0.0040827882 -0.03491104 0.06554009 -0.0939467 0.09620092
0.042979382 0.08335679 0.0771695 0.006723555 -0.124414355 -0.07633392 0.09703174 -0.09058015
0.12482369 -0.041869037 -0.07290326 0.07315962 -0.12161314 -0.09031013 0.03139732 0.11769619
0.043326095 -0.051815048 -0.10484095 -0.033273578 0.08906864 -0.10780905 0.122701064 0.084523216
-0.08849381 0.045973063 -0.0736575 -0.12283413 0.035651967 -0.035005942 0.08469638 -0.032815248
-0.020603523 0.029093415 -0.02459769 -0.013602659 0.11582063 0.018420413 -0.07927771 0.09064676
-0.11771774 0.0132095665 0.10752602 -0.006611824 0.055471182 -0.01092273 0.035152078 -0.070929736
-0.0644466 -0.12485245 0.022748366 0.10233092 -0.10372171 -0.07695615 -0.07544544 0.02554445
-0.038370654 -0.064046904 0.078653626 0.11389881 0.07733542 0.0856823 0.026459832 -0.07822466
0.06448358 0.028299958 0.068819985 -0.10418898 0.027496293 0.0043096095 -0.11364378 -0.030778632
0.08414987 -0.004233539 -0.07144311 0.071468785 -0.035840318 0.0029269606 0.09640184 0.047418565
-0.123690896 -0.052627467 -0.04651884 -0.0037080646 -0.11053106 -0.09983758 -0.11573569 -0.042947877
-0.060663372 -0.018992454 0.014403298 0.11553004 -0.07402432 -0.057943393 0.083413824 -0.035167612
-0.113672204 -0.096026465 0.09659517 -0.025898749 0.109818086 0.020162297 0.080160074 -0.028233923
0.096775874 0.03635346 0.052077904 0.007882694 -0.07207857 0.0038887372 0.044241283 -0.11036764
0.05975193 -0.059768923 -0.035238124 0.023387648 0.11217519 -0.09769783 0.039294373 0.0027228433
0.11202316 -0.12331034 0.10392031 -0.004592636 -0.038506333 0.11204169 0.06655089 0.027632147
-0.008694235 -0.08707957 0.10300864 -0.0045574517 -0.10893861 -0.11727987 -0.11987623 0.07892187
-0.041245475 0.041261103 0.11661535 -0.11931862 -0.06431032 -0.05185766 0.11824465 -0.080877
00000000: d454 fabd 975d aabd e5ea 45bd 5cab ab3d
00000010: c02a c83c 8dfc a23d d178 d53c f886 4abd
00000020: 38af bebd 42ad b6bd 3953 e1bd a278 b9bd
00000030: 74e4 953d 0140 84bd 1623 583d 7f98 edbd
00000040: c435 0abd b11b 3f3d 00f9 65ba d4e5 813d
00000050: 60bf ddbd 2f26 d03d b550 ab3b 0215 e83d
00000060: b2f5 a53d 7a45 06bd 6275 c3bd 77bd 7a3d
00000070: 282d d73c 7467 a63b 535b dbbd 5990 523d
00000080: bd23 1e3a 694d 53bd c2de d03d 65c0 04bd
00000090: 0194 4fbd 563b ecbd 37e2 c73d d564 c53d
000000a0: 94d1 df3d 5b2d 133d e30f f8bd 66e2 b2bd
000000b0: 458d 123d 65b2 8cbd 175f bc3d 3d79 dfbd
000000c0: 9d13 eb3c 0c27 bebd fe50 983d 36b1 55bd
000000d0: ec42 b0bd 2561 81bd 6c78 21bd 70bf c33d
000000e0: a2fa 1e3d 71dd 243c 9230 ecbd b810 033c
000000f0: e1bd 3c3d e53e d1bd f570 b33d d774 653d
00000100: d8bc 6ebc e890 bcbb 0d74 3fbc 3459 9abd
00000110: d02b 3cbc 531c 91bc f99e 95bd 23c4 343d
00000120: a1e8 a83d 2800 f03b c56e 5abc 3408 b23d
00000130: 170b bbbd d96d 3cbd 8c74 d13d eab5 b3bd
00000140: ee7d a4bd 4ba7 e23d 0843 a0bd 8d0d 05bd
00000150: 22be f23d 45f8 d9bd 90d8 6b3d b567 89bd
00000160: f04d 953c ea65 c9bc 8096 ec3d 98eb b63b
00000170: 305d 43bc 6e91 f4bd 206b c63d f4de f13d
00000180: b397 c0bd 5322 0f3d 700a be3c 468f e2bd
00000190: 4fc4 583d 29a5 263d 182c c4bc 0984 fabd
000001a0: b6cc d93d b8aa a4bd 6780 d0bb e9c8 85bb
000001b0: e1fe 0ebd e239 863d 2167 c0bd fd04 c53d
000001c0: 260b 303d f7b6 aa3d 0b0b 9e3d 4451 dc3b
000001d0: f4cc febd f554 9cbd 94b8 c63d 1682 b9bd
000001e0: 90a3 ff3d de7e 2bbd 4e4e 95bd b6d4 953d
000001f0: 4f10 f9bd 84f4 b8bd 7a9a 003d b30a f13d
00000200: b476 313d 043c 54bd dab6 d6bd e049 08bd
00000210: 9e69 b63d feca dcbd b24a fb3d 821a ad3d
00000220: 3e3c b5bd 404e 3c3d bed9 96bd 7690 fbbd
00000230: cc07 123d 6462 0fbd 4c75 ad3d 4869 06bd
00000240: b8c8 a8bc 5055 ee3c 1881 c9bc b0dd 5ebc
00000250: 5e33 ed3d 68e6 963c 5a5c a2bd 02a5 b93d
00000260: 0016 f1bd f06c 583c 9a36 dc3d 00a8 d8bb
00000270: c035 633d 40f5 32bc a0fb 0f3d 9c43 91bd
00000280: 94fc 83bd a4b2 ffbd c85a ba3c e092 d13d
00000290: 0c6c d4bd 309b 9dbd 2483 9abd 9842 d13c
000002a0: 8c2a 1dbd 062b 83bd 2715 a13d c843 e93d
000002b0: 0862 9e3d 347a af3d 4ac2 d83c 4034 a0bd
000002c0: f80f 843d 50d5 e73c 7ef1 8c3d 0861 d5bd
000002d0: e83f e13c a037 8d3b 12be e8bd 7823 fcbc
000002e0: c456 ac3d 80b9 8abb c450 92bd 3a5e 923d
000002f0: 4ccd 12bd 40d2 3f3b 546e c53d f839 423d
00000300: a751 fdbd e68f 57bd 8a8a 3ebd 0003 73bb
00000310: 1c5e e2bd a577 ccbd d506 edbd 1dea 2fbd
00000320: 287a 78bd 1096 9bbc cffb 6b3c 039b ec3d
00000330: 109a 97bd 0d56 6dbd ded4 aa3d ea0b 10bd
00000340: f9cc e8bd 86a9 c4bd b0d3 c53d 9d29 d4bc
00000350: 4ee8 e03d 672b a53c f72a a43d d44a e7bc
00000360: 6e32 c63d 5ee7 143d a44f 553d 6a26 013c
00000370: ee9d 93bd 2fda 7e3b 5936 353d 6e08 e2bd
00000380: 71be 743d 42d0 74bd da55 10bd 7497 bf3c
00000390: 1bbc e53d cd15 c8bd 23f3 203d bb71 323b
000003a0: 666c e53d 228a fcbd 2cd4 d43d d37d 96bb
000003b0: d1b8 1dbd 1d76 e53d d54b 883d d05c e23c
000003c0: 4472 0ebc c656 b2bd 32f6 d23d ad56 95bb
000003d0: 351b dfbd 6e30 f0bd ab81 f5bd caa1 a13d
000003e0: 04f1 28bd 6701 293d 07d4 ee3d 525d f4bd
000003f0: 21b5 83bd b368 54bd 402a f23d d7a2 a5bd

bias f4 [64]
-0.0071460055 0.109121405 -0.08246346 0.018237017 -0.11161861 -0.09872571 -0.020065485 -0.057607725
-0.046491683 0.15971392 -0.08751732 -0.094451725 0.057543937 -0.017595937 0.14239895 0.20135134
-0.049797863 -0.073217556 0.1640862 0.0012969804 0.02669974 0.19714113 0.0016574796 0.11753239
0.11858277 0.027409622 -0.09237825 -0.12086722 -0.09893412 -7.0731534e-05 0.21860631 -0.07831548
-0.04728756 0.18060337 0.10113726 -0.073964596 0.085317135 -0.024240837 -0.047773167 0.15674713
0.20241557 0.17646359 -0.010506065 -0.114640504 0.036614522 -0.032813344 -0.053463936 0.06026315
0.037118576 0.02745896 -0.058280587 0.06471882 0.12991014 -0.07801959 0.14478098 -0.01688017
0.19910777 0.017562201 -0.031129405 -0.055514753 0.033524003 0.03242265 0.08336197 0.06350001
00000000: 0a29 eabb 0b7b df3d 9ae2 a8bd cc65 953c
00000010: 4c98 e4bd b430 cabd 5f60 a4bc 14f6 6bbd
00000020: 106e 3ebd 0c8c 233e 483c b3bd e86f c1bd
00000030: 31b3 6b3d 5b25 90bc 08d1 113e 0c2f 4e3e
00000040: d8f8 4bbd 16f3 95bd 3606 283e 71ff a93a
00000050: 6ab9 da3c 5ddf 493e c93f d93a d2b4 f03d
00000060: 86db f23d 258a e03c cf30 bdbd 3c89 f7bd
00000070: f99d cabd b455 94b8 55da 5f3e de63 a0bd
00000080: 9ab0 41bd 17f0 383e 0d21 cf3d c07a 97bd
00000090: c0ba ae3d b894 c6bc ccad 43bd 5282 203e
000000a0: 0746 4f3e dfb2 343e a121 2cbc a4c8 eabd
000000b0: 1cf9 153d 4967 06bd 00fd 5abd 7ed6 763d
000000c0: a609 183d 9df1 e03c a0b7 6ebd 4d8b 843d
000000d0: 2a07 053e bcc8 9fbd 7741 143e 4848 8abc
000000e0: e8e2 4b3e 9bde 8f3c 1803 ffbc 7063 63bd
000000f0: 7750 093d 9dcd 043d aeb9 aa3d 4b0c 823d
