rl2024/exercise4/DDPG--racetrack-v0--critic_hidden_size:[64, 32, 32]_policy_hidden_size:[64, 64, 64]--2.pt (torch, 819011 bytes, 56 tensors)

weight f4 [64, 288]
00000000: ceaa 913c 0792 043d 966f c43c 6295 35bd
00000010: 850a 3a3d 5991 213d b48b abbc 26a1 16bd
00000020: eaf2 b0bc ea65 993c f08d 25bd ecc1 25bd
00000030: 8082 8db9 17fa 123d a42a 7ebc 0d16 6e3d
00000040: db26 083d fcc6 35bd d27f b33c 6cb2 09bd
00000050: a0f7 e3ba b40d 63bc 6eec e13c b416 a7bc
00000060: bae9 06bd 35ed 24bd 60b5 a1ba 9a10 61bd
00000070: b2de c43c 3ec0 44bd eb46 32bd 688e cdbb
00000080: d284 8d3c 6e0a c43c e836 f53b 3c68 82bc
00000090: a2a1 dfbc 68cc 54bd 71db 353d 7b4a 4d3d
000000a0: f84a ea3b 431e 5e3d 320f 27bd 8b54 5a3d
000000b0: 4e5e 96bc 64fa b7bc 1667 5fbd dcda 4bbc
000000c0: 0851 be3b b9aa 2bbd 8478 5c3c 5255 933c
000000d0: ba2c b53c 394f 663d 66a2 ed3c 7ca9 83bc
000000e0: 2b77 34bd 69bc 67bd 7243 f03c 942a e0bc
000000f0: 8da4 6dbd d62e 0dbd b90e 49bd d815 62bc
00000100: f7c1 273d 48c7 c9bb 3a71 66bd 2a48 01bd
00000110: babc aabc 2c33 4cbc 988d 10bd 51df 553d
00000120: 9199 1c3d dc44 5dbd 3860 fa3b 653e 513d
00000130: d842 e93b a012 dabc 6e5b 6dbd 1810 a2bc
00000140: 9c66 32bc d5c9 563d 8064 02bd 20e7 1ebb
00000150: a262 a13c 90ef 62bc a0b3 adba 5848 14bc
00000160: cd49 193d 8851 8b3b 3965 1ebd a86a 3dbd
00000170: a996 4d3d 5fef 373d c4ea 29bc eab9 9bbc
00000180: c811 953b 0082 3eb9 4c83 0c3c 1c0c cbbc
00000190: 8c4c f5bc 70ba 14bc 168b 5ebd 6c66 05bd
000001a0: f7ab 633d 0954 08bd 03e4 583d 5084 08bd
000001b0: 7d5d 463d ee72 dc3c f65b f03c 405b 27bb
000001c0: 7ccc 58bc b09d 5fbc b853 76bc 9c57 413c
000001d0: 3783 2f3d dc72 003c 003f 40ba 2e71 a23c
000001e0: 0ea4 c6bc 34a6 643c 3c6f 10bd b865 9c3b
000001f0: 5baa 173d 0fc5 253d 060f d1bc a477 0e3c
00000200: 56a0 bdbc ef87 31bd e6ae e23c 7c3c 293c
00000210: 5098 f2bb 9ee2 28bd 80bd b039 0ddc 333d
00000220: a47e 793c 3276 ea3c 249c 64bc c0c8 143b
00000230: 0863 aa3b 9e2b a83c 115d 65bd 624d d8bc
00000240: 0fdd 653b f56f 193c ae4e 833c 5642 0cbd
00000250: 89d9 133d f9d7 39bd 0d4e 36bd 2ee3 7f3c
00000260: eb34 49bd ecb8 05bc 3594 393d a2ec 893c
00000270: 387b e8bb 5d7c d03c 7869 663d c95d b1bb
00000280: cc50 293c 21e0 c63c e09f 92ba 65e1 e23c
00000290: ef1f 103d 0274 b33c 6089 3bbc 5cfa fabc
000002a0: 04ed 963c 155d 243d 88c9 da3b 702d 0fbc
000002b0: 64d6 3bbd 6932 35bd 1883 0abd d4af 4ebc
000002c0: b9c0 60bd 8759 bcba 00c6 13bc 9b35 193d
000002d0: 1d38 c9bc f42a 423d 15b5 89bc b2a5 3d3d
000002e0: 9682 f43c 0c72 293c 4dc7 f4bc 4cea 08bd
000002f0: 5958 f23c 72f3 873c 511b 68bd 20d4 5cbc
00000300: c14c 453d cae7 2f3d 2400 57ba 52a7 1dbd
00000310: 5a8c ed3c 4347 ddbc 7629 5a3d 834b 1c3d
00000320: dcb4 f1bc b9ed 32bd 5d18 ebbc 563f f03c
00000330: 28a7 68bd 4575 d8bc c16b e83b 7ed7 aebc
00000340: b657 6dbd d9bb 573d 4d44 fb3c 10b5 2bbd
00000350: b129 58bd 5d57 0e3d a116 71bd c6c8 06bd
00000360: 219a 163b 7062 b23b 9562 353d 075b 29bc
00000370: 0fc2 ccbc 3a50 0b3d 4de2 5e3d 6e48 35bd
00000380: 6c52 12bd cc2a 09bd 81b7 d0bc ab03 5f3d
00000390: 6a74 fc3c bab8 633c 76dd 1bbb b0db acbc
000003a0: 4d0e 423d a72c c83c 7c73 df3b 95c0 863c
000003b0: d751 ba3c 9e89 4cbd 28ef 3f3d d201 d5bc
000003c0: feac 04bd 5448 42bd da82 1cbd 1cb1 413d
000003d0: 180a 5c3c b7dd 5ebd f863 e03c 342e 0b3c
000003e0: f498 843c f299 6e3c b163 babc 8081 413d
000003f0: d405 debb b060 6ebd bcfb 42bc 08da abbc
0.017781641 0.032365825 0.02397899 -0.044331916 0.04542019 0.039445255 -0.02094064 -0.036774777
-0.021600205 0.018725354 -0.040418565 -0.04046814 -0.00026990846 0.035883036 -0.015513096 0.058126498
0.03324018 -0.04437922 0.021911535 -0.033617422 -0.0017392524 -0.013858248 0.027578559 -0.020396568
-0.032937743 -0.04026528 -0.0012337379 -0.054947473 0.02403197 -0.0480349 -0.043524664 -0.0062730797
0.017275248 0.023930755 0.007483352 -0.015918843 -0.027298752 -0.05195275 0.04439873 0.05011986
0.0071500503 0.05422808 -0.040785976 0.053303283 -0.018355515 -0.022458263 -0.05454167 -0.012442317
0.0058079995 -0.04191086 0.013456468 0.01798502 0.022116054 0.056227896 0.029008102 -0.016072027
-0.04405896 -0.056576166 0.029329035 -0.027364053 -0.058018256 -0.034468494 -0.049086306 -0.013799153
0.040956464 -0.0061577894 -0.056260325 -0.03156296 -0.020841945 -0.012463372 -0.035291284 0.052214924
0.03823239 -0.054020748 0.0076408647 0.051084895 0.007118564 -0.02662021 -0.057948522 -0.019783065
-0.010888722 0.052438576 -0.031834126 -0.0024246648 0.019700352 -0.013851061 -0.0013252385 -0.009050451
0.037423898 0.0042516626 -0.038670752 -0.046244293 0.05019251 0.044906016 -0.010370914 -0.01900955
0.004549239 -0.00018168241 0.0085762255 -0.024786048 -0.029943727 -0.009077653 -0.05433186 -0.03256838
0.05558392 -0.033283267 0.052951824 -0.033329308 0.048429 0.026910271 0.029340725 -0.0025536567
-0.013232347 -0.0136484355 -0.015034609 0.011800673 0.042849746 0.007839885 -0.00073336065 0.019829359
-0.02424815 0.013955642 -0.03526233 0.004772868 0.037027698 0.040471133 -0.025519859 0.008695517
-0.023147743 -0.043342527 0.027671289 0.010329362 -0.007403411 -0.041231744 0.00033710524 0.04391103
0.015227947 0.028620813 -0.013953242 0.0022702664 0.0051997937 0.02052861 -0.05599696 -0.026404087
0.0035074388 0.009365072 0.016028728 -0.03424295 0.03609613 -0.045371983 -0.04450803 0.015618129
-0.049122732 -0.008161765 0.045307357 0.016836468 -0.007094767 0.025449926 0.056252927 -0.0054127914
0.010334205 0.024276795 -0.0011186562 0.027695367 0.035186704 0.021905903 -0.011446327 -0.030636959
0.018423565 0.040127832 0.0066768564 -0.0087388605 -0.045858756 -0.044237528 -0.033816427 -0.012615163
-0.054871295 -0.0014369943 -0.009019375 0.037404638 -0.02456289 0.047404245 -0.01680998 0.046300597
0.029847424 0.010342132 -0.02988019 -0.033426568 0.029583143 0.016595576 -0.056666676 -0.013478309
0.0481689 0.04294566 -0.000820162 -0.038489647 0.028997589 -0.02701152 0.053262196 0.03815795
-0.029505186 -0.04368374 -0.02869814 0.029327076 -0.056800038 -0.026423106 0.0070929234 -0.021342989
-0.057944976 0.05266938 0.030672217 -0.04192072 -0.052774135 0.034751285 -0.05885947 -0.032906316
0.0022980052 0.0054438636 0.04428347 -0.010336644 -0.024994878 0.034012057 0.054415036 -0.044258527
-0.035723135 -0.03348808 -0.025478126 0.054446857 0.03081723 0.013899023 -0.0023783124 -0.021100849
0.04737692 0.024435354 0.0068191867 0.016449252 0.022744102 -0.04993593 0.046858937 -0.026001845
-0.03239154 -0.04743226 -0.038210727 0.047288045 0.013430141 -0.054410663 0.027391419 0.008494902
0.016186215 0.014563071 -0.022752615 0.04724264 -0.006775597 -0.058197677 -0.011900838 -0.020977989

bias f4 [64]
00000000: c887 e2bc 0251 883c c219 033d 7896 193d
00000010: 7d3e 63bd 107e 3a3d b3b5 963c 214a 443d
00000020: 8af3 3ebd a19a a93b e5d4 89bc 9e39 073d
00000030: 1493 d43c a213 febb 2ac5 3c3d 4a0a 2b3c
00000040: a6cb 163d b550 333c 5eb7 23bd a5a6 bebb
00000050: 4ca6 963d 4aa3 afbc 731e 833d 1e36 783d
00000060: 78c4 41bd 623a 4dbd 3108 f53c 35f1 d9bc
00000070: 5a96 bfbc 9cc2 30ba 969e 6abd d1ba 2cbd
00000080: 443d a2bb 539a 94bb 96da c43c ed14 ecbb
00000090: 0a9f 12bd e945 6b3d de97 42bd e405 0cbd
000000a0: adfd bd3d 86f2 993c c46a 2f3d b048 b2bc
000000b0: e735 7e3d b3ed b93c cff5 8e3c 2ec1 f7bc
000000c0: 4e06 5eb9 c9b1 003d c777 ecbc a579 43bd
000000d0: 6f4a 7b3d adc5 ca3d f40b 64bd 8d0e 153d
000000e0: 52ec 4b3c c96b 97bb b1de 03bd d32a 62bd
000000f0: dc17 803d c034 45bd 8315 09bd c923 653c
-0.027652636 0.01664019 0.032006986 0.037497014 -0.055479515 0.04553038 0.018397188 0.047922257
-0.046618976 0.005175904 -0.016825149 0.033013932 0.025949039 -0.0077538053 0.046086468 0.010439465
0.036815308 0.010944535 -0.039969794 -0.0058182054 0.07355937 -0.021440167 0.06402292 0.060598485
-0.047306508 -0.050104506 0.029911133 -0.026604274 -0.023387123 -0.0006742866 -0.057280146 -0.04217035
-0.004951151 -0.0045349984 0.024030011 -0.007204643 -0.035796203 0.05743972 -0.047508113 -0.034185305
0.092769004 0.018792402 0.04282643 -0.021763176 0.062063124 0.022696352 0.017451195 -0.030243482
-0.00021173919 0.03141955 -0.028865708 -0.04772343 0.061350282 0.09900985 -0.055675462 0.03639083
0.01244648 -0.0046210033 -0.032194797 -0.05521662 0.06254551 -0.04814601 -0.03346778 0.013985583

weight f4 [64, 64]
00000000: 29c0 febd 51c4 853d f3d4 ba3b b256 bd3d
00000010: 176f 2b3d 21dd 4fbd 924e 783d 209f c2bc
00000020: 13dd 37bd 0ca7 833c 026a 993d b642 993d
00000030: 9848 5ebd 7754 cf3b d597 6cbd f304 d4bd
00000040: 560e e2bd e3af 92bd bbbe f1bd 24b9 92bd
00000050: 9ef9 a8bd 837d e9bd cd38 d43d ab02 913d
00000060: 1ad0 983d 61ec c8bd 2788 003e b5ce a5bc
00000070: 26c0 34bd 5359 5e3d 4798 703d d5ac 37bd
00000080: 19e4 403d d171 3bbd 2cbb c23d 09e3 89bd
00000090: 69a3 fb3d 6a54 593d 1587 89bc aabd aebc
000000a0: 694b c1bd 0dbd b9bd 9325 8a3d e923 ff3d
000000b0: 9969 143b 4a5b 9fbb 8793 d9bc 1ea0 8abd
000000c0: a923 c1bc 79e0 0dbd 965d 5bbd d2a7 a0bd
000000d0: dc91 f73d 4a3e 13bd 7b97 f93d c231 cebc
000000e0: 7da5 5e3d 9f18 ebbd d2c8 b1bd 10e1 d7bd
000000f0: 8bcf 343c 8324 b9bd 0f42 013e 6313 9b3d
00000100: 3979 d23d df7d 7dbd 1fe2 98bd 67a1 003c
00000110: 11f3 b6bc 02c7 84bc cb85 c1bd c80b cbbc
00000120: 8ce2 a9bd 0f0e 3bbd fbed ebbd 20cf 01bb
00000130: 76ab 4f3d ccd4 cebb 3adc b63d 8931 f23d
00000140: 883e 9fbc c042 e13d 50fc b03d 2a0c 133d
00000150: a5e2 683d 1a29 c53d 50e3 8ebd a63c a93d
00000160: f9b5 2bbc ec75 7e3d 35df b2bd f92a 6cbd
00000170: 7e14 3dbb feed f0bd 3fe7 bd3d 75bb b2bd
00000180: b83c 9c3d df43 28bd 9b3c 74bd 4834 03bd
00000190: 4a6e 71bc a78c ccbc 4385 49bd 9bc7 463d
000001a0: 2534 bcbd 0f3e d8bd 3529 cc3d 181e d2bd
000001b0: 0f3b 1fbd d44e 9e3a 93e4 c33d ea81 06bc
000001c0: 378b c53d 8999 e43d c6ef edbb a8cf bdbd
000001d0: a91b d13d 969a d43d 5c59 8dbc 4e80 38bd
000001e0: 2f51 a63d ca63 033d 68bf 293d 727a a5bd
000001f0: 70f8 b53d 3f1e a0bc b274 e33d 2fc9 33bd
00000200: 963b 8e3d dcc0 f63d 1cbf fbbd 0eca 923d
00000210: a048 81bd 527d 8bbd 5b90 033d 5dac c03d
00000220: b145 a13d 6534 e4bc 8d33 053d 470f cc3d
00000230: ff09 7a3d 8691 2f3d a873 e03d e2e4 1d3c
00000240: e442 d7bc 910f 703d 73fe 2d3d d19e 47bd
00000250: 2827 733c ef91 b03d 1f48 d8bd 73b2 e83c
00000260: 271d d7bd 79df b3bc 7d0e ad3d f6b7 d6bd
00000270: 8e5b 36bc fbf6 f6bd ec67 8bbd 8f93 df3d
00000280: 923f f9bd 8e70 b4bd b527 00be 441f f73c
00000290: c61e cebd 2340 1e3d 8503 3fbd 4116 debd
000002a0: f9f4 b83d cb45 31bd f546 d23c f200 4b3d
000002b0: 6699 a23d 17a7 5f3d 43b3 003d ddef 0cba
000002c0: 3fa2 3d3d 2e6e c5bd f090 e83c d559 fc3c
000002d0: f1a8 69bc ea20 083d c14f 423d 49ab f7bd
000002e0: c1b0 98bd be71 bebd 98db 8dbd bce1 09bd
000002f0: 3c86 a7bd 9dba d93d 65fb 8bbd f10b ccbd
00000300: e8f6 f53c e155 ee3d 2669 5d3d 03dd e63d
00000310: 13ee 2d3b d0db ec3c 2228 733d fee2 2abd
00000320: d49e bf3a 71ad 62bb 4c99 ecbd 8255 653b
00000330: 78dd 97bd ed09 47bc b97c 753a 6c8f 55bc
00000340: 781a b73d 49fa 093c 393e bfbd bee9 dabd
00000350: 807d dc3c 0e55 c9bd bce7 c8bd 308f 213c
00000360: 63de cbbd ecf4 f5bd db31 323c 0981 dbbd
00000370: 173f bebd de52 d4bc 6349 f43c 8efa 003e
00000380: 3f48 bcbc 8b52 b53d 1236 12bd 5eeb 89bd
00000390: 3d9e e73d b500 6f3d 0cbf 863d ddba ebbd
000003a0: 48df e03d a6eb ec3d 2653 afbd 36a3 f93d
000003b0: 3350 d9bd b9a2 ee3d c190 1db9 893b 45bd
000003c0: f791 abbd 4b7f 17bd e80c 73bd 5272 eb3d
000003d0: a835 133d 0940 9d3d 2dcb ac3d a01a 1cbd
000003e0: 94b4 db3b 46cf 793d 9801 74bd 1eca c3bd
000003f0: 86ef 57bd 55b8 5f3d 0c3f 94bd 7a82 6ebd
-0.124389954 0.06531585 0.005701655 0.092450514 0.04185399 -0.050747994 0.060621805 -0.023757517
-0.044888567 0.016070865 0.074909225 0.07483427 -0.05426845 0.0063272077 -0.057761986 -0.103525065
-0.110378906 -0.07162454 -0.11803957 -0.07164219 -0.08250736 -0.114008926 0.103623964 0.07080587
0.07461567 -0.09810711 0.12551938 -0.020240167 -0.04412856 0.054284405 0.058738973 -0.04484256
0.04709253 -0.04576284 0.095083565 -0.06732757 0.122870274 0.05305902 -0.016788045 -0.021330673
-0.094382115 -0.09069262 0.06745448 0.12458021 0.002264595 -0.0048631774 -0.026559604 -0.06768821
-0.023576574 -0.034637902 -0.053556047 -0.07844509 0.12088367 -0.035948075 0.12187096 -0.02517021
0.05435704 -0.114793055 -0.086808816 -0.10540974 0.01103581 -0.09040167 0.12622856 0.07572057
0.10277028 -0.06188762 -0.07465004 0.007850981 -0.0223327 -0.016208176 -0.09449347 -0.024785891
-0.082951635 -0.045667704 -0.115200005 -0.0019807294 0.050700627 -0.0063119885 0.08928724 0.11825854
-0.019438997 0.1099906 0.08641875 0.035900272 0.05685677 0.0962698 -0.0697695 0.08263521
-0.010480397 0.062124178 -0.087339796 -0.05765817 -0.0028851326 -0.117641434 0.09272622 -0.08727161
0.07628769 -0.041080352 -0.05962811 -0.03203228 -0.014735768 -0.024969412 -0.049199354 0.048530202
-0.09189633 -0.10558712 0.09968797 -0.10259646 -0.038874682 0.0012077936 0.095650814 -0.008209685
0.09645694 0.11162097 -0.0072612492 -0.09268123 0.10210354 0.103810474 -0.017254524 -0.045044236
0.08120953 0.03207759 0.041442305 -0.08079995 0.08885276 -0.019545672 0.11106242 -0.043893036
0.06944959 0.12048504 -0.122923106 0.07167445 -0.0631268 -0.06811012 0.03212009 0.09407876
0.07874621 -0.027857015 0.032519866 0.099638514 0.06104469 0.04286339 0.1095956 0.009637089
-0.026277013 0.058608595 0.04247899 -0.048735444 0.014840879 0.086215846 -0.10560631 0.028405404
-0.10503607 -0.021957146 0.08450029 -0.104843065 -0.011130227 -0.120588265 -0.06806931 0.109168164
-0.12170328 -0.088105306 -0.12515147 0.030166276 -0.10064463 0.038635384 -0.046634216 -0.10844088
0.090311 -0.04327945 0.0256686 0.04956145 0.07939415 0.05460271 0.031420957 -0.00053763186
0.046297308 -0.09640156 0.028389424 0.030804554 -0.01426147 0.033234514 0.04743934 -0.12093217
-0.07455588 -0.09299038 -0.0692665 -0.033662543 -0.081799 0.10631297 -0.06835059 -0.09963215
0.03002496 0.11637474 0.054055355 0.112726234 0.0026539608 0.028913409 0.059364446 -0.041720383
0.0014619478 -0.0034588242 -0.115526766 0.0034993594 -0.07415289 -0.012148363 0.00093645934 -0.013034683
0.089405954 0.008421489 -0.0933804 -0.10689114 0.026915312 -0.09830676 -0.09809825 0.009860799
-0.09954526 -0.12009606 0.010876144 -0.10717971 -0.09289377 -0.02591842 0.02982015 0.12595579
-0.022983668 0.088536344 -0.035696097 -0.06734346 0.113094784 0.058350284 0.06579408 -0.11510251
0.109800875 0.11568384 -0.08560781 0.12189333 -0.10611 0.11652131 -0.00015026612 -0.04815248
-0.0837745 -0.03698663 -0.05933848 0.11496414 0.035939842 0.07678229 0.0843719 -0.03811133
0.006704876 0.060988687 -0.059571832 -0.09560035 -0.05271866 0.054619152 -0.07238588 -0.0582299

bias f4 [64]
00000000: 11f5 a13c 2377 0abd 5f0d 263e 1e87 683d
00000010: f642 aa3d 30de c1bd 8465 0f3e c690 4f3b
00000020: b862 ddbc 3a9a bc3d 98a8 403e 58d9 c038
00000030: be92 f03d e5cb f63d dfaf 21bd 85d3 bc3d
00000040: 7950 d8bd f359 c7bd edf1 47bc 1ee3 84bc
00000050: d6f9 ddbd 50ab be3d 6cd0 8abd f2fc e3bd
00000060: 28ab 37bd b1f2 44bd 1081 4abd d241 863c
00000070: 977a b53d f20f 5d3d 631e 103d 5c65 d4bd
00000080: 7b63 7fbd c974 083d 2a3d a2bd 5897 b13d
00000090: b1a6 bf3d 2287 27bd 27d8 183e dfa3 d13d
000000a0: 5f2f ec3c 26ce cd3d c2c0 bf3d 866e 033e
000000b0: b021 073d a607 82bd 0221 babd b751 c9bc
000000c0: 2d4a 963b d1c4 5abd dd06 a33d da56 b4bd
000000d0: 71b8 6ebd 77f5 ec3d ed13 0e3d 7603 cc3d
000000e0: b409 f4bd 3f38 113d 0ed4 8ebc bdec a63d
000000f0: d613 343d 723f fc3b fca2 cd3d 1bdc d73d
0.019770177 -0.033805024 0.16216038 0.056769483 0.08313553 -0.09466207 0.14003569 0.0031671985
-0.027024612 0.09209104 0.18814313 9.195757e-05 0.11746739 0.120506085 -0.039474364 0.09220032
-0.10562224 -0.09733953 -0.012203676 -0.01622158 -0.10838668 0.09310019 -0.067780346 -0.1113223
-0.04484096 -0.04808301 -0.04943949 0.016388807 0.08861273 0.053970285 0.03518523 -0.10370895
-0.06235073 0.0333145 -0.07921822 0.08671445 0.09357966 -0.040900357 0.14926206 0.10236334
0.028831182 0.10049085 0.093629375 0.1283513 0.03299111 -0.06349115 -0.09088327 -0.024575097
0.004586479 -0.053410355 0.079602934 -0.08805628 -0.058281366 0.11570256 0.03468697 0.099615976
-0.11915913 0.03545403 -0.0174351 0.08150623 0.04396423 0.007697993 0.100408524 0.10540029

weight f4 [64, 64]
00000000: af8e 3d3c da80 5bbc 723a f6bc 25a6 f23d
00000010: 9980 8cbc 4900 c83d 00b9 d9bc 6fe8 67bd
00000020: 6fad 88bd 105e a8bc 9fdf 873d f1cc e9bd
00000030: ddf8 92bd ef00 74bd c28a a23d 4fff da3b
00000040: 2289 ff36 cd55 ed3c f75b d23d 4abc a8bc
00000050: b0c4 60bd ba20 bebd f5ff 1ebd d232 a23d
00000060: 184f 04bd a86c df3d 7f7b 9c3d ac22 e43d
00000070: 39a6 163d 3cf5 883c cba6 a3bd 00a7 093b
00000080: 6a06 f2bd f935 803b 385e e3bd 6e83 da3d
00000090: cfb3 eb3d 9504 48bd 0166 5e3d 1c6d f93d
000000a0: 6616 963d 04f2 babc 517a e03d c513 373d
000000b0: a247 913d 9227 f2bd 2064 a13d f677 373d
000000c0: 3437 31bd 4c3a 8abd 1972 77bd 06e9 8c3d
000000d0: 7047 993d ad4a be3d 4f3e c73d 3c78 bdbd
000000e0: 1efa c7bd 629d fa3d a06d b3bd 1125 e53d
000000f0: 0b24 b93d 535c b23c b8e8 6d3c 6cbe a0bd
00000100: 0064 5bb9 40e1 8fbc c82c 80bd a079 f73d
00000110: a000 5f3d 2850 373d 8067 05bd d056 763c
00000120: c205 86bd 00b7 003b 2036 843c 0099 42bc
00000130: ca21 98bd cce4 383d 2077 e73b 2c70 ed3d
00000140: c6c3 a33d 0e12 8fbd a07f 93bb 94d5 65bd
00000150: 0a72 cfbd 2eea 80bd 5887 a03d 7a3b e53d
00000160: 823a b1bd 0003 f2bd 6802 083d e032 7e3d
00000170: f843 c9bc c09e 823c a4c5 133d 90d8 c4bc
00000180: 5412 923d c409 053d a46c 48bd 287d 243d
00000190: 38be febd 3019 57bc 6474 9c3d 94f7 cf3d
000001a0: 186a e8bc 28f0 9fbc b215 fe3d 9eb1 bb3d
000001b0: a2e4 b93d b654 df3d 9287 d63d 8c2d 5f3d
000001c0: f842 9d3d 206b 9cbc 3810 62bd c03d 073c
000001d0: 0837 9abc c803 6cbd 40f9 68bd 4a14 bd3d
000001e0: fcaf b93d 3a71 91bd 98b7 f13d b842 abbd
000001f0: 9071 fdbd 00cc 373b d427 413d 0097 5dbc
00000200: f0b4 e5bd 5024 2b3d 64e7 e5bd 6062 6bbd
00000210: 8066 94ba 8074 64bc 606b d13d a4cf f1bd
00000220: 78a0 c63c 7646 93bd ceb7 9ebd 5488 043d
00000230: a022 fdbd c03e 71bc 64dd 6c3d 2063 b7bc
00000240: d488 ce3d d85e 133d 9cd0 813d 94bb 373d
00000250: e4c9 bb3d 2621 a6bd e09d ce3d f8de e1bd
00000260: 1cb3 0dbd 18c2 c43d c856 93bc 1eec e3bd
00000270: 38e1 fb3d b613 a93d f48e 1e3d c647 c13d
00000280: d853 803d f4c4 683d 3645 9ebd a6fa c93d
00000290: 0075 82ba 8201 cabd 5e40 8fbd 8aad f33d
000002a0: 30e2 ba3c 7018 9abd 3a88 9fbd 20ee ccbc
000002b0: c8f8 923c ae99 a1bd cce9 ea3d 1a82 88bd
000002c0: f8dc c0bc d07b 943d 9676 b8bd d289 e4bd
000002d0: 7095 0d3d 50fe e6bc 10f8 a33c 98f4 4fbd
000002e0: 7c42 623d a87b 1e3d 589d f7bc 605e c7bc
000002f0: 3a07 dbbd 8cef 2cbd 709e 82bc 6eee b9bd
00000300: d065 8e3d e0dd a6bd b9aa b6bd 2507 c23d
00000310: 5a7c 23bb 1760 c6bd df06 e93d 984d a83c
00000320: 58df d3bd 221e 043e 38d5 793d 3dc0 cc3d
00000330: 4836 b03d 5400 9dbd c9ea ae3d 223b e2bd
00000340: a7f4 a43d 8b22 17bd bd43 ed3d a245 d6bd
00000350: 77ea fd3d 209b 24bd 6395 e5bc e4cf 05bd
00000360: dd42 abbd 7296 f0bb 658c 35bd 6b6d d93d
00000370: 1183 de3d 2486 b9ba f21c dfbc 22e3 a6bd
00000380: 7d59 c83d 25f3 40bd 2288 e8bd 480c 61bd
00000390: c0b4 9cbd 2016 b9bd fc36 bfbc 2c52 fa3d
000003a0: 159b a6bd 1150 643d 00a2 4cbd 22a4 263d
000003b0: fb37 60bd d862 133d 96f0 9f3d 5537 e4bd
000003c0: 4b47 0bbd d283 61bd c96a 53bd c597 f83d
000003d0: d1ee 89bd 00e3 2f3c 2fe0 e8bc b2ad c63c
000003e0: 6c3f 003d 9345 a63c ef1d 98bd d47e 1a3d
000003f0: ac66 bdbc f86c 6b3d 9909 2d3d 6b58 9f3d
0.011569663 -0.01339742 -0.030057166 0.11848096 -0.017151164 0.097656794 -0.026577473 -0.05661815
-0.06673705 -0.020552665 0.06634449 -0.114160426 -0.07176373 -0.059571203 0.07936622 0.006683267
7.6155566e-06 0.028971577 0.10271447 -0.020597596 -0.054875076 -0.09283586 -0.03881832 0.079198495
-0.032301992 0.109093964 0.076407425 0.11139426 0.036779616 0.0167185 -0.079907976 0.002100408
-0.1181763 0.003912684 -0.11101955 0.106695995 0.11508905 -0.048832495 0.054296497 0.12179014
0.07328491 -0.02282048 0.1096083 0.044696588 0.07093741 -0.11823954 0.078804255 0.044792138
-0.043265536 -0.067494005 -0.060411546 0.06880383 0.07484329 0.09291587 0.09728681 -0.092514485
-0.09764503 0.1223705 -0.08761144 0.111887105 0.09040078 0.02177254 0.0145208165 -0.0784882
-0.0002092272 -0.017563462 -0.06258541 0.12083745 0.054443955 0.044754177 -0.03256941 0.015035346
-0.06544067 0.0019640326 0.01613909 -0.011877298 -0.0742832 0.045140073 0.0070637614 0.11593661
0.07996325 -0.069858655 -0.004501298 -0.056111887 -0.10129173 -0.06294666 0.07838315 0.11192985
-0.086537376 -0.118169785 0.03320542 0.062060237 -0.024568543 0.015944839 0.036077157 -0.024029046
0.07132402 0.032480016 -0.048931733 0.04015842 -0.12438625 -0.013128564 0.07639387 0.10154644
-0.028370902 -0.019523695 0.12406482 0.09164737 0.090768114 0.10904829 0.10475077 0.054486796
0.07678789 -0.01909405 -0.05519125 0.008254468 -0.01882507 -0.057620794 -0.05687833 0.092323855
0.090667695 -0.071016744 0.11802596 -0.08362335 -0.12375176 0.0028045177 0.047157124 -0.013524771
-0.11216152 0.041782677 -0.11225775 -0.057466865 -0.0011322051 -0.013943791 0.10225558 -0.118071824
0.02424644 -0.07191174 -0.07749902 0.032356575 -0.1236012 -0.014724433 0.057828322 -0.022386134
0.10084692 0.035979122 0.06338617 0.044856623 0.09169367 -0.08111791 0.10088706 -0.11028856
-0.03459464 0.09607333 -0.017985716 -0.1112902 0.122988164 0.08255713 0.03871055 0.09437518
0.06265992 0.056828454 -0.07728045 0.098622605 -0.0009953082 -0.09863569 -0.06994699 0.11898334
0.022812933 -0.07524192 -0.07789655 -0.02501589 0.017940894 -0.0789064 0.114703745 -0.0666544
-0.023542866 0.07250178 -0.090069935 -0.111591 0.034566343 -0.028197438 0.020015746 -0.050770372
0.055239186 0.038692147 -0.030226395 -0.024336994 -0.10694738 -0.042220637 -0.01594469 -0.0907868
0.06953013 -0.08147788 -0.089192815 0.09474019 -0.0024945945 -0.096862964 0.11378264 0.020544812
-0.10345334 0.1290212 0.060994357 0.09997604 0.08604103 -0.07666078 0.085408755 -0.11046435
0.08054476 -0.036898177 0.11585186 -0.104625 0.12398236 -0.040187 -0.028025335 -0.032668963
-0.083623625 -0.007342153 -0.044323344 0.10616573 0.10864843 -0.0014154357 -0.027235482 -0.08148791
0.097826935 -0.04710688 -0.1135409 -0.054943353 -0.07651663 -0.09037423 -0.023341648 0.12222704
-0.08135048 0.05574042 -0.049959183 0.040683873 -0.054740887 0.035982937 0.0780956 -0.11143366
-0.034003537 -0.055057354 -0.05161551 0.12138323 -0.06735004 0.010735273 -0.028427212 0.024252746
0.031310484 0.020296847 -0.074275844 0.03771861 -0.023120247 0.057476968 0.04224548 0.07780536

bias f4 [64]
00000000: d59f 36bd b413 b8bd f043 f4bd edac 2c3e
00000010: 6070 613c e4aa 433c 923c b93d 0c0e 7b3d
00000020: 2d9c 3a3e aa1a 803c 007d aabd 4373 933d
00000030: 5d11 063e 9ece fbbd 0a3c ffbd f393 333e
00000040: e439 4a3e 0a7c a3bd 0fee 2f3e 3d22 eb3d
00000050: daed 023e 4c5a 91bd f352 983d cee5 b03d
00000060: 71f1 b93d 4c6f fd3d 7846 8c3c 4aca 9fbd
00000070: 63c2 d03b 5e5c 8dbd 0ac3 b23b e0bf 243e
00000080: b3de 51bd c99e 843d c061 c3bc 5111 383e
00000090: 206c ffbb 103a dbbd 57d8 ba3d eeac f6bc
000000a0: 0b0c 8cbc ea9c ebbc fb96 d83d aeaf d03c
000000b0: 3c14 583b d4cf c93d aba0 d3bd 26bf e6bb
000000c0: 0b40 423e 86f3 e9bd b435 a3bd 8e1c bd3d
000000d0: 3710 ea3c c847 123e 02f0 a2bd cf12 883c
000000e0: de9c 233d 4c93 f1bd 45ad 383d 7c30 313e
000000f0: 1b93 a03c 1b75 bdbd 5abf 953d 603c 35bd
-0.04458602 -0.08988133 -0.119270205 0.16862841 0.013759702 0.011942599 0.09044756 0.061292693
0.18223639 0.015637714 -0.08324623 0.07199719 0.13092561 -0.122952685 -0.124626234 0.17536907
0.19748646 -0.07982643 0.17180656 0.1148114 0.12786046 -0.07097301 0.07437696 0.08637582
0.090792544 0.12374744 0.017123446 -0.078022555 0.006370829 -0.06902383 0.0054553794 0.1608882
-0.051237773 0.06475598 -0.023850322 0.17975356 -0.007794872 -0.10704434 0.09123295 -0.030111756
-0.017095586 -0.028761346 0.10575672 0.025474396 0.0032971045 0.09854093 -0.10333379 -0.0070418296
0.18969743 -0.114234015 -0.079692274 0.09233962 0.028572185 0.14285195 -0.07955934 0.016610531
0.039944522 -0.11795673 0.045087118 0.17303652 0.019601395 -0.09250852 0.07311888 -0.04424703

weight f4 [1, 64]
00000000: cfc8 24bd f247 ab3d d4a4 6fbd 073e 0ebe
00000010: 8035 753c 7561 a0bd ab2c 16be 74c7 bb3d
00000020: 5e1c 5ebe 3c17 333d 28f5 2a3d d4a2 493d
00000030: b936 58be 4832 6a3d 04cc d8bd c852 14be
00000040: ad64 7ebe 2cf9 483d 2e90 29be c468 dcbd
00000050: 9bd5 29be 18f2 903d 8ada 083d 27a7 13be
00000060: 7bd9 04be 02f7 a3bd af61 aebc f7b3 ef3c
00000070: e5bf 9bbd 962e b23d f00c 503d cf02 c2bd
00000080: d394 b7bd 6d02 933d 7f7e bf3d d28d 3cbe
00000090: f876 f1bd f097 59bc dcb7 e5bd be25 b53d
000000a0: 4b1e ab3d 3366 633d abd0 00be 2723 66bd
000000b0: af9d 193c e03b babd d457 be3d 7286 a83d
000000c0: eb74 80be bcb7 e5bd b48a 7b3d 5657 32be
000000d0: e09d 323d 82ea 6cbe a2a6 833d a7c6 26bd
000000e0: 580d f0bd f4ab f73d 3185 23bd ccf1 26be
000000f0: 64bc f739 3727 a03d abf2 4ebe f0d1 3d3d
-0.04023057 0.08363332 -0.0585068 -0.13890849 0.014966369 -0.078310885 -0.14665477 0.09168902
-0.21690509 0.04372333 0.041737705 0.04922755 -0.21114625 0.05717686 -0.10585788 -0.14484704
-0.24843092 0.049065754 -0.16558906 -0.1076217 -0.1658539 0.07077426 0.03341154 -0.14419232
-0.12973587 -0.080060974 -0.021286814 0.029260619 -0.0760496 0.08700292 0.05079359 -0.09473192
-0.08963933 0.07178197 0.09350299 -0.18413475 -0.117902696 -0.013280854 -0.11216709 0.088450894
0.08355387 0.055517387 -0.125796 -0.056185868 0.009375974 -0.090934515 0.09294096 0.082287684
-0.250892 -0.11216685 0.061411574 -0.17416129 0.043607593 -0.23136333 0.06428267 -0.040716793
-0.11721295 0.12093344 -0.039921943 -0.16303176 0.00047251873 0.0781998 -0.20209758 0.04634279

weight f4 [64, 288]
00000000: ceaa 913c 0792 043d 966f c43c 6295 35bd
00000010: 850a 3a3d 5f91 213d b48b abbc 26a1 16bd
00000020: eaf2 b0bc ea65 993c f08d 25bd ecc1 25bd
00000030: 8082 8db9 17fa 123d a42a 7ebc 0d16 6e3d
00000040: db26 083d fcc6 35bd d27f b33c 6db2 09bd
00000050: a0f7 e3ba b40d 63bc 6eec e13c b416 a7bc
00000060: bae9 06bd 35ed 24bd 60b5 a1ba 9a10 61bd
00000070: b2de c43c 3ec0 44bd eb46 32bd 688e cdbb
00000080: d284 8d3c 6e0a c43c e836 f53b 3c68 82bc
00000090: aaa1 dfbc 68cc 54bd 71db 353d 7b4a 4d3d
000000a0: f84a ea3b 431e 5e3d 320f 27bd 8b54 5a3d
000000b0: 4e5e 96bc 64fa b7bc 1667 5fbd dcda 4bbc
000000c0: 0851 be3b b9aa 2bbd 8478 5c3c 5255 933c
000000d0: ba2c b53c 394f 663d 66a2 ed3c 7ca9 83bc
000000e0: 2b77 34bd 69bc 67bd 7c43 f03c 942a e0bc
000000f0: 8da4 6dbd d62e 0dbd c10e 49bd d815 62bc
00000100: f7c1 273d 48c7 c9bb 3a71 66bd 2a48 01bd
00000110: babc aabc 2c33 4cbc 988d 10bd 51df 553d
00000120: 9199 1c3d dc44 5dbd 3860 fa3b 653e 513d
00000130: d842 e93b a012 dabc 56f1 6cbd 1810 a2bc
00000140: 9c66 32bc d5c9 563d 8064 02bd 20e7 1ebb
00000150: a262 a13c 90ef 62bc a0b3 adba 5848 14bc
00000160: d649 193d 8851 8b3b 3965 1ebd a86a 3dbd
00000170: a996 4d3d 5fef 373d c4ea 29bc eab9 9bbc
00000180: c811 953b 0082 3eb9 4c83 0c3c 210c cbbc
00000190: 8c4c f5bc 70ba 14bc 168b 5ebd 6d66 05bd
000001a0: f7ab 633d 0954 08bd 03e4 583d 5084 08bd
000001b0: 7d5d 463d ee72 dc3c f65b f03c 405b 27bb
000001c0: 7ccc 58bc b09d 5fbc b853 76bc 9c57 413c
000001d0: 3783 2f3d dc72 003c 003f 40ba 2e71 a23c
000001e0: 0ea4 c6bc 34a6 643c 3c6f 10bd b865 9c3b
000001f0: 5baa 173d 0fc5 253d 060f d1bc a477 0e3c
00000200: 56a0 bdbc ef87 31bd ebae e23c 7c3c 293c
00000210: 5c98 f2bb 9ee2 28bd 80bd b039 0ddc 333d
00000220: a47e 793c 3276 ea3c 249c 64bc c0c8 143b
00000230: 0863 aa3b 9e2b a83c 115d 65bd 624d d8bc
00000240: 0656 693b f9b6 193c 031f 843c 4a34 0cbd
00000250: 77db 133d 2cd0 39bd 0d4e 36bd e6e3 7f3c
00000260: 4134 49bd 46b8 05bc 4094 393d a2ec 893c
00000270: 64b0 e5bb 433f d13c b796 663d 8b53 b1bb
00000280: 2e70 293c 26f1 c63c e09f 92ba b2e1 e23c
00000290: 8520 103d 4774 b33c 6089 3bbc 5cfa fabc
000002a0: 480e 973c cf68 243d d3f0 da3b f814 0fbc
000002b0: 64d6 3bbd 6932 35bd 0583 0abd 32af 4ebc
000002c0: 63c0 60bd cd54 bcba 00c6 13bc 9b35 193d
000002d0: 743a c9bc 6f29 423d 21b7 89bc eea3 3d3d
000002e0: 9682 f43c 0c72 293c f4c6 f4bc a5e9 08bd
000002f0: 1359 f23c 72f3 873c 511b 68bd 20d4 5cbc
00000300: ff49 453d f9e4 2f3d 696c 57ba 52a7 1dbd
00000310: 5a8c ed3c 8a46 ddbc a929 5a3d 254c 1c3d
00000320: 3cb4 f1bc b9ed 32bd 5d18 ebbc 563f f03c
00000330: 2f7a 68bd 5277 d8bc 465d e83b 7ed7 aebc
00000340: b657 6dbd 91bc 573d ab44 fb3c afb4 2bbd
00000350: b129 58bd 5d57 0e3d a116 71bd fd93 06bd
00000360: 6c68 1a3b 51ba b53b 4dcf 353d a0a7 27bc
00000370: f251 ccbc bc5b 0b3d 31ec 5e3d 7a40 35bd
00000380: 6c52 12bd cc2a 09bd f34d d0bc e766 5f3d
00000390: 9948 fd3c e691 643c 9252 1bbb b0db acbc
000003a0: 3943 423d 84ef c83c f48b e23b 638a 873c
000003b0: 392b bb3c fb1c 4cbd 2427 403d 4a85 d4bc
000003c0: feac 04bd 8613 42bd ac1e 1cbd 081e 423d
000003d0: 6cbd 5d3c 2bcc 5ebd 4d87 e03c 285c 0b3c
000003e0: 8aac 843c 4c94 6f3c 658a b9bc 7cb9 413d
000003f0: 0c04 debb ab60 6ebd 1afb 42bc 08da abbc
0.017781641 0.032365825 0.02397899 -0.044331916 0.04542019 0.039445277 -0.02094064 -0.036774777
-0.021600205 0.018725354 -0.040418565 -0.04046814 -0.00026990846 0.035883036 -0.015513096 0.058126498
0.03324018 -0.04437922 0.021911535 -0.033617426 -0.0017392524 -0.013858248 0.027578559 -0.020396568
-0.032937743 -0.04026528 -0.0012337379 -0.054947473 0.02403197 -0.0480349 -0.043524664 -0.0062730797
0.017275248 0.023930755 0.007483352 -0.015918843 -0.027298767 -0.05195275 0.04439873 0.05011986
0.0071500503 0.05422808 -0.040785976 0.053303283 -0.018355515 -0.022458263 -0.05454167 -0.012442317
0.0058079995 -0.04191086 0.013456468 0.01798502 0.022116054 0.056227896 0.029008102 -0.016072027
-0.04405896 -0.056576166 0.029329054 -0.027364053 -0.058018256 -0.034468494 -0.049086336 -0.013799153
0.040956464 -0.0061577894 -0.056260325 -0.03156296 -0.020841945 -0.012463372 -0.035291284 0.052214924
0.03823239 -0.054020748 0.0076408647 0.051084895 0.007118564 -0.02662021 -0.057847343 -0.019783065
-0.010888722 0.052438576 -0.031834126 -0.0024246648 0.019700352 -0.013851061 -0.0013252385 -0.009050451
0.03742393 0.0042516626 -0.038670752 -0.046244293 0.05019251 0.044906016 -0.010370914 -0.01900955
0.004549239 -0.00018168241 0.0085762255 -0.024786057 -0.029943727 -0.009077653 -0.05433186 -0.032568384
0.05558392 -0.033283267 0.052951824 -0.033329308 0.048429 0.026910271 0.029340725 -0.0025536567
-0.013232347 -0.0136484355 -0.015034609 0.011800673 0.042849746 0.007839885 -0.00073336065 0.019829359
-0.02424815 0.013955642 -0.03526233 0.004772868 0.037027698 0.040471133 -0.025519859 0.008695517
-0.023147743 -0.043342527 0.027671298 0.010329362 -0.0074034166 -0.041231744 0.00033710524 0.04391103
0.015227947 0.028620813 -0.013953242 0.0022702664 0.0051997937 0.02052861 -0.05599696 -0.026404087
0.0035604252 0.009382003 0.016128069 -0.034229554 0.03609797 -0.045364544 -0.04450803 0.0156183
-0.0491221 -0.00816161 0.045307398 0.016836468 -0.007009553 0.02554286 0.056296077 -0.0054115704
0.010341687 0.02428491 -0.0011186562 0.02769551 0.035187263 0.021906031 -0.011446327 -0.030636959
0.018439427 0.040139016 0.0066815405 -0.008733027 -0.045858756 -0.044237528 -0.033816356 -0.012615012
-0.054870974 -0.0014368534 -0.009019375 0.037404638 -0.024564005 0.047402795 -0.016810955 0.046298914
0.029847424 0.010342132 -0.029880024 -0.033425946 0.02958349 0.016595576 -0.056666676 -0.013478309
0.04816627 0.042942975 -0.00082177535 -0.038489647 0.028997589 -0.027011175 0.053262386 0.038158555
-0.029504888 -0.04368374 -0.02869814 0.029327076 -0.05675715 -0.026424084 0.007091197 -0.021342989
-0.057944976 0.052670065 0.030672392 -0.04192036 -0.052774135 0.034751285 -0.05885947 -0.032855976
0.0023560775 0.0055458923 0.04438715 -0.010232836 -0.024941418 0.03402303 0.05442447 -0.044250943
-0.035723135 -0.03348808 -0.025427794 0.054541495 0.030918406 0.0139508005 -0.0023700339 -0.021100849
0.04742739 0.024528272 0.0069136564 0.01654548 0.022847759 -0.049832325 0.046912327 -0.025942463
-0.03239154 -0.0473819 -0.03811519 0.04739192 0.013533931 -0.05439393 0.027408266 0.0085058585
0.016195554 0.014622759 -0.022649 0.047296032 -0.006775385 -0.05819766 -0.011900688 -0.020977989

bias f4 [64]
00000000: 92b3 e1bc eb3b 8b3c b25f 003d c272 193d
00000010: 2583 61bd 8fde 363d 4398 973c f048 413d
00000020: f495 3ebd cf7b 8e3b f44c 88bc 9eac 003d
00000030: 2161 d53c f43c 09bc b7e7 353d eb9f 343c
00000040: a813 163d ddd9 473c 3ebd 23bd 7903 bcbb
00000050: adfc 953d 3dbd afbc 5565 7f3d 9616 793d
00000060: 4881 4abd 3d7f 4bbd 8ad6 ec3c b58b d2bc
00000070: a99a bfbc 4628 1dba 95c7 6abd 30a8 24bd
00000080: bc42 80bb bf65 8abb 38e9 ca3c ee4c 01bc
00000090: 45a8 18bd 9884 653d 318b 46bd 870a 0abd
000000a0: 06c3 ba3d 70d8 a03c 6f35 293d 82b6 b9bc
000000b0: 9269 7a3d 72bb be3c 3603 8d3c cd32 fabc
000000c0: e6dc cbb9 1bdc 003d 396e e6bc d6d1 42bd
000000d0: 6c58 783d 0445 c73d 5266 65bd f053 153d
000000e0: 0973 5e3c adb3 6dbb b1de 03bd 54dc 5fbd
000000f0: 70af 803d b09f 46bd 2dc5 0fbd 14d4 633c
-0.027551446 0.016996345 0.031341262 0.037462957 -0.05505671 0.044645842 0.018505221 0.0471887
-0.046529725 0.004348255 -0.016638257 0.03141462 0.026047291 -0.008376349 0.044410434 0.011024456
0.03663984 0.012197939 -0.039975397 -0.0057377187 0.07323585 -0.02145254 0.062352497 0.060812555
-0.0494397 -0.04968189 0.028910894 -0.025701383 -0.023389177 -0.0005995076 -0.057319243 -0.04019946
-0.0039142054 -0.004223555 0.02476941 -0.007891877 -0.03726985 0.056034654 -0.048472587 -0.033701446
0.09119229 0.019634455 0.041310724 -0.022670034 0.061135836 0.02328274 0.017213445 -0.030541802
-0.0003888376 0.03145991 -0.02812873 -0.047563396 0.0606312 0.097299606 -0.056005783 0.036457002
0.013577231 -0.0036270425 -0.032194797 -0.05465348 0.06283462 -0.048492134 -0.03510015 0.013905544

weight f4 [64, 64]
00000000: d2ca febd c1aa 853d 2a2d be3b 7cd6 bc3d
00000010: 3bf3 2a3d 7051 4fbd 3951 753d da0a c2bc
00000020: 5602 38bd 3bf7 813c 0e5d 993d 942f 993d
00000030: 6f4c 5ebd 3b94 cc3b 0ab3 6bbd ee34 d4bd
00000040: dc62 e2bd 61dc 93bd b704 f2bd d9e4 94bd
00000050: 7a64 a8bd e27d e9bd 39bd d43d 8802 8f3d
00000060: 4215 963d 4f37 c9bd 4729 003e a2d7 acbc
00000070: 7b3a 35bd e92d 5e3d 0247 703d 9a59 39bd
00000080: 7262 403d 8bef 3fbd 5458 c13d 34cf 89bd
00000090: 515f f93d c207 5a3d 814f 8cbc 0621 b7bc
000000a0: ef33 c1bd ef64 babd 7629 8a3d 4da1 fe3d
000000b0: e871 193b 6b9a bcbb cf3c dfbc 56d9 8abd
000000c0: ceca c4bc 6d64 0dbd f300 5cbd a8e7 a0bd
000000d0: 9ddd f73d 1e4e 12bd 5584 f83d 3427 cebc
000000e0: 1134 5d3d 32f5 ebbd d2c8 b1bd 5031 d8bd
000000f0: 1cc8 1d3c d635 b9bd 7e8f 003e d178 993d
00000100: fb79 d23d a97b 7dbd eee1 98bd 89c3 003c
00000110: a6f2 b6bc 00bf 84bc 5e7d c1bd a40a cbbc
00000120: 0ee3 a9bd 720e 3bbd 53ed ebbd f266 01bb
00000130: 1cac 4f3d 94ab cebb e3de b63d 1834 f23d
00000140: fa25 9fbc b04b e13d 9efd b03d da2c 133d
00000150: 2ee6 683d 3429 c53d 55e3 8ebd 1e4a a93d
00000160: 5a23 2bbc b37a 7e3d 35da b2bd 411c 6cbd
00000170: 33fe 3cbb cced f0bd d1e8 bd3d 1ab7 b2bd
00000180: 033e 9c3d a825 28bd 7d22 74bd ee2d 03bd
00000190: e500 71bc 7e8b ccbc cc80 49bd 32e0 463d
000001a0: 4632 bcbd ec37 d8bd 0b2d cc3d 6f1b d2bd
000001b0: 1133 1fbd a6ca a13a c1ec c33d 787c 06bc
000001c0: d996 c53d 949b e43d 98ea edbb 70cd bdbd
000001d0: b21b d13d 2c9c d43d a835 8dbc b07f 38bd
000001e0: f658 a63d 436f 033d 68bf 293d 9979 a5bd
000001f0: 640e b63d a21a a0bc 887f e33d 6eab 33bd
00000200: c762 8e3d a1df f63d a21f fcbd d6d5 923d
00000210: 92f1 80bd 3a1b 8cbd b8ee 043d 3050 c03d
00000220: b349 a13d 7ce1 e3bc 1f58 053d 04d3 cb3d
00000230: 790c 7a3d 1adb 2f3d e96c df3d f4a7 1f3c
00000240: 2b7e d8bc 3e25 713d 2061 2e3d 4840 45bd
00000250: b9c5 693c e691 b03d 327c d9bd e44a ec3c
00000260: 1701 d6bd 2ca9 b3bc 9a55 ad3d 583e d6bd
00000270: 7c1d 35bc 05e7 f6bd 9c5b 8bbd b766 e03d
00000280: 82ec f8bd ff78 b3bd 37da ffbd b6d5 f53c
00000290: 921d cdbd 99b8 1c3d 5f29 3ebd cd27 ddbd
000002a0: 9872 b83d 19d0 30bd d6b1 d03c a939 4b3d
000002b0: 65fb a13d ff25 623d 1225 023d 315b 06ba
000002c0: a794 3e3d f609 c6bd 0907 e93c c2d4 fd3c
000002d0: 37b8 6dbc b56e 063d a024 433d 35ae f7bd
000002e0: f625 98bd 32f4 bdbd 98db 8dbd eb38 09bd
000002f0: 3e84 a6bd edc4 d93d ec56 8bbd 1e31 cbbd
00000300: 95ce f53c d451 ee3d 6992 5d3d 22c2 e63d
00000310: e66f 2b3b 374f ed3c 1862 723d f4ba 2abd
00000320: aa6a bf3a 68ad 62bb c99d ecbd 0c1e 673b
00000330: 9adf 97bd 0741 47bc 7a5f 893a 5004 56bc
00000340: fe10 b73d 0c76 083c b94f bfbd 6f4e dbbd
00000350: 6790 dd3c 1155 c9bd 3aa3 c8bd ecc0 1d3c
00000360: 3578 ccbd bf08 f6bd 4800 313c 04bd dbbd
00000370: c350 bebd 1c56 d4bc 7023 f43c 26d4 003e
00000380: 3d96 bcbc 46c7 b43d 9b93 12bd 28da 89bd
00000390: d621 e73d 5b53 6f3d ff9f 863d cc1e ecbd
000003a0: 9cf9 e03d 07d1 ec3d 973c afbd d17d f93d
000003b0: d130 d9bd f021 ee3d e06b 8fb9 1b3a 45bd
000003c0: 2bb3 abbd 9e40 17bd 8f1e 73bd 1f5e eb3d
000003d0: 036e 133d 4e6e 9d3d 2793 ac3d 5f19 1cbd
000003e0: 9d29 d93b 1c5a 793d 9801 74bd 19d4 c3bd
000003f0: 1cfc 58bd d0b3 5f3d 9a6f 94bd a318 6fbd
-0.12441029 0.06526709 0.005803724 0.09220597 0.04173587 -0.050614774 0.059891913 -0.023686815
-0.044924103 0.015864959 0.07488452 0.07479778 -0.05427211 0.0062432564 -0.05754379 -0.10361658
-0.11054012 -0.07219768 -0.118173055 -0.07270212 -0.082222894 -0.11400963 0.10387654 0.06982905
0.07328273 -0.098250024 0.12515746 -0.021098915 -0.044245224 0.054243002 0.05866147 -0.045251466
0.046968885 -0.046859305 0.094406754 -0.06728974 0.12176383 0.053230055 -0.017127754 -0.022354614
-0.09433734 -0.09101283 0.06746189 0.124331094 0.002341384 -0.0057557127 -0.027250675 -0.06779735
-0.024022486 -0.0345196 -0.053711843 -0.07856685 0.12102816 -0.03571903 0.12134615 -0.025165178
0.054004733 -0.11521377 -0.086808816 -0.105562806 0.009630229 -0.090434715 0.12554738 0.07493747
0.10277172 -0.06188551 -0.07464968 0.007859119 -0.0223325 -0.016204357 -0.0944774 -0.024785347
-0.0829526 -0.045668073 -0.115198754 -0.0019745198 0.050701246 -0.006307075 0.08929231 0.11826342
-0.019427288 0.11000764 0.08642124 0.035931446 0.05686014 0.096269995 -0.06976954 0.0826609
-0.01044544 0.062128734 -0.08733026 -0.057644133 -0.0028838038 -0.11764106 0.09272922 -0.0872633
0.07629015 -0.041051537 -0.059603203 -0.032026224 -0.014709686 -0.024968859 -0.049195096 0.048553653
-0.091892764 -0.10557541 0.09969529 -0.10259139 -0.03886706 0.0012343719 0.095666416 -0.008208387
0.096479125 0.11162487 -0.007260632 -0.092677 0.102103606 0.1038135 -0.0172375 -0.045043647
0.08122437 0.03208853 0.041442305 -0.080798335 0.088894635 -0.01954395 0.11108309 -0.04386466
0.06952434 0.120543726 -0.12310721 0.07169692 -0.06296076 -0.068411306 0.032454222 0.093902946
0.07875385 -0.02781748 0.032554742 0.099523574 0.06104705 0.04293356 0.10909445 0.009744633
-0.02642735 0.058873408 0.042573094 -0.048157007 0.014268332 0.08621578 -0.106193915 0.028844304
-0.104494266 -0.021931253 0.08463593 -0.1046111 -0.011054393 -0.12055782 -0.068045825 0.10957091
-0.12154485 -0.087633125 -0.12492793 0.030009132 -0.10015406 0.038261984 -0.046426173 -0.10798607
0.09006232 -0.043167207 0.025475424 0.049615536 0.07909278 0.055212017 0.031773634 -0.0005125283
0.046528485 -0.09669869 0.028445737 0.03098524 -0.014509252 0.032820422 0.04764235 -0.12093774
-0.074291155 -0.09275092 -0.0692665 -0.033501547 -0.08130692 0.10633264 -0.068036884 -0.09921478
0.030005733 0.11636701 0.054094706 0.11267497 0.0026159226 0.028968437 0.05917558 -0.0416822
0.0014603932 -0.0034588221 -0.11553533 0.0035265712 -0.074156955 -0.0121615 0.0010480725 -0.013062552
0.08938788 0.008328926 -0.09341378 -0.107083194 0.027046395 -0.09830678 -0.09796758 0.009628516
-0.09983865 -0.12013387 0.01080329 -0.10729411 -0.09292748 -0.025919966 0.029802054 0.12580928
-0.023020858 0.08827071 -0.0357853 -0.06731063 0.112857506 0.058429103 0.065734856 -0.115293115
0.10985109 0.11563306 -0.085564785 0.12182201 -0.10605014 0.11627567 -0.0002735546 -0.048151117
-0.08383783 -0.036926858 -0.059355315 0.114925615 0.035993587 0.076870546 0.084265046 -0.038110133
0.006627275 0.06087695 -0.059571832 -0.09561939 -0.052974805 0.054614842 -0.07247849 -0.058373105

bias f4 [64]
00000000: b5ac 973c 8b12 0abd 01d4 233e 7b6b 693d
00000010: 2ff0 a93d 6a59 c1bd 4d2e 103e 38f4 523b
00000020: d368 d9bc 5983 bc3d 945b 433e 1dc4 49ba
00000030: 4053 f13d c878 f93d 731f 2cbd 2766 bd3d
00000040: 5fd4 d8bd cd68 c4bd 18a6 3fbc 8a6e 83bc
00000050: bb5d ddbd b2cf bf3d f454 8cbd f2fc e3bd
00000060: e6ac 37bd b379 46bd 0d8c 4abd 3089 883c
00000070: 313a b33d b6ac 5d3d e051 103d 5c65 d4bd
00000080: b973 7dbd 039a 063d 2a3d a2bd c00b af3d
00000090: 7a3c b73d 21c6 2ebd 0701 1a3e 5d7e d33d
000000a0: e55b e93c 12c0 ce3d 0822 bf3d 04fc 043e
000000b0: 4655 063d a607 82bd 9053 bbbd a1df ccbc
000000c0: 51f7 873b bfa7 53bd 162c a33d 526c afbd
000000d0: f3f4 70bd 72e9 eb3d 33c4 0e3d d7cc ce3d
000000e0: 2b18 f4bd e02a 123d 99bd 89bc a936 a53d
000000f0: c528 323d f35d f43b ab0a cc3d e07a d73d
0.01851497 -0.03370909 0.15998842 0.056987267 0.082977645 -0.094408825 0.14080162 0.0032189023
-0.026539242 0.0920474 0.19077903 -0.00076967647 0.11783457 0.1218124 -0.04202218 0.09248
-0.105873816 -0.09590302 -0.011697315 -0.01604392 -0.10808893 0.093657866 -0.06852141 -0.1113223
-0.044842623 -0.048455905 -0.04944997 0.016666979 0.087513335 0.054119788 0.035234332 -0.10370895
-0.06187794 0.03286172 -0.07921822 0.08547163 0.08947082 -0.04266942 0.15039454 0.10326836
0.028486202 0.10095228 0.09332663 0.12986761 0.032796167 -0.06349115 -0.09146798 -0.025008978
0.0041493555 -0.051673647 0.07967393 -0.08565582 -0.05882735 0.115191355 0.03485508 0.10097664
-0.11918672 0.03568542 -0.01681404 0.08067066 0.043495912 0.0074574887 0.09962972 0.105214834

weight f4 [64, 64]
00000000: 212f 3e3c f368 5bbc 98e6 f7bc d28d f23d
00000010: f7da 8cbc e801 c83d 6458 dbbc fcd0 67bd
00000020: 40a9 88bd 3c84 a9bc fd93 873d bcc8 e9bd
00000030: 6d37 93bd c98c 74bd 64a0 a23d de2d d93b
00000040: b1a9 ff36 ad71 ed3c 025c d23d afde a8bc
00000050: 4bc4 60bd a970 bebd 6cdf 1ebd d232 a23d
00000060: 184f 04bd 6391 df3d cd7b 9c3d 681e e43d
00000070: 9413 163d 6f17 893c 219a a3bd 00a7 093b
00000080: 6a06 f2bd 1364 813b 385e e3bd f058 da3d
00000090: 226c eb3d 5cf8 47bd 3415 5e3d 261c f93d
000000a0: 2e20 963d e89c bbbc 5960 e03d 8d68 363d
000000b0: 2e55 913d 9227 f2bd 4765 a13d 807e 373d
000000c0: 5b31 31bd db27 8abd 5fed 77bd 84ee 8c3d
000000d0: 4248 993d 5024 be3d a346 c73d 92ca bdbd
000000e0: 69f9 c7bd b0a0 fa3d ec65 b3bd 1ffc e43d
000000f0: 7bf9 b83d 4c7b b23c 55be 6b3c 48f6 a0bd
00000100: 0064 5bb9 40e1 8fbc c82c 80bd a079 f73d
00000110: a000 5f3d 2850 373d 8067 05bd d056 763c
00000120: c205 86bd 00b7 003b 2036 843c 0099 42bc
00000130: ca21 98bd cce4 383d 2377 e73b 2c70 ed3d
00000140: c6c3 a33d 0e12 8fbd a07f 93bb 94d5 65bd
00000150: 0a72 cfbd 2eea 80bd 5887 a03d 7a3b e53d
00000160: 823a b1bd 0003 f2bd 6802 083d e032 7e3d
00000170: f843 c9bc c09e 823c a4c5 133d 90d8 c4bc
00000180: 5412 923d c409 053d a46c 48bd 287d 243d
00000190: 38be febd 3019 57bc 6474 9c3d 94f7 cf3d
000001a0: 1b6a e8bc 2ef0 9fbc b215 fe3d a8b1 bb3d
000001b0: a2e4 b93d b654 df3d 9287 d63d 8c2d 5f3d
000001c0: f842 9d3d 206b 9cbc 3810 62bd c03d 073c
000001d0: 0837 9abc c803 6cbd 40f9 68bd 4a14 bd3d
000001e0: fcaf b93d 3e71 91bd 98b7 f13d b842 abbd
000001f0: 9071 fdbd 00cc 373b d427 413d 0297 5dbc
00000200: f0b4 e5bd 5024 2b3d 64e7 e5bd 6062 6bbd
00000210: 8066 94ba 8074 64bc 626b d13d a4cf f1bd
00000220: 78a0 c63c 7646 93bd ceb7 9ebd 5488 043d
00000230: a022 fdbd c03e 71bc 64dd 6c3d 2063 b7bc
00000240: d488 ce3d d85e 133d 9cd0 813d 98bb 373d
00000250: e4c9 bb3d 2621 a6bd e09d ce3d f8de e1bd
00000260: 1cb3 0dbd 18c2 c43d c856 93bc 1eec e3bd
00000270: 38e1 fb3d b613 a93d f48e 1e3d c647 c13d
00000280: d853 803d f4c4 683d 3645 9ebd b1fa c93d
00000290: 0075 82ba 8201 cabd 5e40 8fbd 8aad f33d
000002a0: 30e2 ba3c 7018 9abd 3a88 9fbd 29ee ccbc
000002b0: c8f8 923c ae99 a1bd cce9 ea3d 1a82 88bd
000002c0: f8dc c0bc d07b 943d 9676 b8bd d289 e4bd
000002d0: 7095 0d3d 50fe e6bc 10f8 a33c 98f4 4fbd
000002e0: 7c42 623d a87b 1e3d 589d f7bc 605e c7bc
000002f0: 3a07 dbbd 8cef 2cbd 709e 82bc 6eee b9bd
00000300: 2b6e 8f3d 7c86 a6bd 0b06 b8bd 1c1e c23d
00000310: a5f4 22bb e059 c6bd 3733 e83d 4adb ab3c
00000320: c6cf d3bd fcc9 033e 78d0 793d 7211 cd3d
00000330: 9cb0 af3d 1d55 9dbd eaf3 af3d 850e e2bd
00000340: 72fc a43d 51b3 16bd 5e4e ed3d 5124 d6bd
00000350: d9ed fd3d fbe0 25bd 9620 e3bc e5cf 05bd
00000360: 9f42 abbd efbd e4bb 688c 35bd ec72 d93d
00000370: ca8c dd3d 8823 a0ba e20c ddbc 22e3 a6bd
00000380: 155b c83d 329a 3fbd 2288 e8bd 0f34 62bd
00000390: 8db3 9dbd 4af8 b8bd 39a0 babc 1d78 f93d
000003a0: ca33 a6bd 7e6f 643d cd1b 4dbd fb5f 253d
000003b0: 0266 5fbd d862 133d 62fc 9f3d 2323 e4bd
000003c0: 88ee 0abd 88df 5fbd 22f1 54bd 73bf f83d
000003d0: e9e6 89bd 16d2 2c3c 0fd7 e7bc 2d35 c43c
000003e0: 7242 003d 2c9a a83c 15d2 97bd 27cd 193d
000003f0: f1aa bebc 14a1 6c3d 6e64 2b3d 9dd6 9e3d
0.011607916 -0.013391721 -0.030261323 0.11843456 -0.017194254 0.097659886 -0.026775546 -0.056595787
-0.06672907 -0.020692937 0.066200234 -0.1141524 -0.07188306 -0.059704576 0.07940748 0.0066277822
7.619347e-06 0.028984869 0.10271455 -0.020613996 -0.0548747 -0.09298832 -0.03878729 0.079198495
-0.032301992 0.10916402 0.076408006 0.11138612 0.036639765 0.016734807 -0.07988382 0.002100408
-0.1181763 0.0039486974 -0.11101955 0.10661495 0.11495234 -0.04882084 0.05421944 0.12163572
0.073303565 -0.022901967 0.10955877 0.0445333 0.07096325 -0.11823954 0.07880645 0.044798374
-0.04325996 -0.06745883 -0.06052911 0.06881431 0.07484485 0.0928427 0.0973027 -0.09267153
-0.09764368 0.1223768 -0.087596744 0.11180901 0.090319596 0.021787308 0.01438864 -0.078594744
-0.0002092272 -0.017563462 -0.06258541 0.12083745 0.054443955 0.044754177 -0.03256941 0.015035346
-0.06544067 0.0019640326 0.01613909 -0.011877298 -0.0742832 0.045140073 0.0070637628 0.11593661
0.07996325 -0.069858655 -0.004501298 -0.056111887 -0.10129173 -0.06294666 0.07838315 0.11192985
-0.086537376 -0.118169785 0.03320542 0.062060237 -0.024568543 0.015944839 0.036077157 -0.024029046
0.07132402 0.032480016 -0.048931733 0.04015842 -0.12438625 -0.013128564 0.07639387 0.10154644
-0.028370908 -0.019523706 0.12406482 0.091647446 0.090768114 0.10904829 0.10475077 0.054486796
0.07678789 -0.01909405 -0.05519125 0.008254468 -0.01882507 -0.057620794 -0.05687833 0.092323855
0.090667695 -0.07101677 0.11802596 -0.08362335 -0.12375176 0.0028045177 0.047157124 -0.013524773
-0.11216152 0.041782677 -0.11225775 -0.057466865 -0.0011322051 -0.013943791 0.1022556 -0.118071824
0.02424644 -0.07191174 -0.07749902 0.032356575 -0.1236012 -0.014724433 0.057828322 -0.022386134
0.10084692 0.035979122 0.06338617 0.044856638 0.09169367 -0.08111791 0.10088706 -0.11028856
-0.03459464 0.09607333 -0.017985716 -0.1112902 0.122988164 0.08255713 0.03871055 0.09437518
0.06265992 0.056828454 -0.07728045 0.09862269 -0.0009953082 -0.09863569 -0.06994699 0.11898334
0.022812933 -0.07524192 -0.07789655 -0.025015907 0.017940894 -0.0789064 0.114703745 -0.0666544
-0.023542866 0.07250178 -0.090069935 -0.111591 0.034566343 -0.028197438 0.020015746 -0.050770372
0.055239186 0.038692147 -0.030226395 -0.024336994 -0.10694738 -0.042220637 -0.01594469 -0.0907868
0.07003435 -0.081311196 -0.089855276 0.09478399 -0.0024865058 -0.09685111 0.113378935 0.020978589
-0.10342364 0.1287002 0.060989827 0.10013093 0.085786074 -0.0768225 0.08591445 -0.11037926
0.080559626 -0.036792103 0.11587213 -0.104561456 0.123988815 -0.04049776 -0.0277255 -0.032668967
-0.08362316 -0.0069806497 -0.044323355 0.10617623 0.10817869 -0.001221762 -0.026983682 -0.08148791
0.097829975 -0.04677791 -0.1135409 -0.05522543 -0.07700262 -0.090317324 -0.022781478 0.12181113
-0.08115347 0.05577039 -0.05007534 0.040374737 -0.05454064 0.035982937 0.0781181 -0.11139514
-0.033918887 -0.054656535 -0.051987775 0.12145891 -0.06733496 0.010548135 -0.02830079 0.023951137
0.031313367 0.020581327 -0.07413117 0.037549164 -0.02327487 0.057770804 0.041843824 0.07755778

bias f4 [64]
00000000: 6efd 38bd b413 b8bd f043 f4bd 782b 2e3e
00000010: 6070 613c 64fc 4f3c e842 bc3d 1466 743d
00000020: 4cbb 3c3e 47b2 713c 007d aabd 80aa 8f3d
00000030: 392b 083e 9ece fbbd 0a3c ffbd 8920 353e
00000040: 0ea2 4c3e 0a7c a3bd b1b0 313e ed73 ed3d
00000050: 63a2 043e 4c5a 91bd f0bb 973d 05e5 b33d
00000060: d28c bc3d f049 ff3d 1b92 8d3c cc1a a0bd
00000070: aa02 db3b c5ab 8dbd 667e bd3b a7c6 253e
00000080: 4f9e 4fbd 7308 7f3d 09b3 c3bc 81eb 393e
00000090: 206c ffbb 103a dbbd 8c48 bd3d 5569 f1bc
000000a0: 5089 8ebc 4eae eebc 6c43 db3d 7cbc d03c
000000b0: 78a8 443b c9cd cb3d f8a9 d3bd 16ab debb
000000c0: 20b0 443e 86f3 e9bd b435 a3bd 7696 c03d
000000d0: 63f8 e63c ac88 143e 02f0 a2bd 6d7c 8e3c
000000e0: bb7c 283d 4c93 f1bd e59c 3a3d 31e1 323e
000000f0: 7d8c a03c 2fed bcbd b4b3 993d 603c 35bd
-0.045163564 -0.08988133 -0.119270205 0.1700877 0.013759702 0.012694452 0.09192449 0.05966766
0.18430823 0.014751977 -0.08324623 0.07014942 0.13297738 -0.122952685 -0.124626234 0.17688192
0.19983694 -0.07982643 0.17352559 0.11594377 0.1295257 -0.07097301 0.07408893 0.087839164
0.09206547 0.12465274 0.017281583 -0.07817611 0.006683667 -0.06917528 0.00578289 0.16189061
-0.050688084 0.062263917 -0.023889082 0.18156244 -0.007794872 -0.10704434 0.09242353 -0.029469172
-0.01739946 -0.02913585 0.10706219 0.025480501 0.0030007642 0.0995136 -0.10335153 -0.0067952974
0.19207811 -0.114234015 -0.079692274 0.09403698 0.028194612 0.14505261 -0.07955934 0.017393315
0.041134577 -0.11795673 0.045559783 0.17468716 0.01959824 -0.09224927 0.07504979 -0.04424703
