rl2024/exercise4/DDPG--racetrack-v0--critic_hidden_size:[96, 96, 96]_policy_hidden_size:[32, 32, 32]--0.pt (torch, 968515 bytes, 56 tensors)

weight f4 [32, 288]
00000000: b672 e5bc 4ed0 b33c fdf5 3dbd f2b4 cbbc
00000010: 1490 ccbc 7773 edbc 2bfc 363d 24a6 7a3c
00000020: 15ff 6a3d af38 713d a757 5ebd da7d 1abd
00000030: 3c8b 2d3c 3a6a b73c a00c f53a be2d de3c
00000040: e49a 3bbd a0a2 d1ba 4877 f4bc 7835 af3b
00000050: 6124 0ebd 66c4 e5bc 60b1 c6bc 3737 3dbd
00000060: 88ed c53b 7e4c bc3c 806d 99bc d21b c6bc
00000070: 08d4 e2bb 50c0 56bc 6753 303d e172 53bd
00000080: 15ac 56bd da7e 943c 1ac9 92bc 0019 1d3a
00000090: 7578 133d 7c7a 333c 9234 23bd 3207 d3bc
000000a0: 6c48 36bd f386 5c3d adfa 4c3d 5aa9 0dbd
000000b0: d775 59bd 40e6 04bd 9e0f 5fbd 7143 0f3d
000000c0: 8826 80bc 2a4f 8bbc ac82 50bc 884c ab3b
000000d0: 1199 5c3d 806c b7b9 3351 46bd 008c beba
000000e0: 5460 b6bc fbe4 3dbd 7863 e63b 2861 fc3b
000000f0: 7a2e 5abd 94bc 04bd 6061 b0bb 0bc2 283d
00000100: 2044 fcba 78f3 8c3b 830a 5cbd d6d8 6cbd
00000110: 2234 0fbd f844 953b d400 1bbc 30b9 82bc
00000120: 72c4 c3bc 9e76 11bd dfff 413d dc3f 1dbd
00000130: 2ab9 5abd 90b4 c3bc 84fa 433c b878 3dbc
00000140: 6810 d53b 98f9 3dbc 0dad 0fbd 5023 10bc
00000150: 8481 49bd a2b6 d33c f9e4 043d ec23 19bd
00000160: 38f0 a43b 425f 14bd 983c 1abd cb9d 183d
00000170: 60d0 a4ba e0e9 bcba 35e6 3e3d ded9 85bc
00000180: 657c 013d 0d27 ecbc a282 a73c f55c 293d
00000190: 6623 853c 35b6 523d 1c69 123c 892f 4cbd
000001a0: 1444 8ebc caf2 38bd 7436 cebc 0824 8bbc
000001b0: 4081 9a3a c03e 3c3b b2b6 9ebc a285 80bc
000001c0: 4225 913c a030 dcba 9286 c33c 52a2 e83c
000001d0: 60c3 b8bb 2b38 193d c250 f73c ece3 08bc
000001e0: d450 67bd 689d db3b de6d fe3c 843e acbc
000001f0: 63e1 013d 7e5e c13c fe8a d93c 9cc9 4fbc
00000200: d149 14bd bd38 143d 6a72 27bd 8387 2b3d
00000210: 1cda 6d3c f508 4b3d ed0c 163d f398 5b3d
00000220: c114 5f3d 38f0 6abd 6a14 b2bc 0579 243d
00000230: 7b91 1d3d 52cc 52bd be12 d93c b4a1 46bc
00000240: f511 e73c 9627 3b3d b08c 2c3d 0953 04bc
00000250: 52c9 a33c 8236 d13c 79c7 3a3d 7edc cb3c
00000260: 78b8 57bd 01f6 5bbd b53c e5bc 7149 033d
00000270: 8dce 04bc 7f02 fa3c 42b0 bcba 1a66 1c39
00000280: d3ed 3f3d c5e6 20bd eb94 703d f350 853b
00000290: a550 51bd ca43 d5bc 14ee e33c f947 59bb
000002a0: 9afb 11bc 5767 893c c417 26bd e093 1fbd
000002b0: 00ca 273d 27f0 28bc 7df0 d23c 2b71 8e3c
000002c0: dba8 0eb9 a84e e9bc ad20 2dbc ce9b 6cbd
000002d0: 4ce7 2b3d 5dbc 503d 02db 79bc 1f99 5dbd
000002e0: 8f87 6c3d edb3 4cbc d135 85bc 3146 373d
000002f0: d1a0 24bd 2870 263d 4772 3abd a5c3 c2bb
00000300: 5eb4 bcbc cf71 643d 51b6 acbc e2f0 8239
00000310: fbb2 5f3d 27d4 193b 18e1 02bd fc7b c23b
00000320: 64f4 22bc a6a4 993c f23b b33b 3328 293d
00000330: c2cd e5bc deef 403d 8af2 24bd 552e e73c
00000340: b6e9 6cbd df4d eabb 5f94 8abb 0273 2c3c
00000350: db0f 703d 376b 2a3d d41f fc3c 4727 70bd
00000360: bc41 10bd 7c3b 20bd d274 15bc c348 e23c
00000370: 6613 203d d922 ee3a 27a4 553d 0ba3 2d3d
00000380: 5006 45bd 2939 803b 0911 1c3d 566b 65bd
00000390: 2b1a 243d 9050 61bc 14cb 0f3c 15f0 1fbd
000003a0: a4c0 acbc 9680 01bd 0894 ec3b 7256 f4bc
000003b0: f0a1 6f3b 2ef7 d0bc 4862 a43b 0035 f93a
000003c0: 2874 f1bb df3d 113d bdf8 413d 2a96 f33c
000003d0: 9885 9c3b fe87 1bbd 38a8 66bc b094 6bbb
000003e0: 80d0 f63a 0eb3 96bc 3431 65bd 6f1d 3b3d
000003f0: b4c1 71bc 6f2d 293d cf0a 4fbd 4ae9 933c
-0.0280088 0.021949913 -0.04637717 -0.024866555 -0.024971046 -0.028985722 0.04467408 0.0152984
0.05737217 0.05889195 -0.05428281 -0.037717678 0.010592278 0.02238952 0.0018695779 0.027121421
-0.045802012 -0.0015993901 -0.029842034 0.00534695 -0.034702662 -0.028047752 -0.0242545 -0.046195235
0.006040279 0.022985693 -0.018728971 -0.024183188 -0.0069222488 -0.013107374 0.04304829 -0.05162323
-0.052410204 0.018126894 -0.017918158 0.00059928 0.03600355 0.0109544955 -0.039845057 -0.025760267
-0.04450266 0.053839635 0.05004375 -0.034585334 -0.053090896 -0.032446146 -0.054458253 0.034976427
-0.015643373 -0.017005522 -0.012726467 0.005227629 0.053856913 -0.0003498532 -0.04841728 -0.0014537573
-0.02226273 -0.04636095 0.0070309006 0.0077020116 -0.05326698 -0.032406405 -0.0053827018 0.04120068
-0.0019246377 0.0043014847 -0.053720962 -0.05782398 -0.034961827 0.004555341 -0.009460647 -0.015957445
-0.023897383 -0.035513513 0.04736316 -0.03839098 -0.053399242 -0.02388981 0.011961583 -0.011564426
0.0065022 -0.011595152 -0.035077143 -0.008797482 -0.04919578 0.025843922 0.032444928 -0.037387773
0.005033519 -0.036223657 -0.037655443 0.037259858 -0.0012574308 -0.0014412962 0.04660626 -0.016339239
0.031612772 -0.028827215 0.020448033 0.041348416 0.01625223 0.051443297 0.008936193 -0.04985002
-0.017366447 -0.045153417 -0.02517245 -0.016984954 0.0011787787 0.0028723925 -0.019374225 -0.015688721
0.017717961 -0.0016799159 0.023867879 0.028397713 -0.005638525 0.03740708 0.030189876 -0.008355122
-0.056473568 0.006702114 0.031058248 -0.021025904 0.031709086 0.023604628 0.026555534 -0.012682345
-0.03620321 0.036186922 -0.040880598 0.04187728 0.014517333 0.04956909 0.03663342 0.05361266
0.05446315 -0.057357997 -0.02173825 0.040154476 0.03846882 -0.051464386 0.026498195 -0.012123514
0.028206805 0.04569205 0.042126358 -0.008076438 0.019993458 0.025538687 0.04560039 0.024885412
-0.052666157 -0.053701404 -0.027983049 0.03205246 -0.008105886 0.030518768 -0.0014395791 0.00014915355
0.046857666 -0.03928258 0.05873577 0.004068488 -0.0511023 -0.0260333 0.027823485 -0.0033154471
-0.008910084 0.01677291 -0.04055001 -0.038959384 0.040964127 -0.010311163 0.02574944 0.017387947
-0.00013605079 -0.028479889 -0.010566873 -0.057765774 0.04196863 0.050960887 -0.015249969 -0.054101106
0.057746466 -0.0124940695 -0.016261013 0.044744674 -0.04019243 0.040634304 -0.04551914 -0.005943733
-0.023035225 0.0557726 -0.021083029 0.00024975004 0.05461405 0.00234724 -0.031952947 0.0059351902
-0.009945963 0.018755268 0.0054697925 0.041298103 -0.028052215 0.047103755 -0.040270366 0.028220335
-0.05784007 -0.0071503962 -0.004229113 0.010525467 0.05860887 0.041606154 0.030776896 -0.058631208
-0.03521894 -0.03911923 -0.00912209 0.027622586 0.039081 0.0018168344 0.0521585 0.042391818
-0.048101723 0.003913064 0.038102183 -0.056010567 0.04006402 -0.013752118 0.008776445 -0.03904732
-0.021087952 -0.03161677 0.007219795 -0.029826377 0.0036565028 -0.02550849 0.005016599 0.0019012988
-0.007368583 0.035459395 0.047356356 0.02973469 0.004776668 -0.03797149 -0.014078192 -0.003594678
0.0018830448 -0.018395927 -0.055955127 0.045682367 -0.014755655 0.041303094 -0.050547417 0.018055577

bias f4 [32]
00000000: 5e9e 46bc 0ee5 cbbc 25e2 783c d7ad 29bc
00000010: 8323 dbbc e5fb e9bc 86bd ac3d 184e 77bc
00000020: 5431 a63c 4ec0 023d 975f 32bd 692a 0b3e
00000030: 0206 6ebd 19de e53b a5df ecbb ba46 523e
00000040: be5e 2bbd 74cf 60bd f721 52bd beeb cd3d
00000050: 9d14 973d 734e bf3b 5e82 293c 626a 83bc
00000060: 9616 643c e49d 53bd ec0f 39bd 2e15 cd3d
00000070: 0054 193a bff5 cc3c 5637 2fbd 071f 043c
-0.012122719 -0.024889495 0.015190636 -0.010356388 -0.026750332 -0.028562495 0.08434586 -0.015094303
0.020287193 0.031921677 -0.043548193 0.13590397 -0.0581112 0.0070150015 -0.007228809 0.20534793
-0.0418384 -0.054885343 -0.051301923 0.1005473 0.073769785 0.0058382093 0.010346023 -0.016041938
0.0139214005 -0.051664248 -0.0451812 0.10013805 0.0005849004 0.025019525 -0.04277738 0.008064038

weight f4 [32, 32]
00000000: 2d6f f7bc b2e8 b53c dfc7 c4bc 543b 02bd
00000010: e177 163e a7be b3bc cdae 2b3e 7dbc 253e
00000020: bede ce3d 7a4d 2d3e 990d 2ebe 58ac afbb
00000030: 2167 013d a37f ef3d 11ec 063e dd5c b93d
00000040: df95 133e 25bf 06be 1264 d23d 88a4 1fbe
00000050: 51bf ca39 daad 573d bcd4 2abe a055 c03d
00000060: 7b5b 30bd 064e e53d 197c a7bc df03 613d
00000070: 661e 363c 9fda 4cbd e4e5 053e 1797 083d
00000080: 83b7 d7bd d43c 853d 445b df3d 9c7b db3b
00000090: 98b8 ccbd e41e babd ffe9 3e3e a8bb a53d
000000a0: 9997 2f3e 5bf8 84bd 7c7e ffbd cf38 273e
000000b0: 8591 86bd 7ed4 d73d 1fc6 56bd 6ae2 333e
000000c0: f96e 1dbe 7039 8f3b db07 0bbe 876d ce3c
000000d0: edae babd d950 94bd 314b 95bc d542 02be
000000e0: cc1b ab3c 5b71 b8bd 301e 92bd 5689 de3d
000000f0: 9468 823d bd96 143e c05b 69bd 4111 28bc
00000100: a337 9fbd 00b8 e6bd 5b94 0a3c 0edc c53d
00000110: 5589 71bc fafb a8bd 3778 d43d 9e26 c1bd
00000120: 1009 a33d dd3d 053e b08a 073e b33f 263e
00000130: 721f 803d 00b2 0a3d ae8c 1d3e 022f 9b3d
00000140: 126f 783d b01f fd3d f02e a33d 511e 17bd
00000150: 47da 90bd 7878 2c3e 7435 dabd 33ce 0d3d
00000160: bd9c 263e 36b2 acbc 1c85 333d 62bf 843d
00000170: 5f71 9b3c 7257 023e edb5 093e ea4f 743d
00000180: a2ef 683d f001 1ebe d405 0dbe 65f1 f63d
00000190: e94c 4c3d 0180 0b3e 80bf db3c 8131 353e
000001a0: 083a c63d 5763 a73d 13a2 3ebd a2f9 8bbc
000001b0: 3dd5 00be 009d 0fbe 34a6 0bbe 7f4c d4bd
000001c0: 50d5 29be aabf ec3d 597a ffbd bd60 153e
000001d0: 4fc6 19be 88f2 823d 2406 81bd 3603 5c3d
000001e0: 146e d5bd 4c25 9abb e9ab 7e3d f24d 22be
000001f0: 261b 963b f5bf e9bc 2a77 67bd b097 073d
00000200: 5c87 8c3c b25a 87bc d812 163e 070a bd3d
00000210: bbc9 e9bd 10cd 2bbe 6a5f d6bd 3eea f2bc
00000220: 5a1f b3bd 851b 403d a7f8 e5bb 0356 a6bd
00000230: de8b 87bc 4655 d7bd 0549 003e e4b5 223e
00000240: 127a 13be 240d 98bd cdc4 f23d 2ad9 ddbd
00000250: e2a0 ac3d 9996 ec3d a79b 2ebe 91b6 a73d
00000260: 63a1 bbbd a5f2 963d 6e9c 43bd 3f7c a7bc
00000270: 2bd6 8b3c c845 1f3e d098 1f3e 593d ae3d
00000280: a4f4 a1bd f2bd 933d e280 16be 0036 753a
00000290: 5b38 89bd b06e a7bc 6406 7b3d 4d3c 32be
000002a0: 85e6 1ebe 2054 d73b d637 b63d 9084 f6bc
000002b0: 0ee3 d23d 4727 163e 6106 2d3e 2f7b 32be
000002c0: 70c5 af3c 49be 223e a06d 8fbc d6ed 2ebe
000002d0: 4074 193d 1bc0 253e d85e dcbc 213e 023e
000002e0: 7e20 2dbe 3abb a23d aa6c fc3d 08eb 3dbd
000002f0: a007 29bd 180b ba3c 02db 8c3d 965c e03d
00000300: 83f5 03be 1e1f 973b dadc 1a3d 1921 6d3b
00000310: a579 9e3d b779 04be 920c 173e e961 13be
00000320: 44d0 f1bd 2300 e1bc f94d 55bd eebc 10be
00000330: b262 20be 33a4 f3bd bda9 f6bd 8d0d 8d3d
00000340: 5ca6 61bc 785a f5bd f66b 84bd 9008 e73d
00000350: c44f 2c3d 42cb 02be 5abc ddbd c01d 00be
00000360: e4fb 1f3e f69d 0c3d 94e7 0c3d 2c24 09bd
00000370: 4bcc f53d 2e2e 0b3e c87e 033b d34d 1abd
00000380: d878 34be dd5b 5a3d ee0b 40bb a764 c6bd
00000390: 5ab9 a6bd cb00 003e 7559 2dbe d1ea 2b3e
000003a0: 8f8c 5dbd 89f6 c6bd 071b 14be d0e4 2abe
000003b0: 0b77 8d3c d86e 343d d5ca d2bd 3208 bebc
000003c0: c617 e73d 5cbf 753d e0dd e6bc d8aa 34be
000003d0: c974 f63d db8b 0e3e 1e01 7fbd 22e4 27be
000003e0: 3a96 d43d fe63 ea3d 7ef9 07be 8c42 8dbd
000003f0: 0cd7 00be 7bd1 4d3c bba7 813d 3228 28be
-0.03020438 0.022205684 -0.024021087 -0.03179486 0.14694168 -0.021941496 0.167659 0.16185184
0.101010785 0.16924086 -0.16997375 -0.005361121 0.031592492 0.11694267 0.1317599 0.090509154
0.1441264 -0.13158853 0.10272993 -0.15590107 0.00038670984 0.052656032 -0.16682714 0.09391332
-0.043055993 0.111965224 -0.020444917 0.054935332 0.011115646 -0.05001318 0.13075978 0.033347216
-0.10533049 0.06505743 0.109060794 0.006698085 -0.09996146 -0.09087923 0.1864395 0.08092433
0.17147674 -0.064926825 -0.12475297 0.16330265 -0.065707244 0.105385765 -0.052435037 0.17566839
-0.15374364 0.0043708608 -0.13577215 0.025198711 -0.09115396 -0.07241983 -0.01822433 -0.12720807
0.020887278 -0.09005996 -0.07134664 0.108660385 0.06367603 0.14510627 -0.056972265 -0.01025802
-0.07774284 -0.11265564 0.008458222 0.09661113 -0.014742215 -0.08251186 0.10374492 -0.09431194
0.07960713 0.1301188 0.13236499 0.16235237 0.06255998 0.03386116 0.15385696 0.075773254
0.0606528 0.123595595 0.07967937 -0.036894146 -0.07072883 0.1684283 -0.106547266 0.034620475
0.16270728 -0.021081071 0.043828115 0.06481816 0.018974958 0.1272867 0.13448305 0.059646524
0.056869157 -0.15430427 -0.13771755 0.12057761 0.049878035 0.13623048 0.026824713 0.17694665
0.09679037 0.081732444 -0.046541285 -0.017086808 -0.12581344 -0.14024734 -0.1363762 -0.10366153
-0.16585279 0.115599945 -0.12474508 0.14587684 -0.15017055 0.063939154 -0.06299999 0.053714
-0.10421386 -0.004704153 0.062175665 -0.15850046 0.004580873 -0.028533915 -0.056510128 0.033103645
0.017154388 -0.01652274 0.14655626 0.09230428 -0.1141543 -0.16777444 -0.104674175 -0.029652711
-0.08746214 0.046901245 -0.007018167 -0.08121874 -0.016546186 -0.105143115 0.12527855 0.15889698
-0.14402035 -0.074243814 0.11853943 -0.108324364 0.084291235 0.11552162 -0.17051564 0.08189119
-0.091616414 0.073704995 -0.047756605 -0.020444987 0.017069897 0.15553963 0.15585637 0.08507795
-0.079079896 0.072139636 -0.14697602 0.0009354055 -0.06700202 -0.020438522 0.06128539 -0.17405815
-0.15517624 0.006571308 0.088973686 -0.030092508 0.102972135 0.1466342 0.16896965 -0.17429803
0.02145645 0.158929 -0.017508328 -0.17082915 0.03746438 0.16186564 -0.026900694 0.12719013
-0.16906926 0.07945867 0.123254135 -0.04636672 -0.041267037 0.022710368 0.0687771 0.10955159
-0.12886624 0.0046118638 0.037808277 0.0036183058 0.077380456 -0.12937056 0.14750889 -0.14392819
-0.11807302 -0.027465886 -0.052076314 -0.14134571 -0.1566265 -0.11896553 -0.12044094 0.0688735
-0.013772573 -0.11980146 -0.064659044 0.1128093 0.042068258 -0.12772849 -0.10826941 -0.12511349
0.15623432 0.03433033 0.034400538 -0.03348176 0.120018564 0.13591835 0.0020064581 -0.037671875
-0.17624223 0.053310264 -0.0029303986 -0.09687167 -0.08140822 0.12500302 -0.16928656 0.16788794
-0.054089125 -0.097149916 -0.14463435 -0.16688848 0.017268678 0.04405102 -0.102925934 -0.023197267
0.11283831 0.059996948 -0.02818197 -0.17643297 0.12033994 0.13920538 -0.062256925 -0.1639562
0.10380216 0.11444853 -0.13278767 -0.068974584 -0.12582034 0.012562151 0.0633082 -0.16421583

bias f4 [32]
00000000: a33a dbbd 31fc 913e c4cb 163e 464a 803e
00000010: f5d7 f33d e410 b1bd 0dde b83d d19d ad3c
00000020: 7199 3f3e 4c65 18be f331 bc3d 6469 ecbd
00000030: bfda 333d e9fa 84bc a19b 6d3e 747e 8d3e
00000040: eba0 85bd bbb4 90bb 8668 d63d 5958 61bc
00000050: 363c 20bd 3c4b bc3e 8024 e0bd bdfd d23d
00000060: 4066 3f3b cc7f 6d3c 739f 943e 9b02 373e
00000070: fcd6 b1bb f9c9 ebbd a894 2dbe 7df9 39bd
-0.107045434 0.2851272 0.14726168 0.25056666 0.11906425 -0.086458 0.09026728 0.021193417
0.18710877 -0.14882392 0.091892146 -0.11543539 0.043909784 -0.016232925 0.23203899 0.2763554
-0.06524833 -0.004416076 0.10469155 -0.013753974 -0.03911992 0.3677615 -0.10944462 0.10302303
0.0029205233 0.014495801 0.290279 0.17872088 -0.0054272395 -0.115131326 -0.16951239 -0.045403946

weight f4 [32, 32]
00000000: 725e 93bd b8a2 68bd ec88 7c3d 305f 7a3c
00000010: b91c 9abd 40eb f8bb f7a2 263e 7bb7 2a3e
00000020: 5873 4cbd 3808 363d 74df 28bd b69f b43d
00000030: 9ac5 d9bd 6ddc e2bd a448 28bd 40f5 0e3b
00000040: 9c18 09bd 761e 833d 340e 8c3d 5a24 823d
00000050: 5031 25bc a899 ebbd 1c60 493d 6f75 18be
00000060: bda0 e9bd f16b 1dbe 40a7 f53c 4052 e53b
00000070: f264 a1bd ed87 293e c2e7 1dbe 549d a5bd
00000080: a33c 9bbd d0ec 98bd af21 96bd a43d 8d3d
00000090: 7057 0a3e 3550 173e 7454 cb3d 58ca 0cbe
000000a0: f9fc 7cbd 9071 633d d08e d43d 0873 ff3c
000000b0: a2bc b83c 8535 0b3e 95ef b4bd f9f7 dcbb
000000c0: 6235 07be 8897 29be 6d38 673c 17b4 513c
000000d0: 07c8 013e d427 813d 600b 7c3c ef47 253d
000000e0: b361 1dbe feb9 9fbd a73d 0ebe ddad c53c
000000f0: 34f4 0abe 4e94 a13d 028d c13d fab9 dd3d
00000100: d046 1dbe 436c 14be c6d9 9a3d 280f cdbc
00000110: b1c3 043e 462d afbd 4537 273e 6aa9 a53d
00000120: d3f1 cbbd 3ab6 b2bd 003d fd3c 8121 1bbe
00000130: 088b d23c 4886 0cbd f005 b0bc b4a3 02bd
00000140: 7cce 12bd a584 0ebe 2114 0f3e 7142 233e
00000150: e2ed c73d 0066 fb3a a28a 0dbe 30e9 4abc
00000160: 4482 6b3d 5717 023e 0fc7 18be d23c 02be
00000170: f021 5cbd 821a 8d3d fbc3 17be 30a2 39bd
00000180: 9839 3b3d 44cd b4bd ba1f 0cbe 6e76 d83d
00000190: 34ed 583d 8156 92bd c0fd 32be 34e1 38bd
000001a0: 78d8 953c 4268 bf3d d727 b3bd 9666 f0bd
000001b0: 08f1 30bd 201d 14bd d2a5 cb3d 20aa 3d3c
000001c0: 1009 7c3d 834e 2b3e 28df ae3c 67ad 26be
000001d0: d5e7 2d3e 30cd 39bd 27ae c7bd 1c64 19be
000001e0: 5652 31be 9bc9 febd cea9 09be 7d6f 243e
000001f0: 50df c6bd a06a 83bc a8df ccbd a804 783d
00000200: c175 1ebd 294a 403e d8b6 313e f0ba 66bd
00000210: 2be4 203b 99af 2fbe 74d5 5d3e 7dac 2e3e
00000220: c466 babd 5a4d 8d3d 0e18 b8bd 0eee cb3d
00000230: b7ce 653d a984 4abc 001e 80bd 3f9b 0f3e
00000240: 9b96 b2bd a3ed d83c 355a 00be 7ec5 1b3e
00000250: b6f5 e23b 5000 c53d ef34 24be f973 6d3d
00000260: 65a3 20be 462f a5bd e0e4 f23d 5d59 e03d
00000270: 7ae3 07bc b921 27be bfcb 153e 768e cf3d
00000280: a87a 023e 4076 72bc 2005 35bd 91f9 873d
00000290: 9bc0 ecbd 0011 caba a298 bb3d 3d05 b2bd
000002a0: be97 5bbc 5e09 2ebe 2bfa 04be 92d6 eb3d
000002b0: cd55 a6bd 2ca7 e1bc 3022 13be a4de 74bd
000002c0: b598 053e 24f1 09bc 7068 e33d 66e0 d93c
000002d0: 7b56 1a3d fadb 0bbd c7e3 083e 64a9 c5bd
000002e0: be5d ce3d 31de e0bd 6cb3 053d a237 2ebe
000002f0: dd4f e13d 2afe fcbd 32b1 b63d c662 d6bd
00000300: e6fa 883d 7277 123d b0c5 853d d6c4 76bd
00000310: f989 fd3d 88f1 1b3d 9dcb c1bc 49ce 8a3d
00000320: dbdf 003e c84c 0bbe 0efc 913d b0dc 183c
00000330: deb2 31be 8b3c 1d3d 7a9a 21be fd15 41bb
00000340: 6a82 a73d 9b72 1d3e 5047 203e 1e35 943d
00000350: d831 c3bd 9d9a dcbc c054 4ebd 3cd7 0fbe
00000360: 80e0 4cbb d790 debd f486 0a3e 9666 ee3d
00000370: a9b3 2d3c eebd c23d 40e7 17be 8c01 05be
00000380: 6795 3fbd 1804 9bbd b45c 013e 0575 acbd
00000390: 7fb4 123e 408e d7bb 48e8 153e 7863 f4bd
000003a0: c87b 95bd 184f 2a3d 2721 4abd ea7a 8d3d
000003b0: 12aa 96bc 7cb0 f5bd 65f4 1a3c d066 303e
000003c0: a3e5 0bbe 596d 2c3e 4d76 0abe 872e eabb
000003d0: a457 293e 83fb c7bd a0e2 aabc 6e14 8b3d
000003e0: 2841 c3bc 099e cabc eab6 043e 56cf 173e
000003f0: b696 3dbd 069e 1bbe fda1 2c3e fd8e 2cbe
-0.071957484 -0.056795806 0.061654016 0.0152814835 -0.0752501 -0.0075964034 0.16273104 0.16671555
-0.049914688 0.04444143 -0.041228727 0.08819525 -0.10633393 -0.11077199 -0.0410849 0.002181366
-0.033470735 0.06402294 0.068386465 0.0635459 -0.010082558 -0.11503917 0.049163923 -0.14888547
-0.114076115 -0.15373208 0.029986978 0.0069983304 -0.07880582 0.16555758 -0.1542044 -0.080866486
-0.07579925 -0.074670434 -0.073306434 0.06896523 0.13509917 0.1477669 0.099282175 -0.13749063
-0.06176469 0.055528224 0.10378802 0.03118278 0.022550885 0.13594635 -0.08834759 -0.006743428
-0.13203958 -0.16561711 0.014112574 0.012799284 0.1267396 0.06306425 0.015383571 0.040351804
-0.153693 -0.07799147 -0.13890706 0.024130756 -0.13569719 0.07889615 0.09450723 0.10826488
-0.15359044 -0.14494424 0.07561068 -0.025031641 0.12965275 -0.08553557 0.16329677 0.08088954
-0.09958234 -0.08726163 0.030912876 -0.151495 0.02570106 -0.034307748 -0.021487206 -0.0318944
-0.03584145 -0.13917787 0.13972522 0.15943314 0.097621694 0.0019180179 -0.13822415 -0.012384698
0.057497278 0.12704216 -0.14919685 -0.12718514 -0.053743303 0.068898216 -0.14820854 -0.04532069
0.045709223 -0.08828214 -0.13683978 0.10569464 0.05296059 -0.071454056 -0.1747961 -0.045136645
0.018291697 0.093460575 -0.08747833 -0.11738317 -0.043198615 -0.03616059 0.09943737 0.0115762055
0.06153208 0.16729169 0.021346644 -0.16277085 0.16982968 -0.045361698 -0.09750014 -0.14979595
-0.17316565 -0.12440797 -0.13443682 0.16058154 -0.09710562 -0.016042054 -0.100035965 0.060551316
-0.038686518 0.1877829 0.17354906 -0.05633062 0.0024550061 -0.17156829 0.21663457 0.17057987
-0.09101632 0.06899519 -0.08988963 0.09957515 0.05610534 -0.01236073 -0.06255722 0.14024065
-0.08720132 0.026480502 -0.12534411 0.15212056 0.0069262637 0.096192 -0.16035818 0.05797193
-0.1568733 -0.08065657 0.11860061 0.10954545 -0.008293981 -0.16321458 0.14628504 0.10134594
0.12742102 -0.014798701 -0.04419434 0.06639398 -0.11560174 -0.0015416443 0.09159972 -0.086924054
-0.013402877 -0.16995761 -0.12986057 0.115155354 -0.08121834 -0.027545534 -0.1436851 -0.05978264
0.13046534 -0.008419309 0.11103904 0.02659626 0.03768013 -0.034145333 0.1336814 -0.09651449
0.10076474 -0.1097988 0.032641813 -0.1701341 0.11001561 -0.123531654 0.08920516 -0.10468058
0.0668848 0.035758443 0.065318465 -0.06024631 0.12379832 0.03807214 -0.02365666 0.06777627
0.12585394 -0.13603508 0.07128154 0.00932996 -0.17353389 0.038387816 -0.15781584 -0.002946257
0.081791714 0.1537575 0.15652204 0.07236694 -0.09530991 -0.026929194 -0.050373793 -0.14046949
-0.0031261742 -0.1086747 0.13528043 0.116406605 0.010601916 0.095088825 -0.14834309 -0.12988871
-0.04677334 -0.0756914 0.1263302 -0.08420757 0.14326666 -0.006578237 0.1463939 -0.11933035
-0.07299 0.041579336 -0.049348023 0.069082096 -0.018391643 -0.11996552 0.009457682 0.1722672
-0.13661818 0.16838588 -0.1352169 -0.00714666 0.16537338 -0.09764769 -0.020860016 0.06791006
-0.02383478 -0.02473356 0.12960401 0.14825186 -0.046286307 -0.15197 0.16858669 -0.1685142

bias f4 [32]
00000000: 7c58 3bbd c827 8fbb 60a9 05be 5a43 22be
00000010: ce6e cb3e af1f 843d 5946 773d 7f79 03be
00000020: 201d ae3e 815d 3ebe c9af abbc b4b7 b63d
00000030: 9c32 babd e0be f8bd 5052 24be e0f1 56bd
00000040: 3c8e 97bd c0d3 c9bc 3e1e c73d 4925 843e
00000050: 7e06 2cbb 30e2 c43e da10 483d 8814 16be
00000060: 1b5e a03e 032d e23d dfae 603c 7278 33be
00000070: 07a8 a53e 67ee 80bd b1c2 053e 9933 de3e
-0.045738682 -0.004368756 -0.13052893 -0.15846005 0.39732975 0.06451356 0.060369823 -0.12839316
0.34006596 -0.18590356 -0.020957844 0.08921757 -0.09091684 -0.121457815 -0.16047025 -0.052476764
-0.07400176 -0.024637103 0.09722565 0.25809696 -0.0026248987 0.38453817 0.048844196 -0.1465627
0.31321797 0.110437416 0.0137135675 -0.17526415 0.32354757 -0.06295472 0.1306255 0.4339874

weight f4 [1, 32]
00000000: 4b09 083e 8cd8 9e3d 9eda b13d 7a67 26be
00000010: 95ff e0be c16d 053e 1012 7fbd 1abd 5ebd
00000020: 01a7 eabe 967a e03d 998d 16be 37a4 fcbc
00000030: 55f9 1b3e 7565 263e 308b 0abe b488 663d
00000040: 8cb3 bfbd ead2 d23d 57f9 fe3d 36b6 6abe
00000050: 4fc7 76bd 56d5 f3be b3c4 30bd d043 1bbc
00000060: 9da5 ecbe 4a2c a5be 4839 f43d 9062 a43c
00000070: 9079 9dbe f839 033e 9a6e 2ebd f0dc fabe
0.13284795 0.07756147 0.08684276 -0.1625041 -0.43944994 0.13030149 -0.062273085 -0.05437956
-0.4583054 0.109608814 -0.14702453 -0.030840022 0.15231831 0.1624964 -0.13529658 0.056282714
-0.09360418 0.10294135 0.124499016 -0.2292107 -0.06024867 -0.476237 -0.043156337 -0.009476617
-0.46220103 -0.32260352 0.11924988 0.02006653 -0.30756807 0.12815082 -0.042585947 -0.48996687

weight f4 [32, 288]
00000000: bb72 e5bc 4ed0 b33c fdf5 3dbd f2b4 cbbc
00000010: 1490 ccbc 7773 edbc 30fc 363d 24a6 7a3c
00000020: 15ff 6a3d af38 713d a757 5ebd da7d 1abd
00000030: 3c8b 2d3c 3a6a b73c a00c f53a ca2d de3c
00000040: e49a 3bbd a0a2 d1ba 4877 f4bc 7835 af3b
00000050: 6124 0ebd 66c4 e5bc 60b1 c6bc 3737 3dbd
00000060: 88ed c53b 7e4c bc3c 806d 99bc d21b c6bc
00000070: 08d4 e2bb 50c0 56bc 6753 303d ea72 53bd
00000080: 15ac 56bd da7e 943c 1ac9 92bc 0019 1d3a
00000090: 7578 133d 7c7a 333c 9234 23bd 3207 d3bc
000000a0: 6c48 36bd f386 5c3d adfa 4c3d 5aa9 0dbd
000000b0: d775 59bd 40e6 04bd 9e0f 5fbd 7143 0f3d
000000c0: 8826 80bc 2a4f 8bbc ac82 50bc 884c ab3b
000000d0: 1a99 5c3d 806c b7b9 3351 46bd 008c beba
000000e0: 5460 b6bc fbe4 3dbd 7863 e63b 2861 fc3b
000000f0: 7a2e 5abd 94bc 04bd 6061 b0bb 0bc2 283d
00000100: 2444 fcba 78f3 8c3b 830a 5cbd d6d8 6cbd
00000110: 2234 0fbd f844 953b d400 1bbc 30b9 82bc
00000120: 72c4 c3bc 9e76 11bd dfff 413d dc3f 1dbd
00000130: 2ab9 5abd 90b4 c3bc ce2a 483c b878 3dbc
00000140: 6810 d53b 98f9 3dbc 0dad 0fbd 5023 10bc
00000150: 8481 49bd a2b6 d33c f9e4 043d ec23 19bd
00000160: 38f0 a43b 425f 14bd 983c 1abd cb9d 183d
00000170: 60d0 a4ba e0e9 bcba 35e6 3e3d ded9 85bc
00000180: 657c 013d 0d27 ecbc a282 a73c f55c 293d
00000190: 6623 853c 35b6 523d 1c69 123c 892f 4cbd
000001a0: 1444 8ebc caf2 38bd 7436 cebc 0824 8bbc
000001b0: 4081 9a3a c03e 3c3b b2b6 9ebc a285 80bc
000001c0: 4225 913c a030 dcba 9286 c33c 5ba2 e83c
000001d0: 60c3 b8bb 2b38 193d c250 f73c ece3 08bc
000001e0: db50 67bd 689d db3b de6d fe3c 843e acbc
000001f0: 63e1 013d 7e5e c13c fe8a d93c 9cc9 4fbc
00000200: d149 14bd bd38 143d 6a72 27bd 8387 2b3d
00000210: 1cda 6d3c f608 4b3d ee0c 163d f398 5b3d
00000220: c114 5f3d 38f0 6abd 6a14 b2bc 0579 243d
00000230: 7b91 1d3d 52cc 52bd c212 d93c b4a1 46bc
00000240: fe24 e73c df27 3b3d 3790 2c3d 0663 04bc
00000250: 54c1 a33c 642a d13c 48c1 3a3d 8bd0 cb3c
00000260: 5ebb 57bd 0afa 5bbd b53c e5bc cc49 033d
00000270: 8abd 04bc 0f07 fa3c 7f80 bcba bf21 1c39
00000280: 88f0 3f3d 0ee7 20bd e695 703d 6854 853b
00000290: 7251 51bd ca43 d5bc 72ee e33c 1949 59bb
000002a0: 18ed 11bc 5970 893c c915 26bd c992 1fbd
000002b0: ceca 273d 59e9 28bc 7def d23c c96f 8e3c
000002c0: c07c 0eb9 3b4e e9bc 7f21 2dbc 199d 6cbd
000002d0: 46ed 2b3d 57bf 503d 1bdc 79bc cf97 5dbd
000002e0: 3b87 6c3d 98b6 4cbc 2d38 85bc e845 373d
000002f0: dca2 24bd 0b6e 263d 6374 3abd 26ca c2bb
00000300: c7c1 bcbc 5e6c 643d f9c2 acbc 8c60 7f39
00000310: 23ac 5f3d f267 193b e7e6 02bd 0e47 c23b
00000320: b008 23bc 0498 993c 4c09 b33b f721 293d
00000330: e5cc e5bc 91f0 403d 37f2 24bd 7a2e e73c
00000340: f2eb 6cbd 396c eabb b8b2 8abb 0c64 2c3c
00000350: 1e0c 703d e468 2a3d 0d1b fc3c e629 70bd
00000360: 6149 10bd 6342 20bd 4891 15bc e13a e23c
00000370: 750e 203d 06b9 ed3a f0a0 553d bd9f 2d3d
00000380: a109 45bd bd1e 803b d60d 1c3d a26e 65bd
00000390: 2b1a 243d 9050 61bc 14cb 0f3c 15f0 1fbd
000003a0: a7c0 acbc 9680 01bd 0894 ec3b 7456 f4bc
000003b0: f0a1 6f3b 2ef7 d0bc 4862 a43b 0035 f93a
000003c0: 2c74 f1bb df3d 113d bdf8 413d 2a96 f33c
000003d0: 9885 9c3b fe87 1bbd 38a8 66bc b094 6bbb
000003e0: 80d0 f63a 0eb3 96bc 3431 65bd 6f1d 3b3d
000003f0: b4c1 71bc 6f2d 293d cf0a 4fbd 4ae9 933c
-0.02800881 0.021949913 -0.04637717 -0.024866555 -0.024971046 -0.028985722 0.0446741 0.0152984
0.05737217 0.05889195 -0.05428281 -0.037717678 0.010592278 0.02238952 0.0018695779 0.027121443
-0.045802012 -0.0015993901 -0.029842034 0.00534695 -0.034702662 -0.028047752 -0.0242545 -0.046195235
0.006040279 0.022985693 -0.018728971 -0.024183188 -0.0069222488 -0.013107374 0.04304829 -0.051623262
-0.052410204 0.018126894 -0.017918158 0.00059928 0.03600355 0.0109544955 -0.039845057 -0.025760267
-0.04450266 0.053839635 0.05004375 -0.034585334 -0.053090896 -0.032446146 -0.054458253 0.034976427
-0.015643373 -0.017005522 -0.012726467 0.005227629 0.053856947 -0.0003498532 -0.04841728 -0.0014537573
-0.02226273 -0.04636095 0.0070309006 0.0077020116 -0.05326698 -0.032406405 -0.0053827018 0.04120068
-0.0019246382 0.0043014847 -0.053720962 -0.05782398 -0.034961827 0.004555341 -0.009460647 -0.015957445
-0.023897383 -0.035513513 0.04736316 -0.03839098 -0.053399242 -0.02388981 0.012217237 -0.011564426
0.0065022 -0.011595152 -0.035077143 -0.008797482 -0.04919578 0.025843922 0.032444928 -0.037387773
0.005033519 -0.036223657 -0.037655443 0.037259858 -0.0012574308 -0.0014412962 0.04660626 -0.016339239
0.031612772 -0.028827215 0.020448033 0.041348416 0.01625223 0.051443297 0.008936193 -0.04985002
-0.017366447 -0.045153417 -0.02517245 -0.016984954 0.0011787787 0.0028723925 -0.019374225 -0.015688721
0.017717961 -0.0016799159 0.023867879 0.02839773 -0.005638525 0.03740708 0.030189876 -0.008355122
-0.056473594 0.006702114 0.031058248 -0.021025904 0.031709086 0.023604628 0.026555534 -0.012682345
-0.03620321 0.036186922 -0.040880598 0.04187728 0.014517333 0.049569093 0.036633424 0.05361266
0.05446315 -0.057357997 -0.02173825 0.040154476 0.03846882 -0.051464386 0.026498202 -0.012123514
0.028215881 0.04569232 0.04212972 -0.00808025 0.019989647 0.025532909 0.045594484 0.024879714
-0.05266892 -0.053705253 -0.027983049 0.0320528 -0.00810183 0.030520944 -0.0014381557 0.00014889891
0.046860248 -0.03928285 0.058736704 0.0040689 -0.051103063 -0.0260333 0.02782366 -0.0033155142
-0.008906625 0.016777204 -0.04054812 -0.038958345 0.040964894 -0.010309541 0.025748963 0.017387288
-0.00013588648 -0.028479686 -0.010567068 -0.057767007 0.04197433 0.050963726 -0.015250231 -0.054099854
0.057746153 -0.012494706 -0.016262138 0.044744402 -0.040194377 0.04063229 -0.04552115 -0.005944508
-0.023041619 0.05576741 -0.021089064 0.00024354662 0.05460752 0.0023407903 -0.031958487 0.0059288805
-0.009950802 0.018749245 0.0054637548 0.041292157 -0.028051803 0.047104422 -0.040270057 0.028220404
-0.057842202 -0.0071540144 -0.0042327307 0.0105219 0.058605306 0.041603938 0.030774618 -0.058633707
-0.03522623 -0.03912581 -0.009128876 0.027615966 0.039076287 0.0018136806 0.052155435 0.042388666
-0.048104886 0.0039099143 0.038099132 -0.05601371 0.04006402 -0.013752118 0.008776445 -0.03904732
-0.021087958 -0.03161677 0.007219795 -0.02982638 0.0036565028 -0.02550849 0.005016599 0.0019012988
-0.007368585 0.035459395 0.047356356 0.02973469 0.004776668 -0.03797149 -0.014078192 -0.003594678
0.0018830448 -0.018395927 -0.055955127 0.045682367 -0.014755655 0.041303094 -0.050547417 0.018055577

bias f4 [32]
00000000: 316e 42bc ae7b cbbc 85d5 783c 04af 29bc
00000010: a1fa dabc bdd3 e9bc 9104 a73d 95ef 81bc
00000020: 5d74 a63c c7b5 023d c35f 32bd c132 063e
00000030: 0c02 6ebd c439 eb3b 4f39 edbb 3bac 473e
00000040: 7b3f 2bbd 3ce1 60bd e020 52bd 271f bf3d
00000050: 5c16 933d 22d1 be3b 2580 293c e3c3 82bc
00000060: bc6a 503c a89c 53bd 271c 39bd 1d9e c33d
00000070: 6ecf 0e3a ddcf a53c 3932 2fbd 2c42 fb3b
-0.011867092 -0.024839249 0.015187626 -0.010356668 -0.026730837 -0.028543347 0.08155168 -0.015861312
0.020319158 0.031911638 -0.043548357 0.13105299 -0.05810742 0.007178517 -0.0072394977 0.19499294
-0.041808587 -0.0549023 -0.051300883 0.09332114 0.07181999 0.0058232704 0.010345493 -0.015962547
0.01272076 -0.05166307 -0.045192864 0.09551642 0.00054477795 0.020240718 -0.042772505 0.0076678004

weight f4 [32, 32]
00000000: af70 f7bc 02e7 b53c b3c8 c4bc 543b 02bd
00000010: e177 163e b2bc b3bc 2eb0 2b3e c7bb 253e
00000020: 59e2 ce3d 474d 2d3e 3e0e 2ebe f4bd afbb
00000030: 106a 013d ee82 ef3d 44ec 063e 3160 b93d
00000040: df95 133e bcbf 06be 1264 d23d 66a4 1fbe
00000050: e008 cb39 81ae 573d bcd4 2abe a356 c03d
00000060: 175c 30bd ec4d e53d 7a79 a7bc 9c05 613d
00000070: 9b1f 363c a1da 4cbd d1e5 053e d596 083d
00000080: 5ac3 d7bd 3d3c 853d e55b df3d 3660 db3b
00000090: 8cb6 ccbd 651c babd 68bd 3d3e 6229 a43d
000000a0: 5296 2f3e f7fa 84bd 307b ffbd cceb 243e
000000b0: 9d94 86bd e9c4 d73d e4c9 56bd ee82 2f3e
000000c0: d36f 1dbe b615 8f3b 8107 0bbe 9bb8 b73c
000000d0: 4c4c bdbd dc51 94bd 084c 95bc 1446 02be
000000e0: 3210 a63c 6b73 b8bd 8b24 92bd f8f9 db3d
000000f0: 8e64 823d 65f5 123e 1f58 69bd a70a 31bc
00000100: 3e39 9fbd e4b7 e6bd 9a94 0a3c 58db c53d
00000110: 5383 71bc 75fb a8bd 8997 d33d c8bb c1bd
00000120: 5f08 a33d 213d 053e 2b8b 073e d761 253e
00000130: 4c1e 803d 6bad 0a3d 718c 1d3e 84d4 973d
00000140: d46d 783d cf1e fd3d 6e2f a33d 516a 1bbd
00000150: d2d2 91bd ff77 2c3e 6235 dabd b0ca 0d3d
00000160: 3761 263e 2ab5 acbc 4980 333d fac8 833d
00000170: da6a 9b3c 9dba 013e 54b6 093e 917e 733d
00000180: 31de 683d 4b02 1ebe b205 0dbe 49f0 f63d
00000190: b44f 4c3d e280 0b3e b580 d53c 81ab 343e
000001a0: ea37 c63d 8961 a73d 289e 3ebd 4542 98bc
000001b0: 67d6 00be 9aa2 0fbe f1a6 0bbe 972a dabd
000001c0: c6d5 29be 2ebe ec3d cd79 ffbd 067c 133e
000001d0: d3a5 1abe dcf1 823d e406 81bd ccfa 5b3d
000001e0: ed44 d6bd 7039 9abb 35a3 7e3d e626 23be
000001f0: 40f0 953b a368 f2bc d674 67bd 3d18 063d
00000200: 897b 8c3c 555b 87bc 2d13 163e 6809 bd3d
00000210: 2cc9 e9bd d3cc 2bbe 3d27 d7bd 2fff f4bc
00000220: 7d20 b3bd 7819 403d dce9 e5bb 5fe1 a7bd
00000230: c48f 87bc 0959 d7bd 7b48 003e bd37 213e
00000240: 557a 13be fd0d 98bd 24c5 f23d 83c2 dfbd
00000250: 2ec2 ab3d 1396 ec3d a79b 2ebe 7cb4 a73d
00000260: 150c bcbd edf1 963d aca0 43bd 47e5 aabc
00000270: 1dd0 8b3c a1ba 1e3e 7599 1f3e dede ad3d
00000280: a4f4 a1bd f2bd 933d e280 16be 0036 753a
00000290: 5b38 89bd b06e a7bc 6406 7b3d 4d3c 32be
000002a0: 8ee6 1ebe 2054 d73b d637 b63d 9084 f6bc
000002b0: 0ee3 d23d 4727 163e 6106 2d3e 2f7b 32be
000002c0: 70c5 af3c 49be 223e a06d 8fbc d6ed 2ebe
000002d0: 4074 193d 1bc0 253e d85e dcbc 213e 023e
000002e0: 7e20 2dbe 3abb a23d aa6c fc3d 08eb 3dbd
000002f0: a007 29bd 180b ba3c 05db 8c3d 965c e03d
00000300: e5f4 03be b81f 973b ccdc 1a3d f214 6d3b
00000310: ff79 9e3d b579 04be cfc5 163e aa90 13be
00000320: 5bd0 f1bd 4d03 e1bc b54c 55bd a848 11be
00000330: 0663 20be bca3 f3bd 8baa f6bd cfef 8a3d
00000340: eaa8 61bc 495b f5bd a56b 84bd aaad e53d
00000350: 681a 2b3d 04cc 02be babb ddbd e31d 00be
00000360: abd6 1f3e f79c 0c3d aee4 0c3d 355d 0abd
00000370: 47cb f53d 3ccb 0a3e b48b 033b 1bcf 1abd
00000380: 7078 34be 715c 5a3d 2708 40bb a764 c6bd
00000390: 5ab9 a6bd 5e01 003e 7559 2dbe 5eeb 2b3e
000003a0: 128c 5dbd 89f6 c6bd 7e1a 14be 17e4 2abe
000003b0: 4477 8d3c d86e 343d 2aca d2bd 6707 bebc
000003c0: d317 e73d 64bf 753d e0dd e6bc 70aa 34be
000003d0: 6b75 f63d db8b 0e3e 1e01 7fbd 22e4 27be
000003e0: 3a96 d43d fe63 ea3d 05f9 07be 8c42 8dbd
000003f0: 75d6 00be 58d2 4d3c d4a7 813d 3228 28be
-0.030205099 0.02220488 -0.024021482 -0.03179486 0.14694168 -0.021940563 0.16766426 0.16184913
0.10101766 0.1692401 -0.1699762 -0.0053632203 0.03159529 0.11694895 0.13176066 0.0905155
0.1441264 -0.13159078 0.10272993 -0.15590057 0.0003872579 0.052656654 -0.16682714 0.09391525
-0.043056574 0.11196503 -0.020443667 0.05493699 0.011115934 -0.05001319 0.13075949 0.03334697
-0.10535307 0.0650563 0.10906199 0.006694819 -0.099957556 -0.09087447 0.18529284 0.08015706
0.17147186 -0.0649318 -0.12474668 0.16105574 -0.065713145 0.105356045 -0.05243863 0.1713979
-0.15374689 0.004366602 -0.13577081 0.022426894 -0.09243068 -0.07242176 -0.018224731 -0.12722045
0.020271394 -0.09006389 -0.07135876 0.10741037 0.063668355 0.14351423 -0.056968804 -0.010805762
-0.0777459 -0.11265543 0.008458281 0.09660977 -0.014740783 -0.082510866 0.103316374 -0.094596446
0.07960581 0.130116 0.13236682 0.16150604 0.06255779 0.03385679 0.15385605 0.07413581
0.060651615 0.12359392 0.07968031 -0.037943188 -0.07120289 0.1684265 -0.10654713 0.034617126
0.16248022 -0.02108248 0.043823514 0.064348176 0.01897185 0.12668844 0.13448459 0.059446875
0.056852523 -0.15430562 -0.13771704 0.120575495 0.0498807 0.13623384 0.026062349 0.17643549
0.096786335 0.081729 -0.04653755 -0.018586287 -0.12581788 -0.14026871 -0.13637902 -0.106526546
-0.16585454 0.115597114 -0.124744035 0.1440278 -0.1510232 0.06393787 -0.063001424 0.053705975
-0.10462365 -0.004706554 0.062167365 -0.15932807 0.004575759 -0.02959091 -0.056507908 0.03273796
0.01714875 -0.016523043 0.14655752 0.0923031 -0.114153236 -0.16777353 -0.10505531 -0.029906837
-0.08746431 0.04689929 -0.0070164036 -0.08197283 -0.016548045 -0.10515029 0.12527649 0.15743919
-0.14402135 -0.07424543 0.11854008 -0.10925772 0.08386646 0.11552062 -0.17051564 0.081887215
-0.09181992 0.073703624 -0.04776065 -0.020861281 0.01706701 0.15500881 0.15585883 0.08489774
-0.079079896 0.072139636 -0.14697602 0.0009354055 -0.06700202 -0.020438522 0.06128539 -0.17405815
-0.15517637 0.006571308 0.088973686 -0.030092508 0.102972135 0.1466342 0.16896965 -0.17429803
0.02145645 0.158929 -0.017508328 -0.17082915 0.03746438 0.16186564 -0.026900694 0.12719013
-0.16906926 0.07945867 0.123254135 -0.04636672 -0.041267037 0.022710368 0.06877712 0.10955159
-0.12886389 0.0046119355 0.037808225 0.0036175814 0.07738113 -0.12937053 0.14723895 -0.14410654
-0.11807319 -0.027467394 -0.052075107 -0.14187872 -0.15662774 -0.11896464 -0.12044247 0.06784021
-0.013773182 -0.11980302 -0.06465844 0.112147644 0.04177323 -0.12773138 -0.108268216 -0.12511401
0.15609233 0.03432938 0.034397773 -0.033780295 0.12001663 0.1355409 0.0020072283 -0.037795167
-0.17624068 0.053310815 -0.0029301734 -0.09687167 -0.08140822 0.12500522 -0.16928656 0.16789004
-0.05408866 -0.097149916 -0.14463231 -0.16688572 0.017268784 0.04405102 -0.10292466 -0.02319689
0.11283841 0.059996977 -0.02818197 -0.17643142 0.120341145 0.13920538 -0.062256925 -0.1639562
0.10380216 0.11444853 -0.13278587 -0.068974584 -0.12581809 0.012562357 0.06330839 -0.16421583

bias f4 [32]
00000000: 1735 dbbd 0d1f 8d3e bbb0 123e 22cb 793e
00000010: 7e6f ec3d e410 b1bd 92bf b33d f0a1 ad3c
00000020: e77e 3b3e 4c65 18be 6224 b53d 6469 ecbd
00000030: 5b47 343d 08fa 84bc 1a8c 683e e1ef 873e
00000040: eba0 85bd d3af 75bb d8bf d53d 6f3f 5abc
00000050: 67f0 1fbd fe54 b63e 8024 e0bd 5ee9 d03d
00000060: 4066 3f3b 849b 6e3c 42af 8e3e 511e 303e
00000070: 0dde b1bb 76ce ebbd a894 2dbe 04fe 39bd
-0.107034855 0.27562752 0.1432523 0.24393895 0.11544703 -0.086458 0.087767735 0.021195382
0.18310128 -0.14882392 0.0884483 -0.11543539 0.044013362 -0.016232505 0.22709695 0.265502
-0.06524833 -0.0037488833 0.10436982 -0.013320788 -0.039047625 0.3561172 -0.10944462 0.10200761
0.0029205233 0.014563445 0.27868086 0.17199065 -0.005428082 -0.11513989 -0.16951239 -0.045408264

weight f4 [32, 32]
00000000: 725e 93bd b8a2 68bd ec88 7c3d 305f 7a3c
00000010: b91c 9abd 40eb f8bb f7a2 263e 7bb7 2a3e
00000020: 5873 4cbd 3808 363d 74df 28bd b69f b43d
00000030: 9ac5 d9bd 6ddc e2bd a448 28bd 40f5 0e3b
00000040: 9c18 09bd 761e 833d 340e 8c3d 5a24 823d
00000050: 5031 25bc a899 ebbd 1c60 493d 6f75 18be
00000060: bda0 e9bd f16b 1dbe 40a7 f53c 4052 e53b
00000070: f264 a1bd ed87 293e c2e7 1dbe 549d a5bd
00000080: a33c 9bbd 16ec 98bd ee21 96bd 3c3e 8d3d
00000090: 6c57 0a3e 3550 173e c854 cb3d 58ca 0cbe
000000a0: 84fc 7cbd 9071 633d 498f d43d 0873 ff3c
000000b0: 67bd b83c 6435 0b3e 30ef b4bd 60f1 dcbb
000000c0: 6235 07be 4797 29be 8b39 673c 0ab4 513c
000000d0: ddc7 013e 7c28 813d 600b 7c3c 4048 253d
000000e0: b361 1dbe 45ba 9fbd ed3c 0ebe 09af c53c
000000f0: 4cf4 0abe 4e94 a13d 028d c13d fab9 dd3d
00000100: d046 1dbe 436c 14be c6d9 9a3d 280f cdbc
00000110: b1c3 043e 462d afbd 4537 273e 6aa9 a53d
00000120: d3f1 cbbd 3ab6 b2bd 003d fd3c 8121 1bbe
00000130: 088b d23c 4886 0cbd f005 b0bc b4a3 02bd
00000140: 7cce 12bd a584 0ebe 2114 0f3e 7142 233e
00000150: e2ed c73d 0066 fb3a a28a 0dbe 30e9 4abc
00000160: 4b82 6b3d 5717 023e 0fc7 18be d23c 02be
00000170: f021 5cbd 821a 8d3d fec3 17be 30a2 39bd
00000180: 9839 3b3d 44cd b4bd ba1f 0cbe 6e76 d83d
00000190: 34ed 583d 8156 92bd c0fd 32be 34e1 38bd
000001a0: 78d8 953c 4268 bf3d d727 b3bd a466 f0bd
000001b0: 08f1 30bd 201d 14bd d2a5 cb3d 20aa 3d3c
000001c0: 1009 7c3d 834e 2b3e 28df ae3c 67ad 26be
000001d0: d5e7 2d3e 30cd 39bd 27ae c7bd 1c64 19be
000001e0: 5652 31be 9bc9 febd d5a9 09be 7d6f 243e
000001f0: 50df c6bd a06a 83bc a8df ccbd a804 783d
00000200: 817a 1ebd 0a04 3b3e c1c2 2e3e 4f6d 71bd
00000210: 6cd4 0b3a 99af 2fbe 4ee8 5b3e d6ac 2e3e
00000220: ff96 bdbd 5a4d 8d3d fbbb bcbd 0eee cb3d
00000230: f6b9 633d f884 4abc 650b 85bd 043c 0a3e
00000240: 9b96 b2bd 2cbe d73c 67ff 00be fec4 1b3e
00000250: 1ade e23b df8f b83d ef34 24be 9a2e 693d
00000260: 65a3 20be ee2f a5bd 6dfa e73d e4ba d93d
00000270: eede 07bc 9721 27be bfcb 153e d08e cf3d
00000280: c47a 023e 4cf8 71bc 2cea 34bd ea03 883d
00000290: 91b8 ecbd 0011 caba 2ba1 bb3d df05 b2bd
000002a0: 4e45 5bbc 5e09 2ebe 70f4 04be 92d6 eb3d
000002b0: 254f a6bd dba6 e1bc 701b 13be bbc4 74bd
000002c0: b598 053e 84b2 09bc dc72 e33d 01e1 d93c
000002d0: ce55 1a3d 34b2 0bbd c7e3 083e cf9d c5bd
000002e0: be5d ce3d 13de e0bd 9ec1 053d d433 2ebe
000002f0: 5b4f e13d 2afe fcbd 32b1 b63d 4163 d6bd
00000300: d5fa 883d 7a77 0f3d 77f9 843d 5936 78bd
00000310: 4904 fd3d 88f1 1b3d 36d6 c3bc 05ce 8a3d
00000320: 24ab 003e c84c 0bbe ec5d 913d b0dc 183c
00000330: 65c2 31be c53c 1d3d 81ee 21be c118 72bb
00000340: 6a82 a73d 1f70 1d3e 6734 203e 2a35 943d
00000350: f831 c3bd aad9 e3bc c154 4ebd d9f8 0fbe
00000360: 80e0 4cbb ac90 debd eebf 093e a67e ed3d
00000370: ebb2 2d3c 42be c23d 40e7 17be a401 05be
00000380: 4c95 3fbd cd85 9bbd 163a 013e 7bb2 acbd
00000390: e69d 123e 408e d7bb 46d2 153e 7863 f4bd
000003a0: b99e 95bd 184f 2a3d fc8c 4abd ea7a 8d3d
000003b0: 76d2 96bc 7cb0 f5bd 3633 193c 9224 303e
000003c0: a3e5 0bbe 646c 2c3e 747c 0abe 732e eabb
000003d0: c957 293e 1498 c8bd a0e2 aabc effd 8a3d
000003e0: 2841 c3bc d99e cabc ba73 043e eea7 173e
000003f0: 0896 3dbd 069e 1bbe fda1 2c3e fd8e 2cbe
-0.071957484 -0.056795806 0.061654016 0.0152814835 -0.0752501 -0.0075964034 0.16273104 0.16671555
-0.049914688 0.04444143 -0.041228727 0.08819525 -0.10633393 -0.11077199 -0.0410849 0.002181366
-0.033470735 0.06402294 0.068386465 0.0635459 -0.010082558 -0.11503917 0.049163923 -0.14888547
-0.114076115 -0.15373208 0.029986978 0.0069983304 -0.07880582 0.16555758 -0.1542044 -0.080866486
-0.07579925 -0.07466905 -0.0733069 0.06896636 0.13509911 0.1477669 0.0992828 -0.13749063
-0.061764255 0.055528224 0.10378892 0.03118278 0.022551252 0.13594586 -0.08834684 -0.0067426413
-0.13203958 -0.16561614 0.01411284 0.012799272 0.12673898 0.0630655 0.015383571 0.040352106
-0.153693 -0.077992 -0.13890429 0.024131315 -0.13569754 0.07889615 0.09450723 0.10826488
-0.15359044 -0.14494424 0.07561068 -0.025031641 0.12965275 -0.08553557 0.16329677 0.08088954
-0.09958234 -0.08726163 0.030912876 -0.151495 0.02570106 -0.034307748 -0.021487206 -0.0318944
-0.03584145 -0.13917787 0.13972522 0.15943314 0.097621694 0.0019180179 -0.13822415 -0.012384698
0.057497304 0.12704216 -0.14919685 -0.12718514 -0.053743303 0.068898216 -0.14820859 -0.04532069
0.045709223 -0.08828214 -0.13683978 0.10569464 0.05296059 -0.071454056 -0.1747961 -0.045136645
0.018291697 0.093460575 -0.08747833 -0.11738327 -0.043198615 -0.03616059 0.09943737 0.0115762055
0.06153208 0.16729169 0.021346644 -0.16277085 0.16982968 -0.045361698 -0.09750014 -0.14979595
-0.17316565 -0.12440797 -0.13443692 0.16058154 -0.09710562 -0.016042054 -0.100035965 0.060551316
-0.038691048 0.1826326 0.1706648 -0.058942135 0.00053340825 -0.17156829 0.21475336 0.17058119
-0.09257316 0.06899519 -0.09215542 0.09957515 0.055597268 -0.012360804 -0.06496314 0.13499457
-0.08720132 0.026335798 -0.12597428 0.15211865 0.006923449 0.09011816 -0.16035818 0.05692921
-0.1568733 -0.080657825 0.11327062 0.1063135 -0.008292897 -0.16321407 0.14628504 0.10134661
0.12742144 -0.014768671 -0.044168636 0.066413715 -0.11558641 -0.0015416443 0.091616 -0.08692526
-0.013383223 -0.16995761 -0.1298387 0.115155354 -0.08120564 -0.027545383 -0.14365935 -0.05975793
0.13046534 -0.008404378 0.11105892 0.026596548 0.037679486 -0.034105495 0.1336814 -0.0964924
0.10076474 -0.10979857 0.03265535 -0.17011958 0.11001464 -0.123531654 0.08920516 -0.1046815
0.066884674 0.03502605 0.06492894 -0.060598705 0.12354333 0.03807214 -0.023905855 0.06777576
0.12565285 -0.13603508 0.07097992 0.00932996 -0.17359312 0.038388032 -0.15813638 -0.0036941024
0.081791714 0.15374802 0.1564499 0.07236703 -0.09531015 -0.027813751 -0.050373796 -0.14059772
-0.0031261742 -0.10867438 0.13452122 0.11596422 0.010601739 0.09508945 -0.14834309 -0.12988907
-0.04677324 -0.0759388 0.12619814 -0.0843248 0.14318046 -0.006578237 0.14630994 -0.11933035
-0.073056646 0.041579336 -0.04945086 0.069082096 -0.018410902 -0.11996552 0.009350589 0.1720145
-0.13661818 0.16838223 -0.13524038 -0.0071466505 0.16537394 -0.097946316 -0.020860016 0.06786715
-0.02383478 -0.024733948 0.12934771 0.14810154 -0.04628566 -0.15197 0.16858669 -0.1685142

bias f4 [32]
00000000: 7c58 3bbd 8818 8fbb 60a9 05be 5a43 22be
00000010: 6dba c63e 3d6b 843d a7b1 703d 280b 04be
00000020: 3b52 a93e 6c10 3bbe 92ad abbc 0fa6 b53d
00000030: 9c32 babd e0be f8bd 5052 24be e0f1 56bd
00000040: cd04 9bbd c0d3 c9bc 5142 c73d 8a1a 813e
00000050: 56c5 8ebb d4dd bf3e c917 443d 8814 16be
00000060: 6892 9b3e 2cc6 d23d 0ef8 603c 7278 33be
00000070: 6ed2 a13e acee 80bd 289e 043e 5627 d93e
-0.045738682 -0.004366938 -0.13052893 -0.15846005 0.38814107 0.064657666 0.058763172 -0.12894881
0.3307055 -0.18267983 -0.020956788 0.08869564 -0.09091684 -0.121457815 -0.16047025 -0.052476764
-0.07569275 -0.024637103 0.09729446 0.2521556 -0.0043570204 0.3747393 0.047874246 -0.1465627
0.30385137 0.102917045 0.013731016 -0.17526415 0.31605858 -0.06295523 0.12950957 0.42412823

weight f4 [1, 32]
00000000: 4b09 083e 45d9 9e3d 9eda b13d 7a67 26be
00000010: 250e dabe 327c 053e b4d3 6dbd 2f98 5ebd
00000020: 7c90 e3be f135 e13d d58d 16be 43b9 dcbc
00000030: 56f9 1b3e 7565 263e 308b 0abe b488 663d
00000040: 8973 bfbd ead2 d23d 8f05 ff3d 5bf5 60be
00000050: 12d7 6bbd 558b ebbe b5ab 21bd d043 1bbc
00000060: c8ad e5be 5040 9fbe 823a f43d 9062 a43c
00000070: 203b 97be 6539 033e 2c76 26bd 1d27 f3be
0.13284795 0.077562846 0.08684276 -0.1625041 -0.42588916 0.13035658 -0.058063224 -0.054344352
-0.4444617 0.10996617 -0.14702542 -0.026943808 0.15231833 0.1624964 -0.13529658 0.056282714
-0.093482085 0.10294135 0.12452232 -0.21968596 -0.057578154 -0.4600474 -0.039470393 -0.009476617
-0.44859147 -0.31103754 0.11925222 0.02006653 -0.29537296 0.12814863 -0.04064004 -0.4749078
