rl2024/exercise4/DDPG--racetrack-v0--critic_hidden_size:[32, 32, 32]_policy_hidden_size:[64, 64, 64]--0.pt (torch, 654147 bytes, 56 tensors)

weight f4 [64, 288]
0	0xbcb5332a	-0.022119123
1	0xbd501c96	-0.05080851
2	0x3d2b7475	0.04185911
3	0xbce956bf	-0.028483747
4	0xbd330452	-0.043705292
5	0x3d09338d	0.03349643
6	0xbc9f00f8	-0.019409642
7	0x3ca841a6	0.020539116
8	0xbd3fadc2	-0.046796568
9	0xbcf3da24	-0.029767103
10	0x3c59e21c	0.013298538
11	0xbbc5b428	-0.006033439
12	0x3c921a9e	0.017834958
13	0x3c27af74	0.010234702
14	0x3d48b377	0.048999276
15	0x3d319177	0.043351617
16	0xbd3271d1	-0.043565575
17	0xbba15058	-0.004922908
18	0x3b9cfaf8	0.00479066
19	0xbbb8a428	-0.0056348033
20	0x3d1a4499	0.037663076
21	0x3ce40136	0.027832609
22	0x3c9612c2	0.018319491
23	0x3ca1b1d2	0.019738112
24	0xbce3c854	-0.027805485
25	0x3cb59322	0.022164885
26	0x3ca921ca	0.020645995
27	0xb9815d00	-0.00024674088
28	0x3bf83968	0.0075752027
29	0x3d13d427	0.036090996
30	0x3d54280d	0.051796008
31	0x3d551759	0.05202422
32	0xbd0390b0	-0.032120407
33	0xbd27e890	-0.040993273
34	0xbc77b9d8	-0.015119992
35	0xbd2f0af8	-0.04273507
36	0xbd2bd12a	-0.04194752
37	0xbc1e8098	-0.009674214
38	0x3ccf0e46	0.02527536
39	0xbce5ee79	-0.028067814
40	0x3d3ecdcb	0.04658298
41	0x3d58382f	0.052787956
42	0xbc4a7730	-0.012357518
43	0xbc81e912	-0.015858207
44	0x3d6fc0a3	0.058533322
45	0x3ca57322	0.020196501
46	0xbc87b3ce	-0.01656523
47	0xbd163c12	-0.03667838
48	0x3d1571f9	0.036485646
49	0xbd22ad42	-0.039716013
50	0x3d344e07	0.044019725
51	0xbd06874c	-0.032843873
52	0xbcdc49a4	-0.026890583
53	0x3b9b06c8	0.004731033
54	0x3d4a0037	0.04931661
55	0x3bfe9aa8	0.0077699013
56	0x3cf2cc32	0.029638384
57	0x3d2a24a3	0.041538846
58	0xbd70a37f	-0.058749672
59	0x39dfea00	0.00042708218
60	0x3cb0c732	0.021579359
61	0xbbdf20c8	-0.0068093278
62	0x3cb2d0fe	0.02182817
63	0xbc0468f4	-0.008081663
64	0x3d26841b	0.04065333
65	0xbd035947	-0.032067563
66	0xbd4435ab	-0.047902744
67	0xbaaf5020	-0.001337532
68	0xbcf3f793	-0.029781139
69	0x3d3e9e19	0.046537492
70	0xbcadf392	-0.021234307
71	0xbcc44846	-0.023960244
72	0xbd4045e5	-0.046941657
73	0xbc85f0fa	-0.016350258
74	0x3bc377b8	0.0059651993
75	0xbd61ba01	-0.055109028
76	0xbd000e50	-0.03126365
77	0xbd183f52	-0.037169762
78	0xbc2b5e29	-0.010459461
79	0xbd164176	-0.036683522
80	0xbc7ec304	-0.015549425
81	0xbd21f600	-0.039541245
82	0x3cbd8666	0.023135375
83	0xbc8d0b2c	-0.017217241
84	0x3d28d861	0.04122198
85	0x3cf08c86	0.029363882
86	0x3bac56e8	0.0052593835
87	0x3d3952b1	0.045244876
88	0x3c8b6b26	0.017018866
89	0xbcd3dc44	-0.025861867
90	0x3c7337e4	0.014844868
91	0xbd013140	-0.03154111
92	0x3d34c079	0.04412887
93	0x3d15b05b	0.03654514
94	0xbc7af7d0	-0.015317872
95	0x3d039bcb	0.032130998
96	0x3bcdf218	0.0062849633
97	0xb9c11b00	-0.00036831945
98	0x3d281609	0.04103664
99	0xbd020800	-0.03174591
100	0x3d1d1675	0.038351495
101	0x3cae124e	0.021248963
102	0x3d43bf69	0.047789965
103	0xbd0ad1f3	-0.03389163
104	0xbcdc7670	-0.026911944
105	0x3d29a7b1	0.04141969
106	0xbceb87d6	-0.028751295
107	0x3b082f70	0.0020780228
108	0xbcad5772	-0.021159861
109	0xbcb1de5c	-0.021712475
110	0xbd187bfc	-0.037227616
111	0x3ba84758	0.005135458
112	0x3d08a413	0.0333596
113	0x3d6c4107	0.057679202
114	0xbd0c982c	-0.03432481
115	0x3d61bb2f	0.055110153
116	0xbc7f2d00	-0.015574694
117	0xbd208cd9	-0.039196823
118	0xbd0865c2	-0.03330017
119	0xbb73b7f0	-0.0037188493
120	0xbce24460	-0.027620494
121	0x3d5f9907	0.054589298
122	0xbbab1e08	-0.005222086
123	0x3cf1d4c2	0.029520396
124	0x3d16c8a5	0.036812443
125	0x3d4300a1	0.04760802
126	0xbc63c578	-0.013902061
127	0xbc33fed8	-0.010986052
128	0xbca81b94	-0.020520963
129	0xbd55de1f	-0.052213784
130	0x3d161b95	0.036647398
131	0x3d6dd4a7	0.05806413
132	0xbcf34805	-0.029697428
133	0xbc3e1670	-0.011602029
134	0x3d2eac93	0.04264505
135	0xbc1b26c8	-0.009469695
136	0xbb511b30	-0.0031907074
137	0x3cf01dda	0.02931111
138	0xbcd6ba8e	-0.026212003
139	0x3d319271	0.043352548
140	0xbbefbe48	-0.0073163845
141	0xbc87f9fc	-0.016598694
142	0xbd0a2578	-0.03372714
143	0xbd27b89c	-0.04094754
144	0x3ce51ee3	0.02796883
145	0x3cdbfc0c	0.026853584
146	0xbceb00ad	-0.028686846
147	0x3d0b1933	0.03395958
148	0xbc2c0351	-0.010498838
149	0x3c2fb554	0.010724384
150	0x3d182b11	0.037150446
151	0xbd683d4f	-0.056699093
152	0x3d3fecf6	0.046856843
153	0xbd0fc970	-0.035104215
154	0x3d0e93ea	0.03480903
155	0xbcfcca78	-0.030858263
156	0xbc6b4501	-0.0143597135
157	0x3d1addeb	0.037809294
158	0x3d59dda2	0.05318988
159	0xb9e5dffe	-0.0004384517
160	0x3d2ba62e	0.04190653
161	0xbd4bc06e	-0.049744062
162	0xbd25b72c	-0.04045789
163	0xbd4ed139	-0.0504925
164	0x3d19f5a9	0.037587795
165	0x3c22cb66	0.009936189
166	0x3a49a937	0.00076927565
167	0x3ca93382	0.020654444
168	0xbd495a43	-0.049158346
169	0x3d4bae17	0.049726572
170	0xbd5a02bd	-0.053225268
171	0x3d5b6cc7	0.053570535
172	0x3cdfee6a	0.027335364
173	0xbd4693b6	-0.048480712
174	0x3cf9fc69	0.030515866
175	0xbb15831f	-0.002281375
176	0x3d714fa1	0.05891383
177	0x3ce3a2a0	0.027787507
178	0xbd5ea083	-0.054352295
179	0xbbb0cc18	-0.0053954236
180	0x3c8182d6	0.015809458
181	0x3bc557d8	0.0060224347
182	0x3cc595e4	0.024119325
183	0x3b6f0775	0.003647295
184	0x3c7424bc	0.014901336
185	0xbd52b58e	-0.051442675
186	0x3c4d5226	0.012531793
187	0xbcd4bd01	-0.02596903
188	0xbd0b2f91	-0.03398091
189	0x3d4a8270	0.0494408
190	0xbc9d395c	-0.01919239
191	0x3cf15fa1	0.029464545
192	0xbccf1d1a	-0.025282431
193	0xbc8eb81b	-0.017421773
194	0x3d360bf4	0.044444993
195	0xbcfa60be	-0.030563708
196	0xbbb32d2a	-0.0054680305
197	0x3bb130ce	0.0054074293
198	0xbcfd12a2	-0.030892674
199	0xbccbb92e	-0.024868574
200	0x3d38bfa1	0.045104627
201	0xbd69fd8a	-0.05712656
202	0x3d0fe8c1	0.03513408
203	0x3d05ac57	0.03263506
204	0xbc065c7d	-0.008200762
205	0xbd0831e4	-0.033250704
206	0x3d20d3d7	0.039264526
207	0x3bfaa744	0.007649334
208	0xbb707fba	-0.0036697225
209	0xbc13db84	-0.009024505
210	0xbd51ace2	-0.051190265
211	0x3c525a09	0.012838849
212	0xbc3c8c60	-0.011508077
213	0xbca813d9	-0.020517277
214	0x3ce143e6	0.027498197
215	0xbd47cd91	-0.048780028
216	0x3c91daf2	0.017804597
217	0xbc229ddc	-0.009925332
218	0xbd23843a	-0.039921023
219	0xbc998069	-0.018737989
220	0xbd548ed5	-0.051894028
221	0xbba6a154	-0.00508515
222	0xbd468c3a	-0.048473574
223	0x3b688452	0.003547926
224	0x3d53a576	0.051671468
225	0xbc5341ba	-0.012894088
226	0xbd07c4aa	-0.033146538
227	0xbd712343	-0.05887152
228	0x3c0de2b9	0.008660012
229	0xbcb70f31	-0.022346111
230	0x3d29a881	0.041420463
231	0x3d57bc24	0.05266966
232	0x3d3b2174	0.0456862
233	0xbd676208	-0.056489974
234	0x3ced8666	0.02899475
235	0x3ca2a33a	0.019853223
236	0x3d3b4bb8	0.045726508
237	0xbce3f29f	-0.027825652
238	0x3c910009	0.017700212
239	0x3cc98599	0.024599837
240	0xbc110c90	-0.008853093
241	0xbc5be544	-0.01342136
242	0xbc9e7d28	-0.019346789
243	0xbc61b444	-0.013775889
244	0x3d67e8c9	0.056618486
245	0xbbfc2250	-0.00769452
246	0xbcd26b70	-0.025685996
247	0x3d49dec9	0.04928473
248	0x3c8d1d12	0.017225776
249	0xbd59c4f6	-0.053166352
250	0x3d404cf1	0.046948377
251	0x3c0dd28c	0.008656155
252	0x3d2a8b19	0.04163656
253	0xbd099a48	-0.0335944
254	0xbd5fc689	-0.054632697
255	0x3c617fdc	0.013763394

bias f4 [64]
0	0xbd4baaf1	-0.04972357
1	0xbc77a050	-0.015113905
2	0xbbf9cbaa	-0.0076231556
3	0xbce2be31	-0.027678581
4	0x3db31a8b	0.08745297
5	0x3cda729e	0.026665982
6	0x3da35964	0.07976034
7	0x3cf8c06e	0.030365195
8	0x3d5a9be9	0.053371344
9	0xbcbcd453	-0.023050463
10	0x3d1a7cb5	0.037716586
11	0xbb9bf560	-0.0047594756
12	0xbd677e77	-0.05651709
13	0x3cccd96c	0.025006019
14	0x3d71241a	0.05887232
15	0x3d2c1dc4	0.042020574
16	0xbd602e33	-0.05473156
17	0x3b29a419	0.0025885163
18	0x3c59bece	0.01329012
19	0x3da5eefd	0.08102224
20	0xbc6b50f6	-0.014362564
21	0xbd52d7ca	-0.051475324
22	0xbc01e118	-0.007927202
23	0x3cd5dfae	0.026107635
24	0x3e0a993a	0.13535014
25	0x3d622a2f	0.05521601
26	0x3d9c91cf	0.07644998
27	0x3b48f089	0.0030660948
28	0x3cbd88d1	0.023136528
29	0x3d10426c	0.035219595
30	0xbc634df7	-0.013873569
31	0x3a9e0c74	0.0012058155
32	0x3a8a7b76	0.0010565359
33	0x3d01057b	0.031499367
34	0xbb83e824	-0.004025476
35	0xbd4d9ca1	-0.0501982
36	0x3d7cb6e1	0.061697844
37	0x3dee00a4	0.11621216
38	0xbd0c94d2	-0.034321614
39	0xbd5d446a	-0.054020323
40	0xbd5394c7	-0.051655557
41	0xbd15cedf	-0.03657424
42	0x3cb49fba	0.02204882
43	0xbd2c9134	-0.042130664
44	0x3e110472	0.14161852
45	0xbd4abf12	-0.049498625
46	0x3dfa69c3	0.12227204
47	0xbcc482a8	-0.023988083
48	0x3d47ae02	0.04874993
49	0x3d823ced	0.06359277
50	0x3da8e628	0.08247024
51	0xbc653374	-0.013989318
52	0x3d307c0e	0.043087058
53	0x3caa8b37	0.020818336
54	0x3d39929c	0.045305833
55	0xbd0584a5	-0.032597203
56	0x3c1bb297	0.009503028
57	0x3df8725f	0.121311896
58	0xbc101265	-0.008793448
59	0xbd600c3d	-0.05469917
60	0xbd4fc2b9	-0.05072281
61	0xbc6a90ef	-0.014316781
62	0x3c9a6ca3	0.01885063
63	0x3d50d700	0.05098629

weight f4 [64, 64]
0	0x3df20b5a	0.118185714
1	0xbd6d9c03	-0.058010112
2	0x3d9c7ec0	0.07641363
3	0xbdcf733b	-0.101294
4	0x3d8b29df	0.06795096
5	0x3dac421f	0.08411049
6	0x3d8d60eb	0.06903251
7	0xbdbdc979	-0.092669435
8	0x3d9a6d3b	0.07540365
9	0xbdd997de	-0.106246695
10	0xbccb8db3	-0.02484784
11	0x3c83a51c	0.016069941
12	0x3da788c2	0.08180381
13	0x3cd467f9	0.025928484
14	0x3d6d6ece	0.057967
15	0xbd927b74	-0.07152453
16	0xbd6d6be1	-0.05796421
17	0x3c1dd9cf	0.009634449
18	0x3c63676f	0.013879641
19	0xbdc41b2d	-0.09575496
20	0xbd98670f	-0.07441532
21	0xbd9a3b9c	-0.07530901
22	0xbdf38fa9	-0.118926354
23	0xbabcd9bf	-0.0014408155
24	0xbc2d213c	-0.010567006
25	0x3a80ab85	0.0009816742
26	0xbc8c20fb	-0.01710557
27	0xbd74cf0c	-0.059767768
28	0xbb628115	-0.0034561802
29	0x3d9a1ea3	0.07525375
30	0x3dee9727	0.11649924
31	0x3d76011b	0.060059648
32	0xbcf26a8e	-0.029591825
33	0x3de53525	0.11191777
34	0xbda32afa	-0.079671815
35	0xbdc81f9b	-0.09771653
36	0x3d8b940a	0.068153456
37	0x3e0cbb64	0.13743359
38	0xbd8aa9a6	-0.06770639
39	0xbdc37cc3	-0.09545281
40	0x3db0cd09	0.08632857
41	0xbdf987fe	-0.121841416
42	0x3c8c3785	0.017116318
43	0x3c792e66	0.015208816
44	0xbbbcb9d4	-0.005759457
45	0x3de8d874	0.1136941
46	0x3d4d3e25	0.050108094
47	0x3dd44144	0.10364011
48	0xbd58c697	-0.052923765
49	0xbc913ef7	-0.01773022
50	0x3d7d66be	0.06186556
51	0xbd24f3e4	-0.040271655
52	0xbc5bfde8	-0.013427235
53	0x3d26b25d	0.040697444
54	0xbd777add	-0.060419906
55	0x394927ad	0.00019183634
56	0x3cb727a5	0.022357771
57	0x3d5ab85a	0.053398468
58	0x3df810b7	0.12112563
59	0x3c1450d9	0.009052479
60	0xbddde52a	-0.10834725
61	0xbd1f0c60	-0.03883016
62	0x3de7011d	0.11279509
63	0x3db7f273	0.089817904
64	0x3cd5db5f	0.02610558
65	0xbc95d60a	-0.018290538
66	0xbdacc158	-0.08435315
67	0x3dd0c7c5	0.10194353
68	0xbd34dc4a	-0.044155397
69	0xbda1b72d	-0.07896266
70	0x3de63d25	0.11242131
71	0xbd42dc43	-0.04757334
72	0xbdec4815	-0.11537186
73	0xbbf84d1f	-0.007577553
74	0x3d563e88	0.05230573
75	0x3da31382	0.07962705
76	0xbd42e400	-0.04758072
77	0x3df0db63	0.11760595
78	0x3da316cb	0.07963332
79	0x3dfdfe0d	0.12401972
80	0xbd2625eb	-0.040563505
81	0x3d42fa7b	0.047602158
82	0xbc2e5c33	-0.010642099
83	0x3da0be6a	0.078488186
84	0xbd26f425	-0.040760178
85	0xbd2160d1	-0.039398972
86	0xbd2ef8a8	-0.042717606
87	0x3d7ed3b6	0.062213622
88	0x3d048f84	0.03236343
89	0x3df328a2	0.118729845
90	0xbd6a8590	-0.05725628
91	0x3df327cc	0.11872825
92	0x3d15e855	0.036598522
93	0x3c3fc6e7	0.011705137
94	0xbdcd6673	-0.10029306
95	0xbbeef772	-0.0072926814
96	0xbd9764be	-0.07392262
97	0x3cb9f228	0.022698477
98	0xbd25a52e	-0.04044073
99	0xbd2a5d06	-0.04159262
100	0x3dbf1365	0.09329871
101	0x3cbab129	0.022789555
102	0xbbb00963	-0.0053722127
103	0xbbac9ca0	-0.0052676946
104	0xbd934bc3	-0.07192185
105	0x3b358b7a	0.0027701543
106	0xbd7abb2d	-0.06121366
107	0xbde30a91	-0.11086
108	0xbdaa8859	-0.083267875
109	0x3dd6c177	0.10486119
110	0x3bc6dcc2	0.006068797
111	0x3a0f9640	0.0005477406
112	0x3da7bb37	0.08190005
113	0xbddb57bf	-0.107100956
114	0xbd03f0f0	-0.032212198
115	0xbde34cfa	-0.110986665
116	0x3dc207d4	0.09474149
117	0xbd46ac30	-0.048504055
118	0x39f6071f	0.00046926082
119	0x3c90b93c	0.017666452
120	0xbbbdd29b	-0.0057929284
121	0xba8d7751	-0.0010793005
122	0xbd27a358	-0.04092726
123	0x3de81ad0	0.11333239
124	0x3de37ffc	0.111083955
125	0xbdad1cfa	-0.084527925
126	0x3c449e3c	0.012000617
127	0x3cbce7e9	0.023059802
128	0xbdea6851	-0.11445678
129	0xbb4fb233	-0.0031691908
130	0x3d31c1f6	0.043397866
131	0xbd5bfcfb	-0.053708058
132	0xbdcbc930	-0.09950483
133	0xbc8f45d8	-0.017489359
134	0x3df94955	0.1217219
135	0x3d018175	0.0316176
136	0x3dc1861f	0.0944941
137	0xbdb66c0d	-0.08907328
138	0xbc8fb87c	-0.017544024
139	0x3df74343	0.12073376
140	0x3df7144a	0.12064417
141	0xbde8514f	-0.113436334
142	0xbb936c34	-0.004498983
143	0xbd9d0c6b	-0.07668384
144	0xbd450857	-0.048103657
145	0xbda89ec7	-0.082334094
146	0xbcd8f1fd	-0.026482577
147	0x3d2db68f	0.04241043
148	0x3da2e4b8	0.07953781
149	0xbd817dc7	-0.06322818
150	0xbdfcaa86	-0.12337212
151	0xbde713aa	-0.112830475
152	0xbdad86cf	-0.08472978
153	0xbdf85194	-0.12124935
154	0x3d054027	0.032531884
155	0xbd4ac5a4	-0.04950489
156	0x3d39eec3	0.045393717
157	0x3be5eab8	0.007016506
158	0x3dc59dee	0.09649263
159	0x3d95d2a5	0.07315568
160	0xbcc82027	-0.024429394
161	0xba783051	-0.0009467649
162	0xbd8a4622	-0.06751658
163	0x3c062620	0.008187801
164	0x3bdc4f4d	0.0067233206
165	0xbd3c3dd0	-0.045957386
166	0xbd833eb9	-0.06408448
167	0x3ab26d00	0.0013612807
168	0xbbb5483c	-0.0055322926
169	0xbdfae2bd	-0.12250278
170	0x3cb8b66a	0.02254792
171	0x3dbdce41	0.092678554
172	0xbdd691fb	-0.10477062
173	0x3ab25e93	0.0013608508
174	0x3df5abf7	0.1199569
175	0x3c235bd9	0.009970629
176	0x3de23309	0.110448904
177	0xbd75c902	-0.06000615
178	0xbdf1e092	-0.118104115
179	0xbd600eda	-0.054701664
180	0x3d7f7d43	0.06237532
181	0xbd8478f7	-0.06468385
182	0xbd3218f0	-0.043480814
183	0xbd24624d	-0.04013281
184	0xbdd8603b	-0.105652295
185	0xbda27d42	-0.07934047
186	0xbdb20694	-0.08692661
187	0x3d94fe15	0.07275025
188	0x3cfd5a7d	0.030926937
189	0x3d48ba5d	0.049005855
190	0x3d596ff5	0.053085286
191	0x3cda1dde	0.02662557
192	0xbd80f706	-0.06297116
193	0xbd96d361	-0.07364536
194	0x3d41a4a1	0.047276143
195	0xbd42140d	-0.047382403
196	0x3c120d46	0.008914297
197	0x3d81a1a7	0.06329661
198	0xbc6355bd	-0.013875422
199	0x3da5442f	0.080696456
200	0x3df15b09	0.11784942
201	0x3cb489c4	0.022038348
202	0x3dff0620	0.1245234
203	0xbd97f7ce	-0.07420312
204	0xbcaee9a8	-0.02135165
205	0xbd35c88e	-0.044380717
206	0x399e4103	0.00030184546
207	0xbd9aa620	-0.07551217
208	0xbdf6955d	-0.120402075
209	0xbac48034	-0.0014991821
210	0xbd978f59	-0.07400388
211	0xbd416212	-0.047212668
212	0x3c9e7b17	0.019345803
213	0x3d92cc12	0.071678296
214	0xbdcf141a	-0.10111256
215	0x3dacf679	0.084454484
216	0xbd247e0d	-0.040159274
217	0xbca01770	-0.019542426
218	0x3ca8fa05	0.020627031
219	0x3df4e111	0.119569905
220	0xbd881261	-0.066441305
221	0xbdb0bdff	-0.08629989
222	0x3d71b283	0.059008133
223	0x3d183af5	0.0371656
224	0xbd821ab0	-0.063527465
225	0x3d7ea1a0	0.062165856
226	0xbc892639	-0.016741859
227	0x3d8d6b06	0.06905179
228	0xbc205cc3	-0.009787741
229	0x3d9e3092	0.07724108
230	0x3c770017	0.015075705
231	0x3dc1418e	0.09436332
232	0x3d4c5c77	0.04989287
233	0x3d65c664	0.056097403
234	0x3dd33f01	0.103147514
235	0xbc0b1f93	-0.008491415
236	0xbdd647e7	-0.10462933
237	0xbd63cc13	-0.055614542
238	0x3d437e94	0.047728136
239	0x3db8f493	0.09031024
240	0xbdb225fe	-0.08698653
241	0xbc9046aa	-0.01761182
242	0x3de401f1	0.11133183
243	0xbda03c15	-0.0782396
244	0x3dd956ef	0.106122844
245	0x3d56ebba	0.0524709
246	0xbcd6f29c	-0.026238732
247	0xbdfa7683	-0.122296356
248	0xbc8c0be3	-0.017095512
249	0xbdbc3195	-0.091891445
250	0xbd6862c7	-0.056734826
251	0xbd93b31a	-0.07211895
252	0xbd79df9a	-0.06100426
253	0x3dfbe958	0.12300366
254	0x3d71ac23	0.059002053
255	0x3dc0d9d8	0.094165504

bias f4 [64]
0	0x3e09e59a	0.13466492
1	0x3e533cc9	0.20628656
2	0xbc0d6621	-0.008630306
3	0xbd80d5f5	-0.06290809
4	0xbd793acd	-0.060847092
5	0xbdff87f6	-0.12477104
6	0x3e92e903	0.286934
7	0xbd266d15	-0.040631372
8	0x3e8aef26	0.2713558
9	0x3d8c4a0a	0.06850059
10	0xbc3ed2f9	-0.0116469795
11	0x3cb48996	0.022038262
12	0xbdff1100	-0.12454414
13	0x3d3d8652	0.046270676
14	0xbd7dff4e	-0.062011056
15	0xbdcc2f9d	-0.09970019
16	0x3dda7edf	0.1066873
17	0xbd4f94c3	-0.05067898
18	0xbbcb6d74	-0.006208116
19	0xbc0aa1df	-0.008461445
20	0x3dcf7d7a	0.10131355
21	0xbdb88cad	-0.09011207
22	0x3e41bc42	0.18919471
23	0x3e0520cf	0.13000797
24	0xbdeb5b74	-0.11492053
25	0x3e01f840	0.12692356
26	0x3e905360	0.2818861
27	0x3cda0fa8	0.026618794
28	0xbd894ff4	-0.06704703
29	0x3c12e7ac	0.008966368
30	0xbd1f70ef	-0.03892606
31	0xbda55cda	-0.08074351
32	0xbdec8f64	-0.11550787
33	0x3e0806b7	0.13283812
34	0xbdd744ca	-0.10511167
35	0xbd2bdc90	-0.04195839
36	0xbdb3ef9c	-0.08785936
37	0x3e3b3efd	0.18285747
38	0xbd2d5814	-0.042320326
39	0xbd473dcd	-0.048642922
40	0x3cd7a24b	0.026322505
41	0xbddd81a8	-0.108157456
42	0x3de1dac7	0.110280566
43	0xbd832610	-0.06403744
44	0x3a9ca0d2	0.0011949784
45	0x3e7315b2	0.23738745
46	0xbc1005bb	-0.008790429
47	0xbda330d9	-0.07968301
48	0x3d1a32de	0.037646167
49	0xbc4fe40b	-0.012688647
50	0xbcbbfb42	-0.022946957
51	0x3e80eaf3	0.25179252
52	0x3c9b0578	0.018923506
53	0xbdedc97a	-0.11610694
54	0xbdcce332	-0.100042716
55	0xbd2f0c46	-0.042736314
56	0x3cddc086	0.027069341
57	0xbd628904	-0.05530645
58	0xbd7ceab4	-0.061747268
59	0x3e2034a7	0.15645085
60	0x3d72a159	0.059235904
61	0x3e566546	0.2093707
62	0x3e0d685c	0.13809341
63	0x3c978479	0.018495785

weight f4 [64, 64]
0	0xbb51ee8b	-0.0032033052
1	0xbc4e58a5	-0.012594377
2	0xbdbc2875	-0.09187404
3	0x3dd3ed41	0.10347987
4	0xbcc4cc37	-0.024023158
5	0xbdab14f4	-0.08353606
6	0xbd8eb3af	-0.06967866
7	0xbc81f6c5	-0.01586474
8	0x3d5c1c12	0.053737707
9	0xbbd80661	-0.0065925573
10	0x3d93de7a	0.072201684
11	0x3c96cc28	0.018407896
12	0x3d4d8734	0.050177768
13	0x3dd3f3d1	0.10349239
14	0x3dbf94e3	0.0935457
15	0x3dfbd891	0.12297166
16	0x3c8f76b7	0.017512662
17	0xbd9effcd	-0.07763634
18	0xbddb50d0	-0.10708773
19	0x3d042596	0.032262407
20	0x3d9d22d2	0.07672657
21	0x3dc7a0ef	0.097474925
22	0x3d3e3120	0.046433568
23	0xbd3f8ba9	-0.04676405
24	0x3ddccfb2	0.10781802
25	0x3d8d5533	0.06901016
26	0x3db7d3d1	0.08975948
27	0x3d77cb6c	0.060496733
28	0x3d6fb195	0.058518965
29	0xbdc4139e	-0.09574054
30	0xbd8163c9	-0.06317861
31	0xbd4cfb04	-0.050044075
32	0x3d0f84f4	0.035038903
33	0xbdfefa14	-0.12450042
34	0x3dd8697e	0.10566996
35	0xbddc5732	-0.10758819
36	0x3d291cc0	0.041287184
37	0xbd9ace3b	-0.075588666
38	0xbd67fcd5	-0.056637604
39	0xbd48aa9b	-0.048990827
40	0xbd5246e1	-0.051337127
41	0x3d6945eb	0.056951445
42	0x3d98ac36	0.07454722
43	0x3de51da0	0.11187291
44	0x3db11bc7	0.08647876
45	0xbcb2d483	-0.02182985
46	0xbcee135f	-0.029061971
47	0x3d7e16ed	0.062033582
48	0x3de0c129	0.109743424
49	0xbbca9a26	-0.0061829267
50	0xbd3489d2	-0.04407675
51	0x3ca95604	0.020670898
52	0x3df06424	0.1173785
53	0x3d25bce0	0.04046333
54	0xbdce3af0	-0.10069835
55	0x3d4055df	0.046956893
56	0x3dca371c	0.098737925
57	0x3c3feb60	0.011713833
58	0xbce7a460	-0.028276622
59	0x3df13554	0.1177775
60	0x3cc97301	0.024590971
61	0xbd81c859	-0.063370414
62	0xbd7eadde	-0.06217753
63	0x3c0f2837	0.008737615
64	0xbd331546	-0.04372146
65	0x3dd9b63e	0.10630463
66	0x3df818fa	0.12114139
67	0x3c7a2600	0.015267849
68	0xbdd7d032	-0.10537757
69	0xbdecc51a	-0.11561032
70	0x3ca1f6d8	0.019771025
71	0x3d6e5c74	0.05819364
72	0x3b399f05	0.0028323543
73	0xbdfb929a	-0.122838214
74	0x3df306bc	0.11866519
75	0x3dd029bc	0.1016421
76	0x3d462a44	0.04838015
77	0xbce68708	-0.02814056
78	0x3c07b1f0	0.00828217
79	0xbdb06ab0	-0.08614099
80	0x3dbb71b7	0.09152549
81	0xbc59ad10	-0.01328589
82	0x3def8e18	0.11697024
83	0x3d247540	0.04015088
84	0x3daa2732	0.08308257
85	0xbd9d1f0c	-0.07671937
86	0xbdddf03b	-0.10836836
87	0xbd243cd1	-0.04009706
88	0x3d6df684	0.058096424
89	0xbd4b7031	-0.04966754
90	0x3c8fcde7	0.017554237
91	0x3ddd2a80	0.10799122
92	0x3ded1f5c	0.11578247
93	0x3defda62	0.11711575
94	0xbc8e64d8	-0.01738207
95	0xbcd184c0	-0.025575995
96	0x3de75f66	0.11297493
97	0x3d204f05	0.03913786
98	0x3a50f200	0.0007970631
99	0xbd3bb41c	-0.045826063
100	0xbde01e76	-0.1094331
101	0xbd8f8a44	-0.07008794
102	0x3dbc07bc	0.09181163
103	0xbdac4d0c	-0.08413133
104	0xbd82e31c	-0.06390974
105	0x3da9e5a2	0.08295752
106	0x3d17fe60	0.037107825
107	0xbdf96c1e	-0.12178825
108	0x3c0a10f0	0.00842689
109	0xbbf0b34f	-0.007345594
110	0xbdeee7e4	-0.116653234
111	0x3da0ccd0	0.07851565
112	0xbca6d920	-0.020367205
113	0x3d449994	0.047998026
114	0x3dfadf68	0.122496426
115	0x3d60dfbd	0.054900873
116	0x3d8a62ce	0.06757127
117	0x3dc27650	0.094952226
118	0xbd644e50	-0.055738747
119	0x3d19b0e8	0.037522227
120	0x3d88220a	0.066471174
121	0xbd19d2c0	-0.037554502
122	0xbdd251fc	-0.102695435
123	0xbdc66f9c	-0.096892565
124	0x3de22a5e	0.11043237
125	0x3ca8df82	0.02061439
126	0x3dadfc36	0.08495371
127	0x3dad4106	0.08459668
128	0xbd1b4258	-0.037905067
129	0xbdfbf326	-0.12302236
130	0x3dabc412	0.08387007
131	0xbd9923f8	-0.074775636
132	0x3cbe4de8	0.023230508
133	0x3d3426e0	0.043982387
134	0xba830a00	-0.0009997487
135	0xbd947e72	-0.0725068
136	0x3da83bee	0.08214556
137	0xbda24f8a	-0.07925327
138	0x3dd6c79c	0.10487291
139	0x3df566c6	0.11982493
140	0xbd6b0a10	-0.057382643
141	0x3d6e65e4	0.05820264
142	0xbdf48bf2	-0.11940755
143	0x3d8d91a0	0.069125414
144	0xbdafd9e0	-0.08586478
145	0xbb07dc80	-0.0020730793
146	0x3db7b360	0.0896976
147	0x3ce451e8	0.027871087
148	0x3db84fca	0.089995936
149	0xbbb2b500	-0.005453706
150	0x3d929ada	0.07158442
151	0xbdd0a684	-0.1018801
152	0x3dc4ca90	0.09608948
153	0xbd8f2ec6	-0.06991343
154	0xbd470a64	-0.048593894
155	0xbd9579a2	-0.0729859
156	0xbdd4800a	-0.10375984
157	0xbc7d46e0	-0.015458792
158	0xbd92108a	-0.07132061
159	0xbd3316d4	-0.043722942
160	0x3dab05dc	0.08350727
161	0xbdb09e98	-0.08623999
162	0x3d80e740	0.062941074
163	0xbde39998	-0.1111328
164	0x3dfa705c	0.12228462
165	0x3df5850c	0.11988267
166	0xbdd15a62	-0.10222317
167	0x3cadfb00	0.02123785
168	0xbd179afc	-0.03701304
169	0xbcfd56b0	-0.030925125
170	0x3c622af0	0.013804182
171	0x3ce8b298	0.028405473
172	0xbc9bcec0	-0.019019485
173	0xbdae91ba	-0.08523889
174	0xbcc45368	-0.023965552
175	0xbd1ad584	-0.03780128
176	0x3dc7bb4c	0.09752521
177	0x3c625dc0	0.013816297
178	0xbde1f64e	-0.11033307
179	0x3db598e4	0.08867052
180	0x3d98a794	0.07453838
181	0x3d5fab74	0.05460687
182	0xbcb59550	-0.022165924
183	0xbd869e36	-0.06573145
184	0x3d2ad0cc	0.04170303
185	0x3bf430c0	0.0074521005
186	0x3d182000	0.037139893
187	0xbd8e9896	-0.06962697
188	0x3d88fb20	0.06688523
189	0x3d57f5e0	0.05272472
190	0xbd00d984	-0.03145744
191	0xbdbc01e2	-0.091800466
192	0xbd83144a	-0.06400354
193	0x3d9dc85c	0.07704231
194	0xb91c7718	-0.00014921685
195	0x3d85128a	0.06497677
196	0x3dc18a6b	0.09450229
197	0xbd9495b1	-0.07255114
198	0xbda904b6	-0.08252852
199	0xbdd78744	-0.10523847
200	0x3d92360d	0.071392156
201	0xbdf7f777	-0.12107747
202	0x3de1b919	0.11021633
203	0xbd800bbd	-0.06252239
204	0x3bd200a0	0.006408766
205	0xbde215ef	-0.1103934
206	0xbd81fa31	-0.06346548
207	0x3d86f290	0.06589234
208	0xbd2575f8	-0.040395707
209	0x3d703e7c	0.05865334
210	0xbdc1242a	-0.09430726
211	0x3d584e42	0.052809007
212	0xbdbe638f	-0.09296333
213	0x3d8552f8	0.06509966
214	0xbd2a2d38	-0.04154703
215	0x3d1db420	0.03850186
216	0x3dca3028	0.09872466
217	0xbc068d17	-0.008212349
218	0x3da5483a	0.08070417
219	0xbd34d0e7	-0.044144537
220	0x3d98c028	0.07458526
221	0x3c39a933	0.011331844
222	0x3d858aa5	0.06520585
223	0x3d302af4	0.043009713
224	0xbd8e6456	-0.06952731
225	0x3d68bcec	0.056820795
226	0xbd925f08	-0.07147032
227	0x3d8f13c9	0.069861956
228	0x3da383de	0.07984136
229	0x3d8d10be	0.06887959
230	0x3d5e6666	0.054296874
231	0x3dadaec8	0.084806025
232	0x3bb95058	0.0056553297
233	0x3c863653	0.016383326
234	0x3cfe228d	0.031022334
235	0xbd94ca80	-0.07265186
236	0x3dcb9cc9	0.09942014
237	0x3d57db3e	0.05269932
238	0x3d7139c7	0.05889299
239	0x3bc949db	0.0061428375
240	0xbc8fc330	-0.017549127
241	0xbdb2f4b2	-0.08738078
242	0xbc196643	-0.00936276
243	0x3dd5423d	0.104130246
244	0x3d8387c0	0.06422377
245	0x3dfa2dde	0.1221578
246	0x3c011b50	0.007880047
247	0x3dd681e2	0.10473992
248	0x3da68a97	0.08131903
249	0xbdd0a9c2	-0.10188629
250	0xbd93d038	-0.07217449
251	0xbc3df69d	-0.011594442
252	0xbdd71e5a	-0.10503836
253	0xbd892b9f	-0.06697773
254	0xbdb948d8	-0.09047097
255	0xbd29dc15	-0.041469652

bias f4 [64]
0	0x3cc3acb1	0.023886057
1	0xbd97cc79	-0.07412047
2	0xbd84a6a0	-0.06477094
3	0xbd02607e	-0.031830303
4	0xbd903c30	-0.0704273
5	0x3c118bc4	0.00888342
6	0xbdad5664	-0.08463743
7	0x3eabcae1	0.33553222
8	0xbd982351	-0.07428611
9	0x3bad17f4	0.0052823965
10	0xbd72bb24	-0.059260502
11	0x3d07aac6	0.033121847
12	0x3c3be2ec	0.011467677
13	0x3b6385fd	0.0034717314
14	0xbda5e4a2	-0.08100249
15	0x3ed22103	0.4104081
16	0x3e87ee38	0.26548934
17	0xbd2e2478	-0.042515248
18	0xbdb79281	-0.0896349
19	0xbdb427e4	-0.08796671
20	0xbd2d4915	-0.042306025
21	0x3e8be8bf	0.2732601
22	0xbd356621	-0.04428685
23	0x3dbed981	0.09318829
24	0x3c8f995d	0.017529184
25	0xbd411370	-0.047137678
26	0xbd6dedd8	-0.058088154
27	0xbd51d900	-0.051232338
28	0x3e2f2b41	0.17106344
29	0xbda03fb4	-0.078246504
30	0xbdbd145f	-0.09232401
31	0x3c8fa95a	0.017536808
32	0x3d104e51	0.03523094
33	0x3d2eb16b	0.042649668
34	0xbddca8ec	-0.10774407
35	0xbc8a8b45	-0.016912112
36	0xbe04b30b	-0.12958924
37	0xbdfa974a	-0.12235887
38	0x3e17f785	0.14840515
39	0xbdb264ba	-0.08710618
40	0x3b0ac396	0.0021173707
41	0xbdc81f58	-0.09771603
42	0xbdf7c8b8	-0.12098831
43	0x3e391d80	0.1807766
44	0x3cae1c77	0.021253807
45	0x3eab69c5	0.33479133
46	0x3daeac94	0.085290104
47	0x3cb70f38	0.022346124
48	0xbd8414c1	-0.06449271
49	0xbbfbc587	-0.007683459
50	0xbdbeb886	-0.09312539
51	0x3e9712fd	0.29506674
52	0xbd5e2568	-0.054234892
53	0xbd23391a	-0.03984938
54	0x3ea452bb	0.32094368
55	0xbd89ee92	-0.06734957
56	0x3c6d7a55	0.014494498
57	0xbd589b00	-0.052882195
58	0x3e842eb1	0.25816873
59	0x3e847318	0.2586906
60	0xbdcbdaf0	-0.099538684
61	0x3e00f94e	0.12595102
62	0xbdb45b46	-0.088064715
63	0x3e28ece1	0.16496612

weight f4 [1, 64]
0	0x3c83ba07	0.016079916
1	0xbb66ed7c	-0.0035236767
2	0xbde5764e	-0.112042055
3	0xbcda479c	-0.026645474
4	0xbb407ac0	-0.002937004
5	0xbd182be2	-0.037151225
6	0x3dd6c086	0.1048594
7	0x3ecd4af1	0.40096238
8	0xbdcb69c5	-0.09932283
9	0xbdc3cbcb	-0.09560355
10	0x3df11e82	0.11773397
11	0xbd5a8539	-0.053349707
12	0xbcce93f1	-0.025217028
13	0x3d9059ff	0.070484154
14	0xbda22ddc	-0.07918903
15	0x3efa5032	0.4888931
16	0x3e9f13e4	0.31069863
17	0x3d9f361a	0.07773991
18	0x3c992c49	0.018697875
19	0xbd992d5a	-0.07479353
20	0xbd2f2907	-0.042763736
21	0x3e952f63	0.29137716
22	0xbdb0f79a	-0.08640976
23	0x3db2fa59	0.08739156
24	0xbd88116c	-0.06643948
25	0xbdd80fc2	-0.105498806
26	0x3ded5db8	0.11590141
27	0x3d2878e8	0.04113093
28	0x3e8a5147	0.27015135
29	0xbdc2e530	-0.0951637
30	0xbd55edaf	-0.052228626
31	0xbdc5221c	-0.096256465
32	0x3d997364	0.07492712
33	0xbcccd8c4	-0.025005706
34	0x3c9d27b8	0.019183978
35	0xbcfc1020	-0.030769408
36	0xbd65f391	-0.056140486
37	0x3a158200	0.00057032704
38	0x3e156485	0.14589126
39	0x3dd496f8	0.103803575
40	0xbde2ff41	-0.11083842
41	0xbda1a442	-0.07892658
42	0x3d85e1cc	0.06537208
43	0x3e26f8cd	0.16305847
44	0x3b893953	0.004187742
45	0x3eb7671c	0.35820854
46	0x3d8bf7d7	0.06834381
47	0xbcbac7f7	-0.022800429
48	0x3cc1bf32	0.02365074
49	0xbdc239ce	-0.094836816
50	0x3de9f078	0.11422819
51	0x3eaa3bbc	0.332487
52	0xbbb53345	-0.0055297934
53	0xbd796fc4	-0.060897604
54	0x3ebc32c1	0.36757472
55	0xbb09c840	-0.00210239
56	0xbdc3dfe9	-0.09564192
57	0xbd9d2c24	-0.07674435
58	0x3ea17251	0.3153253
59	0x3eaf1398	0.34194636
60	0x3cda29d0	0.026631266
61	0x3e7ddecf	0.24792026
62	0x3d75a65a	0.0599731
63	0x3e19daa2	0.15024808

weight f4 [64, 288]
0	0xbcb5332a	-0.022119123
1	0xbd501c96	-0.05080851
2	0x3d2b7475	0.04185911
3	0xbce956bf	-0.028483747
4	0xbd330452	-0.043705292
5	0x3d09338d	0.03349643
6	0xbc9f00f8	-0.019409642
7	0x3ca841a6	0.020539116
8	0xbd3fadc2	-0.046796568
9	0xbcf3da24	-0.029767103
10	0x3c59e21c	0.013298538
11	0xbbc5b429	-0.0060334397
12	0x3c921a9e	0.017834958
13	0x3c27af74	0.010234702
14	0x3d48b377	0.048999276
15	0x3d319178	0.04335162
16	0xbd3271d1	-0.043565575
17	0xbba15058	-0.004922908
18	0x3b9cfaf8	0.00479066
19	0xbbb8a428	-0.0056348033
20	0x3d1a449e	0.037663095
21	0x3ce40136	0.027832609
22	0x3c9612c2	0.018319491
23	0x3ca1b1d2	0.019738112
24	0xbce3c854	-0.027805485
25	0x3cb59322	0.022164885
26	0x3ca921ca	0.020645995
27	0xb9815d00	-0.00024674088
28	0x3bf83968	0.0075752027
29	0x3d13d42e	0.036091022
30	0x3d54280d	0.051796008
31	0x3d551759	0.05202422
32	0xbd0390b0	-0.032120407
33	0xbd27e890	-0.040993273
34	0xbc77b9d8	-0.015119992
35	0xbd2f0af8	-0.04273507
36	0xbd2bd12a	-0.04194752
37	0xbc1e8098	-0.009674214
38	0x3ccf0e46	0.02527536
39	0xbce5ee79	-0.028067814
40	0x3d3ecdcb	0.04658298
41	0x3d58382f	0.052787956
42	0xbc4a7730	-0.012357518
43	0xbc81e912	-0.015858207
44	0x3d6fc0a3	0.058533322
45	0x3ca57322	0.020196501
46	0xbc87b3ce	-0.01656523
47	0xbd163c12	-0.03667838
48	0x3d1571f9	0.036485646
49	0xbd22ad42	-0.039716013
50	0x3d344e07	0.044019725
51	0xbd06874c	-0.032843873
52	0xbcdc49a4	-0.026890583
53	0x3b9b06c8	0.004731033
54	0x3d4a0037	0.04931661
55	0x3bfe9aa8	0.0077699013
56	0x3cf2cc32	0.029638384
57	0x3d2a24a3	0.041538846
58	0xbd70a37f	-0.058749672
59	0x39dfea00	0.00042708218
60	0x3cb0c732	0.021579359
61	0xbbdf20c8	-0.0068093278
62	0x3cb2d100	0.021828175
63	0xbc0468f4	-0.008081663
64	0x3d26841b	0.04065333
65	0xbd035947	-0.032067563
66	0xbd4435ab	-0.047902744
67	0xbaaf5020	-0.001337532
68	0xbcf3f793	-0.029781139
69	0x3d3e9e19	0.046537492
70	0xbcadf392	-0.021234307
71	0xbcc44846	-0.023960244
72	0xbd4045e5	-0.046941657
73	0xbc85f0fa	-0.016350258
74	0x3bc377b8	0.0059651993
75	0xbd61ba01	-0.055109028
76	0xbd000e50	-0.03126365
77	0xbd183f52	-0.037169762
78	0xbc2bcceb	-0.010485868
79	0xbd164176	-0.036683522
80	0xbc7ec304	-0.015549425
81	0xbd21f600	-0.039541245
82	0x3cbd8668	0.023135379
83	0xbc8d0b2c	-0.017217241
84	0x3d28d861	0.04122198
85	0x3cf08c86	0.029363882
86	0x3bac56e8	0.0052593835
87	0x3d3952b1	0.045244876
88	0x3c8b6b26	0.017018866
89	0xbcd3dc44	-0.025861867
90	0x3c7337e4	0.014844868
91	0xbd013140	-0.03154111
92	0x3d34c079	0.04412887
93	0x3d15b05b	0.03654514
94	0xbc7af7d0	-0.015317872
95	0x3d039bcb	0.032130998
96	0x3bcdf218	0.0062849633
97	0xb9c11b00	-0.00036831945
98	0x3d281609	0.04103664
99	0xbd020800	-0.03174591
100	0x3d1d167e	0.03835153
101	0x3cae124e	0.021248963
102	0x3d43bf69	0.047789965
103	0xbd0ad1f3	-0.03389163
104	0xbcdc7670	-0.026911944
105	0x3d29a7b1	0.04141969
106	0xbceb87d6	-0.028751295
107	0x3b082f70	0.0020780228
108	0xbcad5772	-0.021159861
109	0xbcb1de5c	-0.021712475
110	0xbd187bfc	-0.037227616
111	0x3ba84758	0.005135458
112	0x3d08a413	0.0333596
113	0x3d6c4107	0.057679202
114	0xbd0c982c	-0.03432481
115	0x3d61bb2f	0.055110153
116	0xbc7f2d00	-0.015574694
117	0xbd208cd9	-0.039196823
118	0xbd0865c2	-0.03330017
119	0xbb73b7f0	-0.0037188493
120	0xbce24460	-0.027620494
121	0x3d5f9912	0.05458934
122	0xbbab1e08	-0.005222086
123	0x3cf1d4c2	0.029520396
124	0x3d16c8a5	0.036812443
125	0x3d4300a1	0.04760802
126	0xbc63c578	-0.013902061
127	0xbc33fed8	-0.010986052
128	0xbca81b97	-0.020520968
129	0xbd55de1f	-0.052213784
130	0x3d161b95	0.036647398
131	0x3d6dd4a7	0.05806413
132	0xbcf34805	-0.029697428
133	0xbc3e1670	-0.011602029
134	0x3d2eac93	0.04264505
135	0xbc1b26c8	-0.009469695
136	0xbb511b30	-0.0031907074
137	0x3cf01dda	0.02931111
138	0xbcd6ba8e	-0.026212003
139	0x3d319271	0.043352548
140	0xbbefbe48	-0.0073163845
141	0xbc87f9fc	-0.016598694
142	0xbd0a2578	-0.03372714
143	0xbd27b89c	-0.04094754
144	0x3ce50f77	0.027961476
145	0x3cdbf508	0.026850238
146	0xbceb00ad	-0.028686846
147	0x3d0b184e	0.033958726
148	0xbc2c0633	-0.010499525
149	0x3c2fb349	0.010723897
150	0x3d182a56	0.03714975
151	0xbd683d4f	-0.056699093
152	0x3d3fe519	0.046849344
153	0xbd0fc970	-0.035104215
154	0x3d0e8c14	0.034801558
155	0xbcfccd63	-0.030859655
156	0xbc6b4759	-0.014360272
157	0x3d1add6f	0.03780883
158	0x3d59dc80	0.0531888
159	0xb9e5f90e	-0.00043863844
160	0x3d2ba5d7	0.041906204
161	0xbd4bc123	-0.049744736
162	0xbd25b72c	-0.04045789
163	0xbd4ed5d8	-0.050496906
164	0x3d19f236	0.037584506
165	0x3c22b93b	0.009931858
166	0x3a4878a2	0.000764737
167	0x3ca93382	0.020654444
168	0xbd495b1f	-0.049159165
169	0x3d4bace8	0.049725443
170	0xbd5a0361	-0.05322588
171	0x3d5b6c4d	0.05357008
172	0x3cdfee3a	0.027335275
173	0xbd4693b6	-0.048480712
174	0x3cf9f35c	0.03051155
175	0xbb160144	-0.0022888938
176	0x3d714fa1	0.05891383
177	0x3ce392ed	0.02778002
178	0xbd5ea1fc	-0.0543537
179	0xbbb0cc18	-0.0053954236
180	0x3c81805d	0.015808279
181	0x3bc557d8	0.0060224347
182	0x3cc594f4	0.024118878
183	0x3b6efccf	0.0036466604
184	0x3c7424bc	0.014901336
185	0xbd52b58e	-0.051442675
186	0x3c4d3ffb	0.012527461
187	0xbcd4c3ac	-0.02597221
188	0xbd0b377e	-0.03398847
189	0x3d4a7db6	0.049436294
190	0xbc9d395c	-0.01919239
191	0x3cf15cdd	0.029463226
192	0xbccf2d0b	-0.025290033
193	0xbc8eb97e	-0.017422434
194	0x3d360b90	0.04444462
195	0xbcfa60be	-0.030563708
196	0xbbb3519c	-0.005472375
197	0x3bb0f1c8	0.0053999163
198	0xbcfd195e	-0.030895885
199	0xbccbb92e	-0.024868574
200	0x3d38b65d	0.04509579
201	0xbd69ff04	-0.057127967
202	0x3d0fe8c1	0.03513408
203	0x3d05a67c	0.032629475
204	0xbc068250	-0.00820978
205	0xbd083f58	-0.033263534
206	0x3d20c67a	0.039251782
207	0x3bfa2cc8	0.007634733
208	0xbb712c25	-0.0036799994
209	0xbc13f4c9	-0.009030529
210	0xbd51b5e5	-0.05119886
211	0x3c5234de	0.012829987
212	0xbc3c8c68	-0.011508085
213	0xbca822c2	-0.020524386
214	0x3ce13244	0.027489789
215	0xbd47d0a2	-0.048782952
216	0x3c91c94b	0.01779618
217	0xbc22c8fa	-0.009935612
218	0xbd239077	-0.039932694
219	0xbc998341	-0.018739345
220	0xbd5494da	-0.05189977
221	0xbba6f4c4	-0.0050950963
222	0xbd469403	-0.048481
223	0x3b680d5f	0.003540836
224	0x3d539ca6	0.051663063
225	0xbc534784	-0.012895469
226	0xbd07c4ad	-0.03314655
227	0xbd712343	-0.05887152
228	0x3c0dbd87	0.008651144
229	0xbcb721d5	-0.022355
230	0x3d299f3c	0.041411623
231	0x3d57ab70	0.05265373
232	0x3d3b10c0	0.04567027
233	0xbd676e4e	-0.05650168
234	0x3ced74bc	0.028986327
235	0x3ca29193	0.019844806
236	0x3d3b4464	0.04571952
237	0xbce4019a	-0.027832795
238	0x3c90f135	0.017693141
239	0x3cc976c3	0.024592763
240	0xbc110c90	-0.008853093
241	0xbc5be544	-0.01342136
242	0xbc9e7d28	-0.019346789
243	0xbc61b444	-0.013775889
244	0x3d67e8c9	0.056618486
245	0xbbfc2250	-0.00769452
246	0xbcd26b70	-0.025685996
247	0x3d49dec9	0.04928473
248	0x3c8d1d12	0.017225776
249	0xbd59c4f6	-0.053166352
250	0x3d404cf1	0.046948377
251	0x3c0dd28c	0.008656155
252	0x3d2a8848	0.041633874
253	0xbd099d31	-0.033597175
254	0xbd5fc689	-0.054632697
255	0x3c617fdc	0.013763394

bias f4 [64]
0	0xbd4bc6ab	-0.04975001
1	0xbc758f55	-0.014987786
2	0xbc0d78c1	-0.008634747
3	0xbce27656	-0.027644318
4	0x3dad0063	0.084473394
5	0x3cdb658d	0.026781822
6	0x3d9d6b56	0.07686488
7	0x3cf44359	0.02981727
8	0x3d583659	0.052786205
9	0xbcbb9c82	-0.022901777
10	0x3d11c1d4	0.03558524
11	0xbb9c7ecf	-0.004775859
12	0xbd677e77	-0.05651709
13	0x3cc28033	0.02374277
14	0x3d65751d	0.05601989
15	0x3d28e334	0.041232303
16	0xbd5ffc4c	-0.05468397
17	0x39c1ff61	0.000370021
18	0x3c5afbb9	0.013365679
19	0x3d9fb834	0.07798806
20	0xbc6c14ae	-0.014409227
21	0xbd5294b1	-0.051411334
22	0xbbfd8e03	-0.0077378764
23	0x3cd4a168	0.02595587
24	0x3e06f34e	0.13178751
25	0x3d5beeda	0.053694583
26	0x3d9984dc	0.07496044
27	0x3b4dc425	0.0031397429
28	0x3cad2be4	0.021139093
29	0x3d0eb5bc	0.034841284
30	0xbc661060	-0.01404199
31	0x3aa8395c	0.0012834477
32	0x3a9824d9	0.0011607661
33	0x3d014ada	0.031565525
34	0xbb826d0b	-0.003980284
35	0xbd4d9985	-0.050195236
36	0x3d7148e7	0.058907416
37	0x3de5a7e6	0.11213665
38	0xbd0cf604	-0.034414306
39	0xbd5d1adf	-0.053980704
40	0xbd533236	-0.051561557
41	0xbd157daa	-0.036496796
42	0x3cb443e0	0.022005022
43	0xbd302708	-0.043005973
44	0x3e0ceabb	0.13761418
45	0xbd4b33cd	-0.049609948
46	0x3df46032	0.1193241
47	0xbcc45c34	-0.023969747
48	0x3d4759eb	0.048669737
49	0x3d7f8f6f	0.06239265
50	0x3da3844c	0.07984218
51	0xbc65144d	-0.013981891
52	0x3d2f48e0	0.04279411
53	0x3ca90638	0.020632848
54	0x3d3919a3	0.045190465
55	0xbd05e8ce	-0.032692723
56	0x3c0a6aa1	0.008448274
57	0x3df28796	0.11842267
58	0xbc0f99fd	-0.008764741
59	0xbd5ffaaa	-0.05468241
60	0xbd4f4be7	-0.050609495
61	0xbc661705	-0.014043574
62	0x3c983d76	0.018583994
63	0x3d4e44f2	0.05035872

weight f4 [64, 64]
0	0x3df206ff	0.11817741
1	0xbd6e1c3a	-0.058132388
2	0x3d9c09db	0.07619067
3	0xbdcf74ae	-0.10129677
4	0x3d89b000	0.067230225
5	0x3dac3470	0.08408439
6	0x3d8c0f04	0.068388015
7	0xbdbe43b8	-0.0929026
8	0x3d99fd4a	0.07519014
9	0xbdd9a770	-0.10627639
10	0xbccf4e0e	-0.025305774
11	0x3c8381d7	0.016053123
12	0x3da788c2	0.08180381
13	0x3cd1cfe0	0.025611818
14	0x3d6aa800	0.057289124
15	0xbd93238f	-0.07184517
16	0xbd6d718d	-0.05796962
17	0x3c173948	0.0092299655
18	0x3c62e09d	0.013847497
19	0xbdc57b59	-0.09642667
20	0xbd987700	-0.074445724
21	0xbd9a3ddd	-0.07531331
22	0xbdf3a356	-0.11896388
23	0xbac5b4b1	-0.0015083757
24	0xbc3ab131	-0.011394785
25	0x39e62822	0.0004389892
26	0xbc9192d0	-0.017770201
27	0xbd74dcc4	-0.05978085
28	0xbb80c278	-0.0039294325
29	0x3d998843	0.07496693
30	0x3dee8377	0.11646169
31	0x3d75c643	0.06000353
32	0xbcf27c64	-0.02960033
33	0x3de52cad	0.11190162
34	0xbda330b8	-0.07968277
35	0xbdc81fb0	-0.09771669
36	0x3d8a4445	0.06751303
37	0x3e0bdcd8	0.13658464
38	0xbd8ab59a	-0.06772919
39	0xbdc3817a	-0.0954618
40	0x3db0a1fa	0.086246446
41	0xbdf98cb2	-0.121850386
42	0x3c8bf992	0.017086778
43	0x3c7809fd	0.0151391
44	0xbbddd835	-0.0067701587
45	0x3de8d11d	0.1136801
46	0x3d49d6c1	0.04927707
47	0x3dd44014	0.103637844
48	0xbd58ddff	-0.052946087
49	0xbc958fa7	-0.018256975
50	0x3d7a8492	0.061161585
51	0xbd250496	-0.040287577
52	0xbc601429	-0.013676682
53	0x3d264c2f	0.040599998
54	0xbd7795db	-0.060445648
55	0x392e97a7	0.00016650428
56	0x3cb477dd	0.022029812
57	0x3d57e646	0.05270984
58	0x3df80575	0.12110416
59	0x3c1446a2	0.009050043
60	0xbdddfab0	-0.108388305
61	0xbd1f3593	-0.03886945
62	0x3de6226e	0.11237036
63	0x3db77806	0.089584395
64	0x3cd5cb8a	0.026098032
65	0xbc96b7db	-0.018398216
66	0xbdad274a	-0.084547594
67	0x3dd0c6a7	0.1019414
68	0xbd376773	-0.04477639
69	0xbda1c33b	-0.078985654
70	0x3de51cfc	0.11187169
71	0xbd43ab77	-0.047770943
72	0xbdeca9d8	-0.115558326
73	0xbbf925cc	-0.0076033827
74	0x3d54a67d	0.051916588
75	0x3da30bc3	0.07961228
76	0xbd42e400	-0.04758072
77	0x3df04dcd	0.11733589
78	0x3da1e3a9	0.07904751
79	0x3dfd6e70	0.1237458
80	0xbd262b1f	-0.040568467
81	0x3d418ca4	0.047253266
82	0xbc2ed5a4	-0.010671053
83	0x3d9f9189	0.077914305
84	0xbd271104	-0.04078771
85	0xbd2164b4	-0.03940268
86	0xbd2f1592	-0.04274518
87	0x3d7e94a0	0.06215346
88	0x3d01a9dc	0.03165613
89	0x3df23708	0.11826903
90	0xbd6cdbee	-0.05782693
91	0x3df321e4	0.118716985
92	0x3d143b2c	0.036189243
93	0x3c3be280	0.011467576
94	0xbdcd7889	-0.10032756
95	0xbbf098d8	-0.007342439
96	0xbd9768ba	-0.07393022
97	0x3cb9d3cc	0.022684
98	0xbd25af4b	-0.040450376
99	0xbd2a5db6	-0.041593276
100	0x3dbdf0b4	0.09274426
101	0x3cb4a7a9	0.022052603
102	0xbbb0b4c0	-0.005392641
103	0xbbacde3c	-0.005275516
104	0xbd937130	-0.07199323
105	0x3b350b71	0.0027625228
106	0xbd7ad69f	-0.061239835
107	0xbde32b38	-0.11092228
108	0xbdac504d	-0.08413754
109	0x3dd6bb00	0.10484886
110	0x3bafabaf	0.0053610425
111	0x3a0f09bf	0.00054564694
112	0x3da7b0e8	0.08188039
113	0xbddc42fa	-0.10754962
114	0xbd066711	-0.032813136
115	0xbde35434	-0.11100045
116	0x3dc199a4	0.09453133
117	0xbd4708e5	-0.048592467
118	0x39e989ba	0.00044543837
119	0x3c90897b	0.01764368
120	0xbbc70452	-0.006073513
121	0xbadb018a	-0.0016708833
122	0xbd27b823	-0.04094709
123	0x3de819c2	0.11333038
124	0x3de36d13	0.11104789
125	0xbdad2d25	-0.08455876
126	0x3c3ea551	0.011636094
127	0x3cbb4965	0.022862146
128	0xbdea6843	-0.114456676
129	0xbb4fa83b	-0.0031685967
130	0x3d31c2af	0.043398555
131	0xbd5bfcda	-0.053707935
132	0xbdcbc931	-0.099504836
133	0xbc8f45c5	-0.017489323
134	0x3df949a3	0.12172248
135	0x3d01818c	0.031617686
136	0x3dc186a0	0.09449506
137	0xbdb66ba8	-0.089072526
138	0xbc8fb7d5	-0.017543713
139	0x3df743ab	0.120734535
140	0x3df7144a	0.12064417
141	0xbde8511b	-0.11343595
142	0xbb93685f	-0.004498526
143	0xbd9d0c56	-0.076683685
144	0xbd45090a	-0.048104323
145	0xbda89e0f	-0.08233272
146	0xbcd8f1f0	-0.026482552
147	0x3d2db6be	0.042410605
148	0x3da2e536	0.07953875
149	0xbd817da5	-0.06322793
150	0xbdfcaa7c	-0.12337205
151	0xbde71323	-0.11282947
152	0xbdad864f	-0.08472883
153	0xbdf85134	-0.12124863
154	0x3d054152	0.032532997
155	0xbd4ac509	-0.049504314
156	0x3d39eedf	0.04539382
157	0x3be5eb35	0.0070165643
158	0x3dc59e48	0.096493304
159	0x3d95d31d	0.07315657
160	0xbcc81fb1	-0.024429174
161	0xba782975	-0.0009466627
162	0xbd8a4615	-0.06751648
163	0x3c062620	0.008187801
164	0x3bdc53a2	0.006723837
165	0xbd3c3d80	-0.04595709
166	0xbd833e15	-0.064083256
167	0x3ab26d00	0.0013612807
168	0xbbb5445e	-0.0055318316
169	0xbdfae23c	-0.12250182
170	0x3cb8b727	0.022548271
171	0x3dbdcf0f	0.09268009
172	0xbdd6915a	-0.10476942
173	0x3ab25e28	0.0013608383
174	0x3df5aca3	0.119958185
175	0x3c235bf6	0.009970656
176	0x3de2337a	0.110449746
177	0xbd75c8c4	-0.06000592
178	0xbdf1dffc	-0.118103
179	0xbd600e43	-0.0547011
180	0x3d7f7deb	0.062375944
181	0xbd8478ed	-0.06468377
182	0xbd3218a0	-0.043480515
183	0xbd2461af	-0.04013222
184	0xbdd85fda	-0.10565157
185	0xbda27c87	-0.07933908
186	0xbdb20658	-0.08692616
187	0x3d94fe9d	0.07275126
188	0x3cfd5b0b	0.030927202
189	0x3d48bb28	0.04900661
190	0x3d5970e5	0.05308618
191	0x3cda1df1	0.026625605
192	0xbd80f67d	-0.06297014
193	0xbd96ce04	-0.07363513
194	0x3d41aa9d	0.04728185
195	0xbd421409	-0.04738239
196	0x3c124645	0.008927886
197	0x3d81a326	0.06329946
198	0xbc6342db	-0.01387092
199	0x3da5469c	0.08070108
200	0x3df16062	0.11785962
201	0x3cb48eba	0.022040714
202	0x3dff07f7	0.12452691
203	0xbd97f78e	-0.07420264
204	0xbcaee9a8	-0.02135165
205	0xbd35c31f	-0.044375535
206	0x39a5e3e8	0.00031641056
207	0xbd9aa29f	-0.07550549
208	0xbdf69573	-0.12040224
209	0xbac3d3c3	-0.0014940429
210	0xbd978e3a	-0.074001744
211	0xbd415c31	-0.04720706
212	0x3c9e7fed	0.01934811
213	0x3d92cb56	0.071676895
214	0xbdcf1352	-0.10111107
215	0x3dacfa2d	0.08446155
216	0xbd2477cd	-0.040153313
217	0xbca00487	-0.019533409
218	0x3ca91d8e	0.020643976
219	0x3df4e2be	0.1195731
220	0xbd880ca9	-0.0664304
221	0xbdb0bc79	-0.08629698
222	0x3d71b585	0.059011
223	0x3d1841e9	0.03717223
224	0xbd821aad	-0.06352744
225	0x3d7ea369	0.06216756
226	0xbc8923ba	-0.016740669
227	0x3d8d6b06	0.06905179
228	0xbc203225	-0.00977758
229	0x3d9e394b	0.077257715
230	0x3c770c30	0.015078589
231	0x3dc141e0	0.09436393
232	0x3d4c667d	0.049902428
233	0x3d65c7bd	0.05609869
234	0x3dd34003	0.10314944
235	0xbc0b0a71	-0.008486376
236	0xbdd641e8	-0.10461789
237	0xbd63cb36	-0.05561372
238	0x3d438538	0.04773447
239	0x3db8f4df	0.090310805
240	0xbdb22504	-0.086984664
241	0xbc90301a	-0.017601062
242	0x3de40693	0.111340664
243	0xbda03b97	-0.07823866
244	0x3dd95a9d	0.10612986
245	0x3d56f4d9	0.0524796
246	0xbcd6ef5a	-0.026237179
247	0xbdfa75fd	-0.12229536
248	0xbc8c0667	-0.017092897
249	0xbdbc2d73	-0.09188356
250	0xbd68618f	-0.056733664
251	0xbd93b2ee	-0.072118625
252	0xbd79dde9	-0.061002646
253	0x3dfbec06	0.12300877
254	0x3d71c050	0.059021294
255	0x3dc0dd6f	0.09417235

bias f4 [64]
0	0x3e067e79	0.13134183
1	0x3e502f4c	0.20330542
2	0xbc0d5c5e	-0.008627979
3	0xbd80b790	-0.06285012
4	0xbd794720	-0.060858846
5	0xbdff64f8	-0.1247043
6	0x3e904e81	0.28184894
7	0xbd2666ab	-0.040625256
8	0x3e887d32	0.26658016
9	0x3d8a4b31	0.06752623
10	0xbc48380a	-0.012220392
11	0x3cb529fd	0.022114748
12	0xbdff1100	-0.12454414
13	0x3d3a3b16	0.045466505
14	0xbd7eee6e	-0.062239103
15	0xbdcc335c	-0.099707335
16	0x3dd2db59	0.102957435
17	0xbd4f98cc	-0.050682828
18	0xbbb98b67	-0.00566237
19	0xbc0e7e14	-0.008697052
20	0x3dcb1256	0.09915607
21	0xbdb88c30	-0.09011114
22	0x3e3ea373	0.18617038
23	0x3e039806	0.12850961
24	0xbdeb506d	-0.114899494
25	0x3dfad66f	0.12247931
26	0x3e8debb3	0.27718887
27	0x3cdab56a	0.026697833
28	0xbd86e510	-0.06586659
29	0x3be03b62	0.0068430165
30	0xbd1e2bfc	-0.038616166
31	0xbda55927	-0.08073645
32	0xbdec8f64	-0.11550787
33	0x3e067fbd	0.13134666
34	0xbdd7472d	-0.105116226
35	0xbd2c2a47	-0.042032506
36	0xbdb3e798	-0.087844074
37	0x3e375cd4	0.17906505
38	0xbd2dad89	-0.042401824
39	0xbd473a56	-0.048639618
40	0x3cd007df	0.025394378
41	0xbddc5975	-0.1075925
42	0x3ddff78a	0.10935886
43	0xbd837a7b	-0.06419846
44	0x3a9ddaf8	0.0012043407
45	0x3e6e87e8	0.23294032
46	0xbc10022a	-0.008789578
47	0xbda2c451	-0.07947601
48	0x3d1a336d	0.0376467
49	0xbc4fd930	-0.012686059
50	0xbcbbec49	-0.022939818
51	0x3e7c5032	0.24639967
52	0x3c9af18d	0.018914009
53	0xbdedc97a	-0.11610694
54	0xbdcce339	-0.10004277
55	0xbd2f1425	-0.04274382
56	0x3cddcfed	0.027076686
57	0xbd628904	-0.05530645
58	0xbd7ceab4	-0.061747268
59	0x3e1d129d	0.15339132
60	0x3d721f77	0.05911204
61	0x3e524b24	0.20536476
62	0x3e0b167d	0.13582797
63	0x3c9067bf	0.017627595
