rl2024/exercise4/DDPG--racetrack-v0--critic_hidden_size:[32, 16, 16]_policy_hidden_size:[96, 96, 64]--0.pt (torch, 896067 bytes, 56 tensors)

weight f4 [96, 288]
0	0xbd176031	-0.03695697
1	0xbd3833d5	-0.044971306
2	0x3cd25e62	0.02567977
3	0x3d1718cf	0.036888894
4	0xbd509bb4	-0.05092974
5	0xbc3a5f88	-0.0113753155
6	0x3d17a9ab	0.037027042
7	0xbbdeab10	-0.0067952946
8	0xbc323a3c	-0.010878142
9	0xbd3dc71b	-0.04633246
10	0x395cb700	0.00021049008
11	0xbb13c9a0	-0.0022550598
12	0x3cf329f2	0.029683087
13	0xbcbebc0e	-0.02328303
14	0x3c886636	0.0166503
15	0xbd4335dc	-0.047658786
16	0x3c573c7c	0.013136979
17	0x3d6349e9	0.055490408
18	0xbc4abc60	-0.012374014
19	0x3811e800	3.478676e-05
20	0x3ca38e32	0.019965265
21	0xbd27eac6	-0.04099538
22	0xbc6a032c	-0.014282983
23	0xbd1c5542	-0.038167246
24	0xb9618c00	-0.00021509826
25	0xbc217d80	-0.009856582
26	0xbd387074	-0.04502912
27	0xbaeaba20	-0.0017908253
28	0x3cf10f52	0.02942625
29	0x3d33fa95	0.043940146
30	0xbd06f997	-0.03295287
31	0x3d57e1d9	0.05270562
32	0x3d57ddfb	0.05270193
33	0x3b32ca90	0.0027281381
34	0x3c051554	0.008122761
35	0x3d611c07	0.05495837
36	0x3d47319d	0.0486313
37	0x3b1afb80	0.002364844
38	0xbd45aecf	-0.048262414
39	0xbd2de41d	-0.042453874
40	0x3d2a9fd3	0.041656327
41	0xbcd1db7c	-0.025617354
42	0x3c3a8df4	0.011386383
43	0x3d28f6cf	0.041251
44	0x397f5100	0.0002434887
45	0x3c54fb44	0.0129993595
46	0xbd58642e	-0.052829914
47	0xbcd7645e	-0.026292976
48	0x3bd1cd08	0.0064026155
49	0x3d4661c7	0.04843309
50	0xbd6dedb9	-0.058088038
51	0x3c15e454	0.009148676
52	0x3c9709ee	0.018437352
53	0x3d45eb17	0.048319902
54	0x3d6a8b95	0.057262022
55	0x3d47915d	0.048722614
56	0x3d53e151	0.05172855
57	0xbd001aaa	-0.03127543
58	0x3c2eea5c	0.010675993
59	0x3d6d05ad	0.05786674
60	0x3cd2baf2	0.025723908
61	0x3d178a53	0.03699715
62	0xbce9d310	-0.028543025
63	0x3d181cb7	0.03713676
64	0x3d6245b3	0.05524225
65	0x38d60000	0.00010204315
66	0x3d34f8e9	0.04418269
67	0xbd37cba5	-0.044871945
68	0x3d6a5c47	0.05721691
69	0xbcefb364	-0.029260345
70	0x3d0f513d	0.034989584
71	0x3d2ea861	0.042641047
72	0x3d33a6a3	0.04386009
73	0xbd1f4eec	-0.038893625
74	0xbc41d9e0	-0.011831731
75	0x3d215731	0.039389793
76	0xbd5ee50d	-0.05441766
77	0x3c685c5c	0.014182176
78	0x3d616f15	0.055037577
79	0x3d362729	0.04447094
80	0x3ce0ce46	0.027442109
81	0xbcbe4d4c	-0.023230217
82	0x3c01091c	0.007875707
83	0x3d6fb56f	0.058522638
84	0xbbf33988	-0.0074226297
85	0x3cea9f72	0.028640483
86	0xbb9f44d8	-0.0048605017
87	0x3d56a2e1	0.052401427
88	0xbd63155f	-0.055440303
89	0x3ce81482	0.028330091
90	0x3d0fcfed	0.035110403
91	0x3cbcc1ea	0.023041684
92	0x3d0ef597	0.03490218
93	0xbd4f83d4	-0.05066283
94	0xbc4c7648	-0.012479372
95	0x3cc93ad2	0.02456418
96	0x3d1d9fc9	0.03848246
97	0x3d1547d5	0.036445457
98	0xbd471692	-0.04860551
99	0x3ceb6b5e	0.02873772
100	0x3ce5ca52	0.028050575
101	0xbd30aa29	-0.043131027
102	0xbd56dd9c	-0.052457437
103	0xbd005be8	-0.03133765
104	0xbc99ccde	-0.018774446
105	0xbd5f5aa1	-0.05452979
106	0xbc964894	-0.018345155
107	0xbba4bec8	-0.0050276257
108	0xbcd75d2c	-0.026289545
109	0x3d504b15	0.050852854
110	0x3caa3c52	0.020780716
111	0xbd1fc30e	-0.039004378
112	0xbce99548	-0.028513566
113	0x3c77bb54	0.015120346
114	0x3cff802e	0.03118905
115	0xbd5a1f1c	-0.053252324
116	0xbc6882dc	-0.014191356
117	0x3d29613d	0.0413525
118	0xbd4c0efc	-0.049818978
119	0x3c92de52	0.017928276
120	0xbd3a623c	-0.04550384
121	0x3d4835b1	0.04887933
122	0x3d072b95	0.033000547
123	0xbd2ffcf8	-0.04296586
124	0x3cb4cc56	0.022070091
125	0x3c48889c	0.012239601
126	0xbd3ea7f0	-0.046546876
127	0xbd52b5b5	-0.05144282
128	0xbd3ac3c5	-0.045596857
129	0x3cc28206	0.02374364
130	0xbccce676	-0.025012236
131	0x3d361781	0.04445601
132	0x3a8d26c0	0.0010768995
133	0x3d3d3ab7	0.046198573
134	0xbd1a0d38	-0.037610263
135	0x3d6dc077	0.058044877
136	0x3d4d6251	0.05014259
137	0x3cb349a6	0.021885704
138	0x3d489173	0.048966836
139	0xbd1c2888	-0.03812459
140	0xba88d340	-0.0010438934
141	0xbb77ed70	-0.0037830733
142	0xbb595180	-0.003316015
143	0x3b464860	0.0030255541
144	0xbd49de93	-0.04928453
145	0xbd3ba4fc	-0.04581164
146	0xbaf41cba	-0.0018624284
147	0xbd692139	-0.05691645
148	0x3ce733f6	0.02822302
149	0xbcf72ec0	-0.03017366
150	0xbcd131cb	-0.025536438
151	0xbc101a86	-0.008795386
152	0x3d75e776	0.06003519
153	0xbd00b5b0	-0.03142327
154	0x3d76fb39	0.06029818
155	0x3d407463	0.046985995
156	0x3bf163d6	0.0073666377
157	0x3cff7589	0.031183975
158	0x3d2c4418	0.042057127
159	0x3d5c7bd1	0.053829018
160	0x3d67f3e8	0.05662909
161	0x3ba90b3f	0.0051588113
162	0x3cfa6896	0.030567449
163	0x3b95dd6a	0.0045735138
164	0xbd321687	-0.043478515
165	0x3cf4e6bf	0.029895185
166	0xbd5a0326	-0.05322566
167	0xbd341f39	-0.04397509
168	0x3d208ea0	0.039198518
169	0xbd629d35	-0.055325706
170	0xbc3b6cdf	-0.011439531
171	0x3cbbf5d3	0.022944367
172	0xbb6e43aa	-0.003635625
173	0x3cdbd7f2	0.02683637
174	0x3d2d6051	0.042328183
175	0x3d47c01b	0.04876719
176	0xbc5e249f	-0.013558536
177	0x3d502f8b	0.05082659
178	0xbd0269eb	-0.031839292
179	0x3d1ffe8f	0.039061125
180	0xbd26977a	-0.040671803
181	0x3c93d702	0.01804686
182	0x3c6c744e	0.014432026
183	0xbcde6240	-0.027146459
184	0x3d0afeac	0.03393428
185	0xbd28f360	-0.041247725
186	0x3cfc172e	0.030772772
187	0xbd40c5d7	-0.047063675
188	0x3d34135e	0.043963782
189	0x3cc04211	0.023469003
190	0x3be17213	0.006880054
191	0xbc4a34f6	-0.012341728
192	0x3d0de490	0.034641802
193	0xbc3d1c76	-0.01154243
194	0xbd2fbfb9	-0.04290745
195	0x3d34ead1	0.04416925
196	0x3d0c2907	0.034218814
197	0xbd13d3a4	-0.036090508
198	0x3d22b827	0.039726403
199	0xbbc07a0d	-0.0058739246
200	0xbd1356d3	-0.035971474
201	0xbd11d5ed	-0.035604406
202	0x3c014fff	0.007892608
203	0x3d6c228c	0.057650134
204	0xbd3f8b05	-0.04676344
205	0x3cfd5d55	0.030928293
206	0xbd261012	-0.04054267
207	0xbc98e502	-0.018663887
208	0xbcedfe0c	-0.029051803
209	0x3d7434f8	0.059620827
210	0x3a78d34a	0.0009491934
211	0x3b816cae	0.003949723
212	0xba5fad9d	-0.00085326453
213	0xbd1e4b59	-0.038646076
214	0xbcb2a102	-0.02180529
215	0x3c2be03d	0.010490474
216	0xbce7ee82	-0.028311972
217	0xbd3cc5e7	-0.046087172
218	0xbc9a36e0	-0.018824995
219	0x3d3f7c47	0.04674938
220	0x3c6def74	0.014522422
221	0x3cb541c8	0.022126094
222	0xbc81096a	-0.01575156
223	0x3b2d7662	0.0026468267
224	0xbc898327	-0.016786171
225	0x3cc4e2d1	0.024033936
226	0xbd4b1470	-0.049580038
227	0x3cc24045	0.023712287
228	0xbc417778	-0.011808269
229	0xbd3e2f14	-0.046431616
230	0xbd3a6884	-0.04550983
231	0x3d0bf77d	0.03417157
232	0xbd598c50	-0.053112328
233	0x3c7728f4	0.015085448
234	0xbc13326c	-0.0089841895
235	0xbc9d8c62	-0.019231979
236	0x3d102a3d	0.03519653
237	0x3ce1c942	0.027561788
238	0xbd15ccc4	-0.036572233
239	0x3cbd513a	0.02311002
240	0xbb4daaf0	-0.0031382404
241	0x3cae3612	0.021266017
242	0xbd02fda8	-0.031980187
243	0xbd111572	-0.035420842
244	0xbc51d0e4	-0.012806151
245	0x3d4d213d	0.050080527
246	0xbbea0ca0	-0.0071426183
247	0x3d2af5ff	0.041738506
248	0xbbed5a38	-0.007243421
249	0x3cdb5f96	0.026778977
250	0xbcee7474	-0.029108264
251	0xbc98a588	-0.018633619
252	0xbc9f181e	-0.01942068
253	0x3d20ce21	0.03925908
254	0x3d0ba4d1	0.034092728
255	0x3d65f087	0.056137588

bias f4 [96]
0	0x3d765e2d	0.060148407
1	0x3dc24761	0.09486271
2	0xbc9879b3	-0.018612718
3	0xbd52c986	-0.05146172
4	0xbd3d2ec3	-0.046187174
5	0xbcb278d7	-0.021786137
6	0xbca63f9b	-0.020294001
7	0xbd56466f	-0.052313264
8	0x3d7542ca	0.05987815
9	0xbd08f4e9	-0.03343669
10	0xbd3bb5e3	-0.045827758
11	0xbd150a55	-0.036386807
12	0x3d461e17	0.04836854
13	0x3d128172	0.03576798
14	0x3da2007f	0.07910251
15	0x3cf17712	0.029475722
16	0xbd454767	-0.048163798
17	0xbb185614	-0.0023244666
18	0x3ce8fa73	0.028439736
19	0xbd640bcd	-0.055675317
20	0x3d395a76	0.045252286
21	0x3b94d296	0.0045417054
22	0x3d07951f	0.033101197
23	0xbc29decc	-0.01036806
24	0x3daa5807	0.08317571
25	0xbceef119	-0.029167699
26	0x3d09d716	0.033652388
27	0xbc289429	-0.01028923
28	0xbcfcce0d	-0.030859971
29	0xbcd7ea9a	-0.026356984
30	0x3d235fee	0.039886408
31	0xbbc58b18	-0.006028544
32	0x3cf622a0	0.030045807
33	0xbd44fad9	-0.04809079
34	0xbce7218f	-0.028214244
35	0xbd651209	-0.055925403
36	0xbcdcf9e3	-0.026974624
37	0x3d10e64b	0.035375874
38	0x3d032c49	0.032024655
39	0x3d055f67	0.032561686
40	0x3ce241ae	0.02761921
41	0x3b3cea73	0.0028826266
42	0x3d3c189c	0.045921907
43	0x39adf645	0.00033180616
44	0x3d8599f3	0.06523504
45	0x3db7846f	0.089608066
46	0xbc5c2534	-0.013436604
47	0xbd3d3e80	-0.046202183
48	0x3ce27e85	0.02764822
49	0xbd4597d1	-0.048240487
50	0x3d3f5fdb	0.046722274
51	0x3db78bd9	0.08962221
52	0x3c9c2d95	0.019064704
53	0x3d7f7c95	0.06237467
54	0x3dab54d9	0.08365793
55	0x3d07402a	0.033020176
56	0xbd125cc2	-0.035732992
57	0x3d49a2f3	0.049227666
58	0xbc0d5aab	-0.008627574
59	0x3da41e3e	0.08013581
60	0xbc9668bd	-0.01836049
61	0xbd36a429	-0.04459015
62	0xbc82d38e	-0.015970018
63	0xbd071fe5	-0.0329894
64	0xbd65c6c9	-0.05609778
65	0xbb39ba25	-0.002833971
66	0xbcd681ac	-0.02618488
67	0xbc9e6362	-0.019334499
68	0xbbd4a685	-0.0064895772
69	0x3d9735b3	0.07383289
70	0x3a249339	0.00062780414
71	0xbcad6619	-0.021166848
72	0x3d924785	0.071425475
73	0x3da79dc3	0.081843875
74	0xbd561fe7	-0.05227652
75	0xbcffbec8	-0.031218901
76	0xbc89f209	-0.016839044
77	0xba8036d6	-0.0009781967
78	0x3cab7730	0.020930856
79	0x390f5d1a	0.00013672226
80	0xbd1ea5a1	-0.038732175
81	0xbd1d207d	-0.03836106
82	0xbc0c7ad8	-0.00857421
83	0x3d682f2c	0.05668561
84	0xbd04bf30	-0.032408893
85	0xbcd64a10	-0.026158363
86	0xbae8140c	-0.001770617
87	0xbd7adbc0	-0.061244726
88	0xbb83f6c8	-0.0040272214
89	0xbd6126da	-0.054968692
90	0xbcc1669d	-0.0236085
91	0xbc7b80bb	-0.015350516
92	0xbd6d00c0	-0.057862043
93	0xbd541c80	-0.051784992
94	0xbd0f0626	-0.034917973
95	0x3dcc850f	0.099863164

weight f4 [96, 96]
0	0xbd308d8b	-0.043103736
1	0x3cf474e5	0.029840896
2	0xbd5819db	-0.052759033
3	0x3cfa7357	0.030572576
4	0xbd162116	-0.036652647
5	0xbdbc93ef	-0.092079036
6	0x3d040688	0.03223279
7	0x3dbcd98a	0.0922118
8	0x3dc7c018	0.09753436
9	0x3dbe0311	0.092779286
10	0xbdb029ef	-0.08601748
11	0xbcb48b25	-0.022039006
12	0xbd1b4d1e	-0.03791534
13	0x3c9fbe07	0.019499792
14	0xbd8451e1	-0.0646093
15	0xbd4dcd44	-0.050244585
16	0xbd1fee44	-0.039045587
17	0x3d3a34ae	0.045460396
18	0xbdb57988	-0.08861071
19	0xbc41f8d0	-0.011839107
20	0x3d91bdcc	0.07116279
21	0x3b930dd0	0.0044877306
22	0x3dd072b9	0.101781316
23	0x3dbb5d56	0.09148662
24	0xbdcf7083	-0.10128882
25	0xbd964ac2	-0.07338478
26	0x3dcdb196	0.100436375
27	0xbc3f20c9	-0.011665531
28	0xbda8c379	-0.082404085
29	0x3da113ba	0.07865091
30	0x3d273684	0.040823475
31	0xbdab8ec2	-0.08376838
32	0x3cab41ac	0.020905338
33	0xbd030172	-0.0319838
34	0xbd9cf28d	-0.076634504
35	0xbd7f310d	-0.062302638
36	0x3ced9025	0.028999398
37	0xbd33abdd	-0.043865073
38	0xbb4945e0	-0.0030711815
39	0xbd2772dd	-0.040881027
40	0x3d8ba9f8	0.06819528
41	0xbdaa13b0	-0.08304536
42	0xbd9da401	-0.07697297
43	0x3d8d0c3a	0.06887098
44	0xbc805967	-0.01566763
45	0x3d6506fb	0.05591486
46	0x3d8ae120	0.067812204
47	0xbda4b412	-0.08042158
48	0xbcd0df2b	-0.02549704
49	0x3d7444b1	0.05963582
50	0x3d389be1	0.045070533
51	0x3d338134	0.04382439
52	0xbdbd3f8d	-0.09240637
53	0xbccb3ac9	-0.024808304
54	0xbb335b0e	-0.0027367505
55	0x3c7f0890	0.015566006
56	0xbdb6563b	-0.08903166
57	0xbd9a6776	-0.07539265
58	0xbd522752	-0.05130703
59	0x3d8bf0c5	0.068330325
60	0xbd2fd861	-0.042930964
61	0x3bf220ee	0.0073891794
62	0xbcfb5ecc	-0.030684851
63	0x3d7d8444	0.061893716
64	0xbd9b190a	-0.07573135
65	0x3b7a47f9	0.0038189872
66	0xbd1b0364	-0.03784503
67	0x3cf995a8	0.03046687
68	0xbb74b819	-0.0037341176
69	0x3d034502	0.032048233
70	0x3d09f82b	0.033683937
71	0x3d7d9aa4	0.061915055
72	0xbd6465f9	-0.05576131
73	0x3cd97155	0.026543299
74	0x3cb68768	0.022281364
75	0xbba68a51	-0.0050824066
76	0xbd37f162	-0.044907935
77	0xbcd1ffc5	-0.025634656
78	0xbc78cc97	-0.015185497
79	0x3d3d7d58	0.046262115
80	0x3d7b0bd5	0.06129058
81	0xbd8acbe8	-0.06777173
82	0xbdccde9a	-0.100033954
83	0xbb21a4e3	-0.002466493
84	0x3d18734c	0.03721933
85	0xbda0b2d6	-0.0784661
86	0xbd99336f	-0.07480513
87	0xbd0cbc86	-0.034359477
88	0xbcfbd968	-0.030743316
89	0xbda7d341	-0.0819459
90	0xbdb069ed	-0.08613954
91	0x3dc5ab96	0.09651868
92	0xbc076be0	-0.0082654655
93	0xbbf42440	-0.0074506104
94	0x3d854948	0.06508118
95	0xbcf2be02	-0.029631618
96	0x3aa48ce3	0.0012554195
97	0xbda4a530	-0.080393195
98	0x3cc62faf	0.02419266
99	0xbd3b1ace	-0.04567986
100	0xbdd0be8c	-0.10192594
101	0x3d23baf5	0.039973218
102	0x3d067e5c	0.03283535
103	0xbd9bd97c	-0.07609841
104	0x3d8e8f5f	0.069609396
105	0xbdbe0401	-0.092781074
106	0x3d804859	0.06263799
107	0x3cd220d8	0.025650427
108	0x3cfb0c81	0.03064561
109	0x3d857844	0.065170795
110	0xbd5536e9	-0.05205432
111	0xbd15ac3d	-0.036541212
112	0x3d975356	0.07388942
113	0xbd91b2bc	-0.07114169
114	0xbd7c1adf	-0.061549064
115	0xbc7ad698	-0.015309952
116	0x3da10d9a	0.078639224
117	0xbbad1197	-0.005281638
118	0x3d46711c	0.048447713
119	0x3cc3930b	0.023873826
120	0x3dc9719a	0.09836121
121	0x3da2e05e	0.07952951
122	0x3d8b941d	0.0681536
123	0x3d5277b9	0.051383708
124	0x3c6dbe28	0.014510669
125	0x3db81eac	0.08990225
126	0x3db55594	0.08854213
127	0xbda3b1b0	-0.079928756
128	0x3dcc20cd	0.09967194
129	0xbd707e9a	-0.058714487
130	0x3d41cce9	0.04731456
131	0xbd99dc5c	-0.07512733
132	0xbd8de84d	-0.069290735
133	0x3d9cf744	0.0766435
134	0x3dc9c0b3	0.098512076
135	0x3da762a9	0.08173115
136	0x3bd0d527	0.006373066
137	0x3929aea0	0.00016182149
138	0xbd24f0af	-0.040268596
139	0x3ce5ca0c	0.028050445
140	0x3cf4d287	0.029885544
141	0x3ca5133d	0.020150775
142	0x3d732d6c	0.05936949
143	0x3cbc9498	0.023020074
144	0x3dc3a298	0.09552497
145	0xbd001527	-0.031270172
146	0xbd030dd7	-0.03199562
147	0xbd6c559e	-0.05769884
148	0xbcfb6828	-0.030689314
149	0xbdc52542	-0.09626247
150	0x3d1e8ab8	0.03870651
151	0x3d462f9c	0.048385248
152	0x3d5619bc	0.052270636
153	0x3dc7fcef	0.0976504
154	0xbc802cbc	-0.015646331
155	0xbd771996	-0.060327135
156	0xbc900374	-0.017579772
157	0xbdb288b1	-0.08717478
158	0x3d9addea	0.07561858
159	0x3d6a3e23	0.057188164
160	0x3c0c2a26	0.008554971
161	0x3d4ad3dc	0.04951845
162	0x3cdfbbd8	0.02731125
163	0xbdc09372	-0.09403123
164	0xbd519769	-0.051169787
165	0xbdb73a43	-0.089466594
166	0x3cc3e8d0	0.023914725
167	0x3ce0c908	0.02743961
168	0x3d9bac22	0.07601191
169	0xbd6a718d	-0.057237197
170	0xbd87d2f0	-0.0663203
171	0x3d8ce773	0.06880083
172	0xbdbf512a	-0.09341653
173	0xbdc3e690	-0.09565461
174	0xbda1b72e	-0.07896267
175	0x3c5e9f00	0.013587713
176	0xbda1155b	-0.07865401
177	0x3d94ce6a	0.07265933
178	0xbc98da9f	-0.018658934
179	0x3c4b4a7d	0.012407896
180	0xbd5f10e7	-0.05445948
181	0xbd4a5f03	-0.049407016
182	0xbdb1438e	-0.08655463
183	0x3b7198c0	0.0036864728
184	0x3d80768e	0.062726125
185	0x3dc7ee68	0.09762269
186	0xbdc2de19	-0.09515018
187	0xbc9fb701	-0.019496443
188	0x3d7f6370	0.06235069
189	0xbd73c902	-0.059517868
190	0x3b7354e7	0.0037129463
191	0x3afc0be5	0.0019229619
192	0xbd1486c2	-0.036261328
193	0x3d26f6ab	0.040762585
194	0x3d3e1641	0.04640794
195	0x3cf9be54	0.030486263
196	0x3d73ba60	0.059503913
197	0x3dc6cf15	0.097074665
198	0x3cf6c67a	0.030123938
199	0x3a7729c8	0.0009428528
200	0x3d88b009	0.06674201
201	0x3d9f14b6	0.07767622
202	0xbda19a33	-0.07890739
203	0x3d47956d	0.048726488
204	0x3c9d5cf4	0.019209363
205	0xbd923e02	-0.07140733
206	0xbc7a6969	-0.015283921
207	0xbca8cf73	-0.020606732
208	0x3c6fcf29	0.014636793
209	0xbda3bd5d	-0.079951026
210	0xbd15b932	-0.03655357
211	0x3cb2e935	0.021839717
212	0x3b7e3ee9	0.0038794822
213	0x3d422387	0.047397163
214	0xbceb1221	-0.028695168
215	0xbda0cbf2	-0.078513995
216	0x3ce411ad	0.02784046
217	0x3d0b2efd	0.03398036
218	0xbce3f030	-0.027824491
219	0x3d80b9fb	0.06285473
220	0x3b656361	0.0035001861
221	0xbd039a98	-0.032129854
222	0x3b6f64fa	0.0036528693
223	0x3d393fb4	0.045226768
224	0x3d059457	0.03261217
225	0xbdaa3f61	-0.0831287
226	0xb9f2d549	-0.00046316747
227	0x3ccbbd7e	0.02487063
228	0x39f41a8b	0.00046559083
229	0xbd39ff03	-0.045409214
230	0xbd9de669	-0.07709963
231	0xbc9583f0	-0.01825139
232	0x3cbb664e	0.022875931
233	0x3d897ef3	0.06713667
234	0x3d93c372	0.072150126
235	0x3d5d0e44	0.053968683
236	0xbd06e18d	-0.032929946
237	0xbd0ef049	-0.034897123
238	0x3dc70fe7	0.0971983
239	0x3b9adf3b	0.004726318
240	0xbdb1f342	-0.08688976
241	0xbd73ff00	-0.05956936
242	0x3cd6672a	0.02617224
243	0xbd0abdf9	-0.03387258
244	0x3bb26466	0.0054440973
245	0x3d5d6024	0.054046765
246	0x3d6d584f	0.057945546
247	0xbd2222ef	-0.039584097
248	0x3c681af4	0.014166582
249	0xbc7a5d9f	-0.01528111
250	0x3d3509dd	0.04419886
251	0xbd8292c6	-0.06375651
252	0xbd39fce7	-0.045407202
253	0xbd4bb990	-0.049737513
254	0xbd9f3a4a	-0.0777479
255	0xbdce04ab	-0.10059484

bias f4 [96]
0	0xbd9dd4f5	-0.07706634
1	0xbd281afa	-0.04104135
2	0x3d8c7e3e	0.06860016
3	0x3e405270	0.18781447
4	0x3d081378	0.03322169
5	0xbd4d99b2	-0.050195403
6	0x3d7028c7	0.05863264
7	0xbcf21707	-0.029551996
8	0x3e637283	0.22211652
9	0x3e2bad24	0.16765267
10	0x3d29ffb1	0.041503612
11	0x3c4bfa1e	0.012449769
12	0x3d809b32	0.06279601
13	0x3da5bca2	0.080926195
14	0xbdcb12f2	-0.09915723
15	0x3d9f6c3c	0.07784316
16	0xbd961263	-0.07327726
17	0xbc3c1474	-0.011479486
18	0xbd8f71c0	-0.07004118
19	0x3d6faefd	0.05851649
20	0x3e232991	0.15933825
21	0xbd19eab8	-0.03757736
22	0xbd9f661d	-0.077831484
23	0x3cc6b515	0.024256269
24	0x3e2fcea1	0.17168666
25	0x3da33829	0.07969696
26	0x3d014455	0.031559307
27	0xbd6ac2a9	-0.05731455
28	0x3d46371d	0.048392404
29	0xbd95d37e	-0.073157296
30	0xbd8751e6	-0.06607418
31	0xbd4879d0	-0.048944294
32	0xbdc699dd	-0.09697316
33	0xbd63b435	-0.05559178
34	0x3d8922a1	0.06696058
35	0xbd2779fc	-0.040887818
36	0xbd4783cd	-0.04870968
37	0x3e7315ad	0.23738737
38	0x3dc8f3ce	0.09812127
39	0xbdcbabb4	-0.09944859
40	0xbd13031b	-0.035891633
41	0x3c9131cc	0.01772394
42	0xbbeba2b7	-0.007191028
43	0x3d4a5fbd	0.04940771
44	0xbd36da3f	-0.04464173
45	0xbd27d3f8	-0.040973634
46	0x3c51e46e	0.01281081
47	0x3da5169f	0.08060955
48	0x3dc86b53	0.097860955
49	0xbca62592	-0.020281587
50	0x3e260164	0.16211468
51	0xbd82a4f7	-0.06379121
52	0x3d1855bf	0.03719115
53	0xbbc04bab	-0.0058683953
54	0xbd4b6c79	-0.049663994
55	0x3e6b9dd7	0.2300943
56	0x3e0b6213	0.13611631
57	0x3e4407e9	0.19143642
58	0xbd2c20a3	-0.042023312
59	0x3e3e940b	0.18611161
60	0x3d7830b1	0.06059331
61	0x3dc7bb83	0.09752562
62	0x3dcb1fdd	0.09918187
63	0x3e0bb9c3	0.13645081
64	0xbd36a521	-0.044591073
65	0x3d7e66e4	0.062109843
66	0x3d434f51	0.047683064
67	0xbda0aebc	-0.07845828
68	0x3bb08980	0.005387485
69	0xbd160004	-0.03662111
70	0xbdb4b2be	-0.08823155
71	0x3cacca63	0.0210926
72	0x3cafe66e	0.021472182
73	0xbc6450c8	-0.013935275
74	0x3e2e4cfa	0.17021552
75	0xbc8f1701	-0.017467024
76	0xbd93a9d6	-0.07210128
77	0xbcea217e	-0.028580423
78	0x3d90e733	0.07075348
79	0x3c4dbdc6	0.012557453
80	0x3da564a5	0.08075837
81	0xbd70c09c	-0.058777437
82	0x3d9446a0	0.07240033
83	0xbd6bd6b8	-0.05757782
84	0x3ba0a0d3	0.0049019842
85	0xbb45d4a9	-0.003018657
86	0xbda8fac0	-0.08250952
87	0x3c14dfed	0.009086591
88	0x3dba2752	0.09089531
89	0xbd0f05bf	-0.03491759
90	0xbd368d34	-0.044568256
91	0xbd2a4f6c	-0.04157965
92	0xbdbc1809	-0.09184272
93	0xbd0be288	-0.034151584
94	0xbccaa403	-0.02473641
95	0xbcbf3264	-0.023339458

weight f4 [64, 96]
0	0x3bc3f1d3	0.0059797554
1	0xbd413d70	-0.047177732
2	0xbc6971f1	-0.014248357
3	0x3b1aac54	0.002360125
4	0xbd19ede6	-0.037580393
5	0xbdb0a783	-0.086257
6	0x3d872115	0.06598107
7	0xbdc5f256	-0.096653625
8	0xbcd2e3c9	-0.025743382
9	0xbda30dbe	-0.079616055
10	0xbd0d5f41	-0.03451467
11	0x3b3202c0	0.0027162284
12	0x3cf9f674	0.030513026
13	0x3d40df4f	0.047087964
14	0x3cb2413c	0.021759622
15	0x3d196735	0.03745194
16	0xbdbb150e	-0.09134875
17	0x3d909aec	0.07060799
18	0xbd3d2aab	-0.04618327
19	0xbccc5b9c	-0.024946027
20	0x3dcc318a	0.09970386
21	0x3d6d254c	0.057896897
22	0xbd681696	-0.056662165
23	0xbcd6f2f8	-0.026238903
24	0x3da7a5dd	0.08185933
25	0x3d30855b	0.043095928
26	0xbc863e2a	-0.016387064
27	0x3db0af12	0.08627142
28	0x3d74b73a	0.05974505
29	0x3d182654	0.037145928
30	0x3d7f3794	0.062308863
31	0xbce52c40	-0.027975202
32	0xbc4e0408	-0.012574203
33	0xbdabe031	-0.083923705
34	0xbdbfa248	-0.093571246
35	0xbda11924	-0.07866123
36	0xbda9b091	-0.082856305
37	0x3d14f741	0.036368612
38	0x3cffaf1a	0.031211425
39	0xbc0315b8	-0.008000784
40	0x3c9b79e5	0.018979022
41	0xbc8a7da1	-0.016905608
42	0x3d69a233	0.05703945
43	0x3d855cc8	0.06511837
44	0xbdb5dc35	-0.08879892
45	0xbd974655	-0.07386462
46	0x3d987c90	0.074456334
47	0x3d7b212e	0.06131094
48	0x3d8eb65e	0.069683775
49	0x3d7cbaa5	0.061701436
50	0xba24977b	-0.0006278676
51	0xbd2a1411	-0.041523043
52	0xbcb0a844	-0.02156461
53	0xbc9030b7	-0.017601354
54	0xbd32b519	-0.04362974
55	0x3d4f28c3	0.050575983
56	0xbd0b6582	-0.034032352
57	0xbd840cb6	-0.06447737
58	0x3d065bac	0.03280227
59	0xbd1ab772	-0.037772603
60	0xbd73402a	-0.059387363
61	0xbda28e1e	-0.07937263
62	0x3c923e91	0.0178521
63	0xbc6ef970	-0.014585838
64	0xbcece49e	-0.028917607
65	0xbd0d086a	-0.034431852
66	0x3c62d5a0	0.0138448775
67	0x3cdfca8f	0.027318267
68	0xbb59f460	-0.003325723
69	0xbd41b7c2	-0.047294386
70	0xbd741c26	-0.059597157
71	0x3d67672c	0.056494877
72	0x3c88cb02	0.016698364
73	0xbdc7af71	-0.0975026
74	0xbca89f77	-0.020583851
75	0x3d55359d	0.052053083
76	0x3ccd4535	0.025057415
77	0xbd1d24a0	-0.038365006
78	0x3aad79cd	0.0013235152
79	0x3d8217b5	0.06352178
80	0xbd2f177e	-0.042747013
81	0x3dae062a	0.084972695
82	0x3d5bf601	0.053701404
83	0xbb5de480	-0.003385812
84	0xbda63b6d	-0.08116803
85	0xbd870162	-0.065920606
86	0xbd72ebb6	-0.059306823
87	0x3c3ac2ac	0.011398952
88	0x3db13d36	0.08654253
89	0xbd082570	-0.03323883
90	0x3d8464c4	0.06464532
91	0xbc595a05	-0.013266091
92	0x3dc45066	0.09585647
93	0x39b02a00	0.00033600628
94	0x3c966106	0.018356811
95	0x3d123b47	0.035701063
96	0x3dbbeda1	0.091761835
97	0xbbbb67fa	-0.005719182
98	0x3dc66413	0.096870564
99	0x3db288ad	0.08717475
100	0x3d8e273d	0.06941078
101	0x3dc45f90	0.095885396
102	0x3d9de4ce	0.07709657
103	0x3c9e7217	0.019341512
104	0x3d454a36	0.048166476
105	0x3dc835de	0.09775899
106	0xbd8a7cf3	-0.067621134
107	0xbc8252ca	-0.015908618
108	0xbd6be76b	-0.057593744
109	0xbcefeb06	-0.029286873
110	0x3cc356bd	0.023845071
111	0xbc307de5	-0.010772203
112	0xbc541e8a	-0.012946734
113	0x3c9a6b68	0.018850043
114	0xbc969f9c	-0.018386655
115	0xbd6ee0eb	-0.058319967
116	0x3d9cf81a	0.07664509
117	0xbc322ab1	-0.010874436
118	0x3d0ce89a	0.034401514
119	0xbdcb9a42	-0.09941532
120	0x3cfb9812	0.030712161
121	0x3dbb3af4	0.09142104
122	0xbd9c917b	-0.07644936
123	0x3d88734e	0.066626176
124	0x3ab06169	0.0013456765
125	0xbabd56d0	-0.0014445428
126	0xbd656176	-0.05600115
127	0xbc8afa9f	-0.016965209
128	0xbdcca897	-0.099930935
129	0x3dd06a6d	0.10176549
130	0xbd93c59a	-0.07215424
131	0x3d25c2c4	0.040468946
132	0x3dacfde4	0.08446863
133	0x3d3efe57	0.046629276
134	0x3d5f8987	0.054574516
135	0xbc5a5cfb	-0.013327832
136	0xbda9a0fe	-0.0828266
137	0x3d0a7894	0.0338064
138	0x3d266842	0.04062677
139	0x3c840a22	0.016118113
140	0xbd494b79	-0.049144242
141	0xbcb66718	-0.022265956
142	0x3d1770b3	0.036972713
143	0x3d4b8546	0.049687646
144	0xbd827ae6	-0.06371097
145	0x3db75bac	0.08953032
146	0x3d9503bb	0.07276102
147	0xbb8a9180	-0.0042287707
148	0x3d970fab	0.07376035
149	0xbd4675dd	-0.048452247
150	0xbce0e588	-0.027453199
151	0x3dc55c20	0.09636712
152	0xbb62fff3	-0.003463742
153	0xbc5cca58	-0.013475977
154	0xbdcf5d74	-0.10125247
155	0x3dc5801a	0.09643574
156	0xbd926db7	-0.07149833
157	0xbda0140d	-0.078163244
158	0xbd6cb475	-0.057789285
159	0xbd530947	-0.05152252
160	0xbd33d1b7	-0.04390117
161	0xbd4cecf0	-0.05003065
162	0x3bf94efb	0.007608292
163	0x3caa4da3	0.020788973
164	0xbdba7d44	-0.09105924
165	0x3da7c67c	0.08192155
166	0x3c98ff3c	0.018676393
167	0xba99512e	-0.0011697167
168	0x3d009fb3	0.0314023
169	0xbd32c02d	-0.043640304
170	0xbd820d61	-0.06350208
171	0x3cab20b0	0.02088961
172	0x3d6f547f	0.05843019
173	0x3db6bc5e	0.08922647
174	0x3d42f997	0.04760131
175	0x3caa278e	0.020770814
176	0xbc012ecf	-0.007884695
177	0xbdc58602	-0.096447006
178	0xbdcfc034	-0.10144082
179	0xbd4bcc21	-0.04975522
180	0xbae56680	-0.0017501861
181	0x3db6fde8	0.089351475
182	0x3d7c15d8	0.06154427
183	0xbc3c079d	-0.0114764245
184	0x3c1b7b7f	0.009489893
185	0x3dc434fb	0.09580418
186	0x3dc05a81	0.09392262
187	0xbd372d92	-0.044721194
188	0x3d9c640c	0.0763627
189	0x3d09ce60	0.03364408
190	0xbccbebd8	-0.024892733
191	0xbd8a05b8	-0.06739372
192	0xbd99d28f	-0.07510864
193	0x3d95ee2a	0.07320817
194	0xbce99df4	-0.0285177
195	0x3dae2042	0.085022464
196	0x3d69d0e9	0.057083998
197	0x3d2764bc	0.040867552
198	0x3d9269f0	0.07149112
199	0xbd8c0748	-0.06837326
200	0xbcb1ccd4	-0.021704115
201	0x3d583603	0.052785885
202	0xbc9ad9a5	-0.01890261
203	0xbdcb3978	-0.09923071
204	0x3d876de6	0.06612758
205	0xbd48f37d	-0.049060334
206	0x3cb11bd0	0.021619707
207	0xbb354914	-0.0027661966
208	0x3d427282	0.047472484
209	0x3da3b38a	0.07993229
210	0xbc7aa018	-0.015296958
211	0xbd98d706	-0.074628875
212	0x3da048f1	0.078264125
213	0xbd66d21f	-0.05635273
214	0xbd54e332	-0.051974483
215	0x3cfcd26e	0.03086206
216	0xbc4847d7	-0.012224159
217	0x3cca5665	0.0246994
218	0x3d8e9630	0.0696224
219	0x3dbb5f5a	0.09149046
220	0x3c4dc99e	0.012560276
221	0x3d02a59f	0.03189623
222	0xbd775858	-0.060386986
223	0xbd98cb16	-0.074606106
224	0x3ad40fdf	0.0016179046
225	0x3d91a68d	0.07111845
226	0x3d40a98f	0.047036704
227	0x3cc96267	0.024583055
228	0xbd97b16b	-0.07406887
229	0xbc9aa38f	-0.018876819
230	0x3cec802e	0.028869715
231	0x3d6f6e11	0.058454577
232	0x3dcf9252	0.1013533
233	0xbda3a04a	-0.07989557
234	0x3d857d9b	0.06518098
235	0x3ca3e5a9	0.020006971
236	0x3dcc8422	0.0998614
237	0xbdb88bbc	-0.09011027
238	0xbd0ef5f9	-0.034902547
239	0x3da68d24	0.08132389
240	0x3d6cc2d8	0.057803005
241	0x3cb19d59	0.021681475
242	0x3d275f37	0.04086229
243	0x3d555fbc	0.052093253
244	0x3dd3054d	0.103037454
245	0x3c9d075d	0.01916855
246	0x3d9b9590	0.07596886
247	0xbd279102	-0.040909775
248	0x3d75fbf1	0.060054723
249	0x3d5ea03e	0.054352038
250	0xbd8e492e	-0.06947552
251	0xbcf517da	-0.0299186
252	0x3dae95ff	0.08524703
253	0x3d96a249	0.07355172
254	0x3d8bd794	0.06828228
255	0x3dbf896b	0.09352382

bias f4 [64]
0	0xbd39dfff	-0.045379635
1	0xbdb4a966	-0.08821373
2	0x3de258dc	0.11052105
3	0xbd37e149	-0.044892583
4	0x3e7fd448	0.24983323
5	0x3e326064	0.17419583
6	0x3e2b0d06	0.16704187
7	0x3e062b98	0.13102567
8	0x3e4232fd	0.18964763
9	0x3e91736a	0.28408366
10	0xbc1aa2ce	-0.00943823
11	0x3c69a490	0.014260426
12	0xbd442d1d	-0.047894586
13	0x3d04300f	0.032272395
14	0x3c893afe	0.016751762
15	0xbd960c8f	-0.07326614
16	0x3e1ded96	0.15422663
17	0x3e82a3cd	0.25515595
18	0x3c5809f9	0.013185971
19	0xbc7784ce	-0.015107347
20	0xbd06a5e2	-0.032873042
21	0xbd0aaa22	-0.033853658
22	0xbd4c4a93	-0.049875807
23	0xbd58f7a3	-0.05297054
24	0x376f8ca3	1.4278255e-05
25	0xbb839c5c	-0.004016442
26	0x3e07eb02	0.13273242
27	0xbcc3ab8d	-0.023885513
28	0xbd887355	-0.06662623
29	0x3e4a2a22	0.19742635
30	0xbd962508	-0.07331282
31	0x3df2f6cd	0.1186348
32	0xbd82fa6a	-0.06395419
33	0xbcd5f1f7	-0.026116354
34	0x3c43d20b	0.011951934
35	0x3e94cf7c	0.29064548
36	0x3d3e8385	0.046512146
37	0xbd9b3cd4	-0.075799614
38	0xbc41e935	-0.011835386
39	0x3dd49498	0.103799045
40	0xbd731268	-0.059343725
41	0xbd062606	-0.032751106
42	0xbc439280	-0.011936784
43	0xbd9616fc	-0.07328603
44	0x3defbc77	0.11705869
45	0xbd6d1443	-0.05788065
46	0xbdc5d4d3	-0.096597336
47	0x3e44a420	0.19203234
48	0xbd83e295	-0.064397015
49	0x3db56cdf	0.08858656
50	0x3e4cf86c	0.2001664
51	0x3db0a60c	0.08625421
52	0x3d0dc73f	0.034613844
53	0xbdab1628	-0.08353835
54	0x3e248642	0.1606684
55	0xbbfcbc72	-0.007712894
56	0x3da84dfc	0.08217999
57	0x3cc47345	0.023980746
58	0xbdc79c00	-0.097465515
59	0xbdc97989	-0.09837634
60	0xbda960e2	-0.08270432
61	0xbcd8da10	-0.026471168
62	0x3e8ee8c5	0.27911964
63	0x3ea4af5a	0.32165033

weight f4 [1, 64]
0	0x3ddda6d7	0.10822838
1	0x3cd97905	0.026546964
2	0xbe20e200	-0.15711212
3	0x3ddd14ab	0.10794958
4	0xbe93babd	-0.28853408
5	0xbe74dd70	-0.23912597
6	0xbe73bef8	-0.23803318
7	0xbe3e9ff4	-0.18615705
8	0xbe6c75d8	-0.23091829
9	0xbec00cba	-0.3750971
10	0x3d8ed938	0.06975025
11	0x3d39ee32	0.045393176
12	0xbda1952a	-0.07889779
13	0x3cabac7e	0.020956274
14	0xbe0d6c28	-0.1381079
15	0x3df99760	0.121870756
16	0xbe1dbe4a	-0.15404621
17	0xbece7ec2	-0.40331084
18	0x3d4d475e	0.05011689
19	0x3deebb02	0.11656763
20	0xbd57a17c	-0.052644238
21	0xbdf8779e	-0.1213219
22	0x3d52719c	0.051377878
23	0xbd923f14	-0.071409374
24	0x3b8afeb5	0.004241789
25	0x3df6ca69	0.120503254
26	0xbe215fa1	-0.15759136
27	0xbdb1a7c4	-0.08674577
28	0x3c5a1cd0	0.0133125335
29	0xbe37e1e3	-0.17957263
30	0x3dd61c44	0.1045461
31	0xbdaf4fa7	-0.08560114
32	0xbd5c66c4	-0.053808942
33	0xbd1db534	-0.038502887
34	0x3db6fe6f	0.08935248
35	0xbeb8053e	-0.359415
36	0x3de168b7	0.11006301
37	0x3df8bf68	0.12145883
38	0x3d0e5564	0.034749404
39	0xbe0ff2aa	-0.14057413
40	0xbdfa96da	-0.12235804
41	0x3c923f58	0.01785247
42	0x3da6c5cc	0.081431955
43	0xbdc40719	-0.09571666
44	0xbe80e598	-0.25175166
45	0x3df3180e	0.118698224
46	0x3d67ba80	0.056574345
47	0xbe937824	-0.28802598
48	0x3a35c800	0.00069344044
49	0xbd6edf0a	-0.058318175
50	0xbe409e51	-0.18810393
51	0xbe0d0bdb	-0.13774054
52	0xbd6c02aa	-0.05761973
53	0x3dd8f411	0.10593427
54	0xbe4e51df	-0.20148419
55	0x3dd2df85	0.10296539
56	0xbe37fa45	-0.17966564
57	0x3dbd9359	0.0925662
58	0xbdb5ea1a	-0.08882542
59	0xbd8f6f94	-0.07003704
60	0x3d9c0ce4	0.07619646
61	0x3d777d64	0.060422316
62	0xbea161d8	-0.3151996
63	0xbec7bfce	-0.39013523

weight f4 [96, 288]
0	0xbd176031	-0.03695697
1	0xbd3833d5	-0.044971306
2	0x3cd25e62	0.02567977
3	0x3d1718cf	0.036888894
4	0xbd509bb4	-0.05092974
5	0xbc3a5f88	-0.0113753155
6	0x3d17a9ab	0.037027042
7	0xbbdeab10	-0.0067952946
8	0xbc323a3c	-0.010878142
9	0xbd3dc71b	-0.04633246
10	0x395cb700	0.00021049008
11	0xbb13c9a0	-0.0022550598
12	0x3cf329f2	0.029683087
13	0xbcbebc0e	-0.02328303
14	0x3c886636	0.0166503
15	0xbd4335e1	-0.047658805
16	0x3c573c7c	0.013136979
17	0x3d6349e9	0.055490408
18	0xbc4abc60	-0.012374014
19	0x3811e800	3.478676e-05
20	0x3ca38e32	0.019965265
21	0xbd27eac6	-0.04099538
22	0xbc6a032c	-0.014282983
23	0xbd1c5542	-0.038167246
24	0xb9618c00	-0.00021509826
25	0xbc217d80	-0.009856582
26	0xbd387074	-0.04502912
27	0xbaeaba20	-0.0017908253
28	0x3cf10f52	0.02942625
29	0x3d33fa95	0.043940146
30	0xbd06f997	-0.03295287
31	0x3d57e1d9	0.05270562
32	0x3d57ddfb	0.05270193
33	0x3b32ca90	0.0027281381
34	0x3c051554	0.008122761
35	0x3d611c07	0.05495837
36	0x3d47319d	0.0486313
37	0x3b1afb80	0.002364844
38	0xbd45aecf	-0.048262414
39	0xbd2de41d	-0.042453874
40	0x3d2a9fd3	0.041656327
41	0xbcd1db7c	-0.025617354
42	0x3c3a8df4	0.011386383
43	0x3d28f6cf	0.041251
44	0x397f5100	0.0002434887
45	0x3c54fb44	0.0129993595
46	0xbd58642e	-0.052829914
47	0xbcd7645e	-0.026292976
48	0x3bd1cd0a	0.0064026164
49	0x3d4661c7	0.04843309
50	0xbd6dedb9	-0.058088038
51	0x3c15e454	0.009148676
52	0x3c9709ee	0.018437352
53	0x3d45eb17	0.048319902
54	0x3d6a8b95	0.057262022
55	0x3d47915d	0.048722614
56	0x3d53e151	0.05172855
57	0xbd001aaa	-0.03127543
58	0x3c2eea5c	0.010675993
59	0x3d6d05ad	0.05786674
60	0x3cd2baf2	0.025723908
61	0x3d178a53	0.03699715
62	0xbce9d310	-0.028543025
63	0x3d181cb7	0.03713676
64	0x3d6245b3	0.05524225
65	0x38d6000a	0.000102043225
66	0x3d34f8e9	0.04418269
67	0xbd37cba5	-0.044871945
68	0x3d6a5c47	0.05721691
69	0xbcefb364	-0.029260345
70	0x3d0f513d	0.034989584
71	0x3d2ea861	0.042641047
72	0x3d33a6a3	0.04386009
73	0xbd1f4eec	-0.038893625
74	0xbc41d9e0	-0.011831731
75	0x3d215731	0.039389793
76	0xbd5ee50d	-0.05441766
77	0x3c685c5c	0.014182176
78	0x3d59daa0	0.053187013
79	0x3d362729	0.04447094
80	0x3ce0ce46	0.027442109
81	0xbcbe4d4c	-0.023230217
82	0x3c01091c	0.007875707
83	0x3d6fb56f	0.058522638
84	0xbbf33988	-0.0074226297
85	0x3cea9f72	0.028640483
86	0xbb9f44d8	-0.0048605017
87	0x3d56a2e1	0.052401427
88	0xbd63155f	-0.055440303
89	0x3ce81482	0.028330091
90	0x3d0fcfed	0.035110403
91	0x3cbcc1ea	0.023041684
92	0x3d0ef597	0.03490218
93	0xbd4f83d4	-0.05066283
94	0xbc4c7648	-0.012479372
95	0x3cc93ad2	0.02456418
96	0x3d1d9fc9	0.03848246
97	0x3d1547d5	0.036445457
98	0xbd471692	-0.04860551
99	0x3ceb6b5e	0.02873772
100	0x3ce5ca52	0.028050575
101	0xbd30aa29	-0.043131027
102	0xbd56dd9c	-0.052457437
103	0xbd005be8	-0.03133765
104	0xbc99ccde	-0.018774446
105	0xbd5f5aa1	-0.05452979
106	0xbc964894	-0.018345155
107	0xbba4bec8	-0.0050276257
108	0xbcd75d2c	-0.026289545
109	0x3d504b1a	0.050852872
110	0x3caa3c52	0.020780716
111	0xbd1fc30e	-0.039004378
112	0xbce99553	-0.028513586
113	0x3c77bb54	0.015120346
114	0x3cff802e	0.03118905
115	0xbd5a1f1c	-0.053252324
116	0xbc6882dc	-0.014191356
117	0x3d29613d	0.0413525
118	0xbd4c0efc	-0.049818978
119	0x3c92de52	0.017928276
120	0xbd3a623c	-0.04550384
121	0x3d4835b1	0.04887933
122	0x3d072b95	0.033000547
123	0xbd2ffcf8	-0.04296586
124	0x3cb4cc56	0.022070091
125	0x3c48889c	0.012239601
126	0xbd3ea7f0	-0.046546876
127	0xbd52b5b5	-0.05144282
128	0xbd3ac3c5	-0.045596857
129	0x3cc28206	0.02374364
130	0xbccce676	-0.025012236
131	0x3d361781	0.04445601
132	0x3a8d26c0	0.0010768995
133	0x3d3d3ab7	0.046198573
134	0xbd1a0d38	-0.037610263
135	0x3d6dc083	0.05804492
136	0x3d4d6251	0.05014259
137	0x3cb349a6	0.021885704
138	0x3d489173	0.048966836
139	0xbd1c2888	-0.03812459
140	0xba88d340	-0.0010438934
141	0xbb77ed70	-0.0037830733
142	0xbb595180	-0.003316015
143	0x3b464860	0.0030255541
144	0xbd49ffbe	-0.04931616
145	0xbd3bd990	-0.04586178
146	0xbafb3340	-0.0019165054
147	0xbd696b59	-0.05698714
148	0x3ce6c163	0.028168386
149	0xbcf7b5de	-0.030238088
150	0xbcd1a7b8	-0.02559267
151	0xbc10e079	-0.008842581
152	0x3d75a08b	0.05996756
153	0xbd00d39e	-0.031451814
154	0x3d76dac7	0.060267236
155	0x3d4060af	0.046967205
156	0x3bf0ad47	0.007344875
157	0x3cfed635	0.031108001
158	0x3d2c196a	0.042016424
159	0x3d5c3d2b	0.05376927
160	0x3d67d919	0.056603525
161	0x3ba72132	0.0051003927
162	0x3cfa1fb1	0.03053269
163	0x3b941fff	0.004520416
164	0xbd3239eb	-0.043512266
165	0x3cf48882	0.029850248
166	0xbd5a1ec7	-0.053252008
167	0xbd343ed3	-0.044005226
168	0x3d204837	0.03913137
169	0xbd62c22b	-0.055360954
170	0xbc3cade7	-0.011516071
171	0x3cbbb67f	0.02291417
172	0xbb70c5aa	-0.003673891
173	0x3cdb3f92	0.026763711
174	0x3d2d2aa2	0.042276986
175	0x3d47905a	0.04872165
176	0xbc5e89e1	-0.013582678
177	0x3d500f1a	0.050795652
178	0xbd0285ab	-0.031865757
179	0x3d1fe45e	0.039036147
180	0xbd26c67b	-0.04071663
181	0x3c93425e	0.017975982
182	0x3c6bb1bc	0.014385637
183	0xbcdec796	-0.02719478
184	0x3d0aadf8	0.033857316
185	0xbd2921e4	-0.041292086
186	0x3cfb9267	0.030709459
187	0xbd411026	-0.04713454
188	0x3d33e363	0.043918025
189	0x3cbffb71	0.023435326
190	0x3be0e06a	0.0068626897
191	0xbc4a5357	-0.012348971
192	0x3d0cf7ec	0.034416124
193	0xbc40516f	-0.011738165
194	0xbd306fd9	-0.043075416
195	0x3d344ce0	0.044018626
196	0x3d0ba918	0.034096807
197	0xbd1441d3	-0.036195587
198	0x3d22696a	0.039651312
199	0xbbc2808c	-0.005935734
200	0xbd1387cd	-0.03601818
201	0xbd120090	-0.035645068
202	0x3c00982a	0.007848779
203	0x3d6bff37	0.05761644
204	0xbd3fd16b	-0.046830576
205	0x3cfcc4d4	0.030855574
206	0xbd2655d5	-0.0406092
207	0xbc996f51	-0.018729838
208	0xbcee6533	-0.02910099
209	0x3d73dcca	0.059536733
210	0x3a69ddaf	0.0008921278
211	0x3b7f80b5	0.0038986627
212	0xba6bec32	-0.00089997344
213	0xbd1e71c6	-0.03868272
214	0xbcb2ceb0	-0.021827072
215	0x3c2ba358	0.010475956
216	0xbce9235b	-0.028459242
217	0xbd3d3fe0	-0.046203494
218	0xbc9b48ff	-0.018955706
219	0x3d3f24c9	0.04666594
220	0x3c6cc33d	0.014450845
221	0x3cb4f526	0.022089552
222	0xbc8140ec	-0.015778027
223	0x3b2cb395	0.0026352156
224	0xbc898c5d	-0.016790563
225	0x3cc4d9b3	0.024029588
226	0xbd4b190a	-0.049584426
227	0x3cc23734	0.023707964
228	0xbc417778	-0.011808269
229	0xbd3e2f14	-0.046431616
230	0xbd3a6884	-0.04550983
231	0x3d0bf77d	0.03417157
232	0xbd598c50	-0.053112328
233	0x3c7728f4	0.015085448
234	0xbc13326c	-0.0089841895
235	0xbc9d8c62	-0.019231979
236	0x3d102a3d	0.03519653
237	0x3ce1c942	0.027561788
238	0xbd15ccc4	-0.036572233
239	0x3cbd513a	0.02311002
240	0xbb4daaf0	-0.0031382404
241	0x3cae3617	0.021266026
242	0xbd02fda8	-0.031980187
243	0xbd111572	-0.035420842
244	0xbc51d0e4	-0.012806151
245	0x3d4d213d	0.050080527
246	0xbbea0ca0	-0.0071426183
247	0x3d2af5ff	0.041738506
248	0xbbed5a38	-0.007243421
249	0x3cdb5f96	0.026778977
250	0xbcee7474	-0.029108264
251	0xbc98a588	-0.018633619
252	0xbc9f181e	-0.01942068
253	0x3d20ce21	0.03925908
254	0x3d0ba4d1	0.034092728
255	0x3d65f087	0.056137588

bias f4 [96]
0	0x3d6ec9b0	0.058297813
1	0x3db8f4f5	0.09031097
2	0xbc972c3c	-0.01845371
3	0xbd525412	-0.051349707
4	0xbd3df8bd	-0.046379793
5	0xbcb237af	-0.021755068
6	0xbca6e2ce	-0.02037182
7	0xbd563bfe	-0.052303307
8	0x3d69084f	0.05689269
9	0xbd0960d6	-0.033539616
10	0xbd3b13b9	-0.045673106
11	0xbd14e9c3	-0.036355745
12	0x3d451dc4	0.04812409
13	0x3d1407c3	0.036140215
14	0x3d9d6e45	0.07687048
15	0x3cf1cd25	0.029516766
16	0xbd455c65	-0.048183817
17	0xbb1a07ca	-0.0023503178
18	0x3cdb53a4	0.026773281
19	0xbd63d848	-0.055626184
20	0x3d3740b3	0.044739436
21	0x3b74ff19	0.0037383495
22	0x3cfcd4ea	0.030863244
23	0xbc3fc375	-0.011704315
24	0x3da5b082	0.08090307
25	0xbcfa202f	-0.030532924
26	0x3d0a01dd	0.033693183
27	0xbc3cc4e0	-0.011521548
28	0xbcfbf9de	-0.030758794
29	0xbcdcc370	-0.02694866
30	0x3d1b33b9	0.037891123
31	0xbbc58b18	-0.006028544
32	0x3cf4163e	0.029795762
33	0xbd460071	-0.048340265
34	0xbce638b7	-0.028103216
35	0xbd651762	-0.055930503
36	0xbcdd6f8c	-0.027030729
37	0x3d09818c	0.03357081
38	0x3d02fc4d	0.031978894
39	0x3d01a83e	0.03165459
40	0x3cd947f1	0.026523562
41	0x3b262e7a	0.0025357292
42	0x3d2d5ea8	0.0423266
43	0x3ac38333	0.001491642
44	0x3d81f722	0.06345965
45	0x3db21318	0.08695048
46	0xbc61f22f	-0.013790651
47	0xbd3d4c23	-0.046215188
48	0x3cdb4162	0.026764575
49	0xbd461872	-0.048363157
50	0x3d3f71b5	0.0467393
51	0x3dac6905	0.084184684
52	0x3c956e4c	0.01824107
53	0x3d75575e	0.059897773
54	0x3da35075	0.0797433
55	0x3d07581a	0.033043005
56	0xbd11f496	-0.035633646
57	0x3d4a27a6	0.049354218
58	0xbc0e4a1c	-0.008684661
59	0x3d9aa052	0.0755011
60	0xbc95e45a	-0.018297363
61	0xbd35bbe8	-0.044368654
62	0xbc824ad7	-0.015904827
63	0xbd0842b1	-0.033266727
64	0xbd660161	-0.05615366
65	0xbb42a612	-0.0029701036
66	0xbcd80ec8	-0.026374236
67	0xbc9e694e	-0.019337323
68	0xbbd29239	-0.0064261225
69	0x3d8f18a6	0.06987123
70	0xbacf079c	-0.0015795114
71	0xbcad3c0b	-0.021146795
72	0x3d8d3adc	0.06895992
73	0x3da2665b	0.07929679
74	0xbd562214	-0.052278593
75	0xbcffcb7b	-0.031224957
76	0xbc956deb	-0.01824089
77	0xba6456e4	-0.00087104575
78	0x3cadefc6	0.021232497
79	0x389cae4c	7.471125e-05
80	0xbd1e1fa7	-0.038604405
81	0xbd1d5c0c	-0.03841786
82	0xbc075dea	-0.008262137
83	0x3d5da6d1	0.054114167
84	0xbd04b213	-0.032396387
85	0xbcd9f477	-0.026605828
86	0xbb03f9dd	-0.0020137944
87	0xbd7a76ea	-0.06114856
88	0xbb82e8ad	-0.0039950223
89	0xbd61d61f	-0.055135842
90	0xbcbefbe3	-0.023313468
91	0xbc7b66c7	-0.015344328
92	0xbd6ceb20	-0.05784142
93	0xbd53ec43	-0.05173899
94	0xbd0e4ace	-0.034739308
95	0x3dc39cb5	0.09551374

weight f4 [96, 96]
0	0xbd308c8b	-0.043102782
1	0x3cf49053	0.029853975
2	0xbd5817eb	-0.052757185
3	0x3cfa819a	0.030579377
4	0xbd162116	-0.036652647
5	0xbdbc9370	-0.09207809
6	0x3d040688	0.03223279
7	0x3dbcd98a	0.0922118
8	0x3dc7c48c	0.09754285
9	0x3dbe04a7	0.09278231
10	0xbdb029e0	-0.08601737
11	0xbcb48864	-0.022037692
12	0xbd1b4935	-0.037911613
13	0x3c9fbe2d	0.019499863
14	0xbd845122	-0.06460787
15	0xbd4dcb8b	-0.05024294
16	0xbd1fee44	-0.039045587
17	0x3d3a352f	0.045460876
18	0xbdb5783c	-0.088608235
19	0xbc41f8d0	-0.011839107
20	0x3d91bdce	0.071162805
21	0x3b930dd0	0.0044877306
22	0x3dd077a6	0.10179071
23	0x3dbb5d56	0.09148662
24	0xbdcf6fbe	-0.10128735
25	0xbd964ac2	-0.07338478
26	0x3dcdb196	0.100436375
27	0xbc3f0f62	-0.011661382
28	0xbda8c2d0	-0.082402825
29	0x3da11992	0.07866205
30	0x3d273967	0.040826228
31	0xbdab8ec2	-0.08376838
32	0x3cab4338	0.020906076
33	0xbd02ff1a	-0.031981565
34	0xbd9cf0c7	-0.07663112
35	0xbd7f30e4	-0.062302485
36	0x3ced919f	0.029000102
37	0xbd33a56a	-0.043858923
38	0xbb4945e0	-0.0030711815
39	0xbd276fbb	-0.04087804
40	0x3d8bac45	0.06819967
41	0xbdaa13b0	-0.08304536
42	0xbd9da0ee	-0.076967105
43	0x3d8d0c3d	0.068871
44	0xbc80580c	-0.015666984
45	0x3d650bcf	0.055919465
46	0x3d8ae1ec	0.067813724
47	0xbda4b412	-0.08042158
48	0xbcd0dec2	-0.025496844
49	0x3d744a04	0.0596409
50	0x3d389fd2	0.04507429
51	0x3d338809	0.043830905
52	0xbdbd3e6d	-0.092404224
53	0xbccb3612	-0.024806056
54	0xbb32f538	-0.0027306806
55	0x3c7f0890	0.015566006
56	0xbdb6563b	-0.08903166
57	0xbd9a658b	-0.07538899
58	0xbd522752	-0.05130703
59	0x3d8bf4aa	0.06833775
60	0xbd2fd861	-0.042930964
61	0x3bf23655	0.007391731
62	0xbcfb5ecc	-0.030684851
63	0x3d7d8503	0.061894428
64	0xbd9b190a	-0.07573135
65	0x3b7a55c1	0.0038198086
66	0xbd1b0364	-0.03784503
67	0x3cf995a8	0.03046687
68	0xbb749880	-0.0037322342
69	0x3d03478a	0.032050647
70	0x3d09fb3f	0.033686873
71	0x3d7d9aa4	0.061915055
72	0xbd646078	-0.055756062
73	0x3cd977ab	0.02654632
74	0x3cb68768	0.022281364
75	0xbba68323	-0.0050815507
76	0xbd37ef15	-0.04490574
77	0xbcd1f8ee	-0.025631394
78	0xbc78c866	-0.015184497
79	0x3d3d7d58	0.046262115
80	0x3d7b0c6b	0.06129114
81	0xbd8acbad	-0.06777129
82	0xbdccde9a	-0.100033954
83	0xbb21519a	-0.0024615289
84	0x3d18734c	0.03721933
85	0xbda0b220	-0.07846475
86	0xbd99332e	-0.07480465
87	0xbd0cbc8d	-0.034359504
88	0xbcfbd808	-0.03074266
89	0xbda7d28a	-0.08194454
90	0xbdb068de	-0.08613752
91	0x3dc5ab96	0.09651868
92	0xbc076be0	-0.0082654655
93	0xbbf42440	-0.0074506104
94	0x3d854a12	0.065082684
95	0xbcf2ac96	-0.029623311
96	0x3aa48ca7	0.0012554125
97	0xbda4a5a6	-0.080394074
98	0x3cc62f99	0.024192618
99	0xbd3b1ace	-0.04567986
100	0xbdd0beb9	-0.101926275
101	0x3d23ba7f	0.03997278
102	0x3d067e5c	0.03283535
103	0xbd9bd9e2	-0.07609917
104	0x3d8e8ef5	0.06960861
105	0xbdbe042f	-0.09278142
106	0x3d804813	0.06263747
107	0x3cd220d8	0.025650427
108	0x3cfb0c6c	0.030645572
109	0x3d8577d0	0.06516993
110	0xbd553741	-0.052054647
111	0xbd15acd5	-0.03654178
112	0x3d9752b6	0.07388823
113	0xbd91b2bc	-0.07114169
114	0xbd7c1b83	-0.061549675
115	0xbc7ad698	-0.015309952
116	0x3da10d57	0.078638725
117	0xbbad11e6	-0.0052816747
118	0x3d467071	0.048447076
119	0x3cc392d9	0.023873733
120	0x3dc97131	0.09836043
121	0x3da2dfbf	0.079528324
122	0x3d8b93d4	0.06815305
123	0x3d52775a	0.051383354
124	0x3c6dbe2b	0.014510672
125	0x3db81e08	0.08990103
126	0x3db55588	0.088542044
127	0xbda3b1b0	-0.079928756
128	0x3dcc20b1	0.09967173
129	0xbd707e9a	-0.058714487
130	0x3d41ccf1	0.047314588
131	0xbd99dcb5	-0.075128
132	0xbd8de88c	-0.069291204
133	0x3d9cf73e	0.07664345
134	0x3dc9c019	0.09851093
135	0x3da7626f	0.081730716
136	0x3bd0d4b0	0.0063730106
137	0x3929adef	0.00016181891
138	0xbd24f11e	-0.04026901
139	0x3ce5c973	0.02805016
140	0x3cf4d1e4	0.02988524
141	0x3ca51307	0.020150675
142	0x3d732d6c	0.05936949
143	0x3cbc9498	0.023020074
144	0x3dc3a298	0.09552497
145	0xbd0015ae	-0.031270675
146	0xbd030e6c	-0.031996176
147	0xbd6c557b	-0.057698708
148	0xbcfb689b	-0.030689528
149	0xbdc525be	-0.096263394
150	0x3d1e8a5e	0.038706176
151	0x3d462f9c	0.048385248
152	0x3d5619bc	0.052270636
153	0x3dc7fc89	0.09764964
154	0xbc802cbc	-0.015646331
155	0xbd7719fe	-0.060327522
156	0xbc900374	-0.017579772
157	0xbdb2891f	-0.0871756
158	0x3d9addbe	0.07561825
159	0x3d6a3e13	0.057188105
160	0x3c0c29ad	0.008554858
161	0x3d4ad3e1	0.04951847
162	0x3cdfbbd8	0.02731125
163	0xbdc09372	-0.09403123
164	0xbd5197e9	-0.051170263
165	0xbdb73aaf	-0.0894674
166	0x3cc3e8c9	0.023914712
167	0x3ce0c908	0.02743961
168	0x3d9babfe	0.07601164
169	0xbd6a71a2	-0.057237275
170	0xbd87d2f0	-0.0663203
171	0x3d8ce6bd	0.06879947
172	0xbdbf518d	-0.093417265
173	0xbdc3e738	-0.09565586
174	0xbda1b7a6	-0.07896356
175	0x3c5e9f00	0.013587713
176	0xbda115ee	-0.07865511
177	0x3d94ce2e	0.07265888
178	0xbc98dae5	-0.018659065
179	0x3c4b49d9	0.012407743
180	0xbd5f1121	-0.054459695
181	0xbd4a5f78	-0.049407452
182	0xbdb1441f	-0.08655571
183	0x3b7198c0	0.0036864728
184	0x3d80768e	0.062726125
185	0x3dc7ee68	0.09762269
186	0xbdc2de60	-0.09515071
187	0xbc9fb725	-0.01949651
188	0x3d7f635c	0.062350616
189	0xbd73c90c	-0.059517905
190	0x3b73546c	0.0037129177
191	0x3afc09f6	0.0019229043
192	0xbd14b4f8	-0.036305398
193	0x3d2682f1	0.04065222
194	0x3d3e14ad	0.046406437
195	0x3cf9b881	0.030483486
196	0x3d73b8a6	0.059502266
197	0x3dc6cd83	0.09707167
198	0x3cf6c21b	0.030121854
199	0x3a77114c	0.00094248797
200	0x3d8895fb	0.066692315
201	0x3d9f0ee5	0.07766513
202	0xbda19abe	-0.07890843
203	0x3d4792fb	0.048724156
204	0x3c9d37be	0.019191619
205	0xbd923dee	-0.071407184
206	0xbc7b04e5	-0.015320991
207	0xbca8db22	-0.020612303
208	0x3c6fc84b	0.014635156
209	0xbda3bf3d	-0.0799546
210	0xbd15e2a9	-0.036593113
211	0x3cb2e7b4	0.021839
212	0x3b7dd9d7	0.003873458
213	0x3d420a26	0.04737296
214	0xbceb6f0e	-0.028739478
215	0xbda0d3fd	-0.078529336
216	0x3ce39b44	0.027783997
217	0x3d0b1f72	0.033965535
218	0xbce3f16d	-0.027825082
219	0x3d80aebf	0.0628333
220	0x3b654c44	0.0034988085
221	0xbd03b0bf	-0.03215098
222	0x3b6d838e	0.0036241743
223	0x3d393fb4	0.045226768
224	0x3d058acf	0.03260308
225	0xbdaa4627	-0.08314162
226	0xb9f53d68	-0.00046775793
227	0x3ccbbc1e	0.024869975
228	0x39f29865	0.0004627138
229	0xbd3a3423	-0.045459878
230	0xbd9de72a	-0.07710107
231	0xbc959d04	-0.018263347
232	0x3cbb4398	0.02285938
233	0x3d897a31	0.06712759
234	0x3d93a452	0.07209076
235	0x3d5d0275	0.05395742
236	0xbd070b4f	-0.03296977
237	0xbd0f2c75	-0.034954507
238	0x3dc70caa	0.09719212
239	0x3b9aaafd	0.0047200904
240	0xbdb1fffb	-0.086914025
241	0xbd740827	-0.059578087
242	0x3cd65510	0.026163608
243	0xbd0b001c	-0.03393565
244	0x3bb1cc6f	0.0054259817
245	0x3d5d22d7	0.053988304
246	0x3d6d0c77	0.057873216
247	0xbd2225e4	-0.039586917
248	0x3c68145e	0.014165012
249	0xbc7ac47d	-0.0153056355
250	0x3d350846	0.044197343
251	0xbd82c508	-0.06385237
252	0xbd39fdb7	-0.045407977
253	0xbd4bbce7	-0.0497407
254	0xbd9f3aed	-0.07774911
255	0xbdce0620	-0.10059762

bias f4 [96]
0	0xbd9dcb90	-0.07704842
1	0xbd281b96	-0.041041933
2	0x3d8bbdeb	0.06823333
3	0x3e3aa0e5	0.18225439
4	0x3d071f43	0.032988798
5	0xbd4d2c26	-0.05009093
6	0x3d659cf6	0.056057893
7	0xbcf21d9b	-0.029555133
8	0x3e5be101	0.21472551
9	0x3e260012	0.16210964
10	0x3d185721	0.037192468
11	0x3c4b930d	0.012425196
12	0x3d775ab7	0.060389247
13	0x3d9d2d54	0.07674661
14	0xbdcb176d	-0.099165775
15	0x3d9ae37a	0.07562919
16	0xbd965a97	-0.073414974
17	0xbc3c016a	-0.0114749465
18	0xbd8f71c0	-0.07004118
19	0x3d698afa	0.057017304
20	0x3e1e5ce4	0.15465122
21	0xbd1a2543	-0.03763319
22	0xbd9f4594	-0.07776943
23	0x3cc15a87	0.023602737
24	0x3e2b31c3	0.16718201
25	0x3d9f5058	0.07778996
26	0x3d0202bf	0.0317409
27	0xbd6aa68c	-0.057287738
28	0x3d455347	0.048175123
29	0xbd95d5f1	-0.07316197
30	0xbd882451	-0.06647552
31	0xbd486617	-0.048925485
32	0xbdc699d9	-0.09697313
33	0xbd63b4f1	-0.05559248
34	0x3d860b56	0.06545131
35	0xbd274f7d	-0.04084729
36	0xbd47af15	-0.048750956
37	0x3e6b32f4	0.22968656
38	0x3dc50805	0.0962067
39	0xbdcbca2b	-0.0995067
40	0xbd130346	-0.035891794
41	0x3c9135d7	0.017725868
42	0xbbf3a5e2	-0.0074355463
43	0x3d4ab886	0.04949238
44	0xbd375f77	-0.044768777
45	0xbd27612f	-0.040864166
46	0x3c51c7f4	0.01280402
47	0x3da12d3d	0.07869957
48	0x3dbdcbad	0.09267364
49	0xbca474c3	-0.020075208
50	0x3e21124e	0.15729639
51	0xbd82a4f7	-0.06379121
52	0x3d1af88a	0.03783468
53	0xbbfaed40	-0.007657677
54	0xbd4b6c79	-0.049663994
55	0x3e6429a0	0.22281504
56	0x3e07483c	0.13211149
57	0x3e3df3b4	0.18549997
58	0xbd2c20a3	-0.042023312
59	0x3e3744b5	0.17897303
60	0x3d722b5d	0.059123386
61	0x3dbd0e1d	0.092312075
62	0x3dc33094	0.0953075
63	0x3e074c33	0.13212661
64	0xbd368aba	-0.044565894
65	0x3d7f0085	0.062256355
66	0x3d3ea224	0.046541348
67	0xbda0d809	-0.078537054
68	0x3baf74a5	0.0053544813
69	0xbd1c4297	-0.038149443
70	0xbdb4b2be	-0.08823155
71	0x3cac88d1	0.021061333
72	0x3cb10064	0.021606632
73	0xbc63c4a0	-0.0139018595
74	0x3e26b48f	0.16279815
75	0xbc915074	-0.017738558
76	0xbd93975b	-0.07206603
77	0xbce9df99	-0.028549002
78	0x3d8aced3	0.0677773
79	0x3c4b004e	0.012390209
80	0x3da422ac	0.08014426
81	0xbd70bacb	-0.05877189
82	0x3d9545dc	0.07288715
83	0xbd6b6650	-0.05747062
84	0x3ba51710	0.0050381497
85	0xbb45b700	-0.003016889
86	0xbda90216	-0.08252351
87	0x3c185084	0.00929654
88	0x3db4239f	0.08795857
89	0xbd0f079c	-0.034919366
90	0xbd368c78	-0.044567555
91	0xbd298f7d	-0.041396607
92	0xbdbc172c	-0.09184107
93	0xbd0be288	-0.034151584
94	0xbcca850d	-0.024721647
95	0xbcbeaf28	-0.02327688
