rl2024/exercise4/DDPG--racetrack-v0--critic_hidden_size:[96, 96, 96]_policy_hidden_size:[32, 32, 32]--2.pt (torch, 968515 bytes, 56 tensors)

weight f4 [32, 288]
0	0x3d116f81	0.03550673
1	0xbd3c43d3	-0.04596312
2	0xbd4a3cae	-0.049374275
3	0x3d640af5	0.055674512
4	0x3d4fd0e1	0.05073631
5	0xbc6f0bf0	-0.014590248
6	0xbd05e932	-0.032693096
7	0xbccdb8aa	-0.025112469
8	0xbafb2400	-0.0019160509
9	0xbbfcf790	-0.0077199414
10	0x3cd1959a	0.02558403
11	0xbce6e475	-0.028185109
12	0xbd0befc1	-0.034164194
13	0x3d438575	0.047734696
14	0x3d1910a3	0.03736938
15	0x3d240e0b	0.040052455
16	0x3d70a897	0.05875453
17	0x3c94466a	0.018099982
18	0x3d277c1f	0.040889855
19	0x3c937c62	0.018003646
20	0x3d16de75	0.036833245
21	0xbd46161c	-0.04836093
22	0xbcd7e3c0	-0.026353717
23	0x3d3e9d45	0.046536703
24	0xbba9a2b8	-0.0051768683
25	0x3d5397b9	0.051658366
26	0xbb9c6128	-0.004772324
27	0x3c1c9a2c	0.009558242
28	0x3cf576c2	0.029963855
29	0xbd6eff56	-0.058348976
30	0xbd6e88fa	-0.0582361
31	0xbbf5bbf0	-0.0074992105
32	0x3c7e50dc	0.015522208
33	0x3d022ff7	0.031784024
34	0xbd5c26ce	-0.053747945
35	0x3cf3e162	0.029770557
36	0xbd53806b	-0.05163614
37	0xbd2f924e	-0.042864136
38	0x3cf82782	0.030292276
39	0xbd21ee61	-0.039533976
40	0xbd18fcac	-0.03735034
41	0x3c42c0a4	0.011886749
42	0xbd60b8ed	-0.05486386
43	0x3d5b0c71	0.053478662
44	0xbd16dbbc	-0.03683065
45	0x3c8f1612	0.017466579
46	0xbc4a2560	-0.012338012
47	0xbc6dd978	-0.014517181
48	0xbbab5bd8	-0.0052294545
49	0x3cd7e402	0.02635384
50	0xbc9294d8	-0.01789324
51	0x3d0fbbdf	0.035091277
52	0xbbaa4aa8	-0.005196888
53	0xbbc74db0	-0.006082259
54	0xbd3ffbee	-0.04687112
55	0x3c6462b4	0.013939548
56	0x3d5ac5cf	0.0534113
57	0x3c8c5d0a	0.017134208
58	0xbd3c3b46	-0.045954965
59	0x3d03453f	0.03204846
60	0xb9956500	-0.00028494745
61	0xbd353534	-0.04424019
62	0xbb8088b0	-0.0039225444
63	0x3d43fc41	0.04784799
64	0xbd0a4ac6	-0.033762716
65	0xbd155268	-0.03645554
66	0x3d2ed5cd	0.042684365
67	0xbc806b12	-0.015676055
68	0xbd5d8b64	-0.05408801
69	0x3c0a46bc	0.008439716
70	0xbd6dbe82	-0.05804301
71	0x3d3d21f7	0.04617497
72	0x3d4a4e09	0.049390826
73	0xbcd20aca	-0.02563991
74	0x3c9a7462	0.018854324
75	0xbc421d48	-0.0118478015
76	0xbcec4247	-0.028840197
77	0x3d0480df	0.032349464
78	0xbb451d14	-0.0030077146
79	0x3c03051c	0.007996824
80	0x3c700624	0.014649902
81	0x3cbfbdb2	0.023405883
82	0x3c2303fc	0.00994968
83	0x3d0055c5	0.031331796
84	0x3d34d503	0.044148456
85	0xbd368277	-0.044558015
86	0x3d5d081d	0.053962816
87	0x3d04fa19	0.032465074
88	0x3cc66efe	0.024222847
89	0x3bc725b8	0.0060774945
90	0xbc14461c	-0.0090499185
91	0x3c98c05a	0.018646408
92	0xbb006a90	-0.0019594766
93	0x3d6aaa07	0.057291057
94	0xbd06fd90	-0.03295666
95	0x3bba5fd8	0.005687695
96	0xbd368f1e	-0.04457008
97	0xbd56cf50	-0.052443802
98	0xbcb81e4c	-0.022475384
99	0x3d527459	0.05138049
100	0xbb2a0c50	-0.002594728
101	0xbd2b3b62	-0.04180468
102	0x3b844db8	0.004037585
103	0x3d4adac5	0.04952504
104	0x3a166f80	0.00057386607
105	0x3d3ea193	0.046540808
106	0xbaa939a0	-0.001291085
107	0xbcbc44e6	-0.022982072
108	0xbd4991ca	-0.0492113
109	0xbd5b6cec	-0.053570673
110	0x3d67e42f	0.056614097
111	0xbd27286e	-0.04081004
112	0xbd0ba4d0	-0.034092724
113	0xbca1de76	-0.019759398
114	0x3cbf6542	0.023363713
115	0x3c3a15f4	0.011357773
116	0xbafe85c0	-0.0019418523
117	0xbceebee5	-0.02914376
118	0x3c30f22c	0.010799926
119	0xbd11fd8c	-0.03564219
120	0xbd3c6576	-0.0459952
121	0x3d370c93	0.044689726
122	0x3d205bcd	0.039150048
123	0x3d554475	0.05206724
124	0x3c97c21e	0.01852518
125	0x3c24d9cc	0.010061692
126	0x3c5fe884	0.013666276
127	0xbadf8ea0	-0.0017056055
128	0xbcc963ca	-0.024583716
129	0x39849b80	0.00025292858
130	0x3cbee0e2	0.023300592
131	0xbd2f6844	-0.042824045
132	0x3c541334	0.0129440315
133	0xbcb01e1a	-0.021498729
134	0xbd13301c	-0.035934553
135	0xbd049e1a	-0.03237734
136	0x3c8a952e	0.016916838
137	0xbd55ee04	-0.052228943
138	0xbd079d18	-0.0331088
139	0xbca120ee	-0.019669022
140	0xbd1689b6	-0.036752425
141	0x3c349ff4	0.011024464
142	0x3c91d36e	0.017801013
143	0xbb4b59d0	-0.0031028874
144	0x3c344989	0.01100386
145	0xbd5cd861	-0.053917293
146	0xbd5f11df	-0.054460403
147	0xbd0e0edd	-0.034682143
148	0xbd270cb2	-0.04078359
149	0x3d4302a5	0.047609944
150	0xbcd4c931	-0.025974842
151	0x3ccb75bf	0.02483642
152	0x3cfc1708	0.0307727
153	0xbd30837b	-0.04309414
154	0xbc9338f0	-0.017971486
155	0xbc10151a	-0.0087940935
156	0x3d2bebf3	0.041973066
157	0xbd44a26f	-0.04800647
158	0xbcb329f2	-0.021870587
159	0xbd0193fe	-0.031635277
160	0xbc942947	-0.018086089
161	0x3ca0a055	0.019607702
162	0x3d4135c4	0.047170416
163	0xbbb5eee4	-0.0055521596
164	0x3d204005	0.039123554
165	0x3cfa2510	0.03053525
166	0xbd074e97	-0.033033933
167	0xbca6ecff	-0.02037668
168	0xbd21a4d4	-0.039463833
169	0x3cc552a5	0.02408726
170	0x3bcbaf5c	0.006215973
171	0xbd620a3b	-0.055185538
172	0x3cb5bc48	0.022184506
173	0x3b9c4384	0.0047687907
174	0x3cc0e0b4	0.023544647
175	0xbcd43c81	-0.025907757
176	0x3d0111cd	0.031511117
177	0xbc032841	-0.008005203
178	0xbd3d0a1d	-0.046152223
179	0xbd18e80e	-0.03733068
180	0x3d59c558	0.053166717
181	0xbd2686ee	-0.040656023
182	0x3d4c120e	0.049821906
183	0xbd0defce	-0.034652524
184	0xbcc4a247	-0.024003161
185	0x3c7dccbb	0.015490706
186	0xbd09d327	-0.033648636
187	0xbd39774b	-0.045279782
188	0xbd6fffbc	-0.058593497
189	0xbd23f238	-0.04002592
190	0xbd04f262	-0.032457717
191	0x3c4d6313	0.012535828
192	0xbd1d8671	-0.03845829
193	0x3ca54bd0	0.020177752
194	0xbd2d1baf	-0.04226273
195	0xbcff31e3	-0.031151718
196	0xbd61999c	-0.055078134
197	0x3cbc5604	0.022990234
198	0x3d5c6677	0.053808656
199	0xbcc5135c	-0.024057083
200	0xbc989b7d	-0.01862883
201	0x3d345971	0.04403061
202	0xbd32a857	-0.043617573
203	0xbc7ef62b	-0.015561621
204	0x3d60bf10	0.05486971
205	0xbb5ced0a	-0.0033710622
206	0xbd3e1302	-0.046404846
207	0xbcc1d17c	-0.02365946
208	0xbd6468c1	-0.055763964
209	0xbcfe9869	-0.031078534
210	0xbd0b7a96	-0.034052454
211	0xbd1c571c	-0.03816901
212	0x3c97ef28	0.018546656
213	0x3d02006f	0.031738695
214	0xbd70dd7f	-0.058804985
215	0xbd720181	-0.059083465
216	0x3d075ab1	0.033045474
217	0xbd2f21c2	-0.042756803
218	0xbcf227bd	-0.029559964
219	0xbb7b587f	-0.0038352308
220	0xbd7f2cf8	-0.062298745
221	0x3d2dfc06	0.042476676
222	0x3b64df1f	0.003492303
223	0x3cf91977	0.03040765
224	0x3d1212ed	0.03566258
225	0x3ce92089	0.028457897
226	0x3c92e44e	0.01793113
227	0xbc874ee0	-0.016517103
228	0xbd109382	-0.035296924
229	0x3a5d5a2d	0.0008443918
230	0xbd3a8b03	-0.04554273
231	0x3c8219cf	0.015881447
232	0x3cc835bf	0.02443969
233	0xbd0a330f	-0.0337401
234	0x3d1d86cb	0.038458627
235	0x3c9945e8	0.018710092
236	0x3d1790b6	0.03700324
237	0x3d273835	0.040825088
238	0xbcccdeec	-0.025008641
239	0xbb8da86b	-0.0043230555
240	0xbcb88225	-0.022522995
241	0x3b657422	0.0035011848
242	0xbc7f0674	-0.015565503
243	0xbcfa7a07	-0.030575765
244	0x3d04c0d8	0.032410473
245	0xbccef26a	-0.025262076
246	0x3c129265	0.008946036
247	0xbb898fa8	-0.0041980334
248	0x3cd7d15b	0.026344946
249	0x39ce359e	0.0003933133
250	0xbc395fbf	-0.011314332
251	0x3d513c73	0.05108304
252	0xbbe7c2d1	-0.0070727845
253	0xbc10a70b	-0.008828889
254	0x3bb172be	0.0054152897
255	0x3b08784a	0.002082365

bias f4 [32]
0	0x3c27e161	0.010246606
1	0xbd4800fa	-0.048829056
2	0x3cf87723	0.030330246
3	0xbce910c6	-0.028450381
4	0x3e427698	0.18990552
5	0x3cd9fb6a	0.026609141
6	0xbd63b9ac	-0.055596992
7	0xbcfa1477	-0.030527337
8	0xbbee0517	-0.0072637904
9	0xbb2f8da7	-0.0026787312
10	0x3d5774a0	0.052601457
11	0x3cdaaf0f	0.026694803
12	0xbc708831	-0.014680908
13	0x3bdd7a74	0.0067589823
14	0x3c9ed8bd	0.019390458
15	0xbabd08f0	-0.0014422219
16	0x3d873311	0.06601537
17	0x3cfccf03	0.03086043
18	0x3d0cdf2a	0.034392513
19	0x3e1e9ebe	0.15490243
20	0x3d9ca88c	0.07649335
21	0x3db513eb	0.0884169
22	0xbd656dfb	-0.05601309
23	0xbc5f26ad	-0.013620061
24	0x3e226c13	0.1586154
25	0x3d8cc8b1	0.06874216
26	0x3e1dee3b	0.15422909
27	0xbd221bc8	-0.039577276
28	0x3d4a8dc0	0.04945159
29	0xbd4e1a08	-0.050317794
30	0xbd9d0aac	-0.07668051
31	0x3e39f6ba	0.18160525

weight f4 [32, 32]
0	0x3e1000ca	0.14062801
1	0xbdf51633	-0.11967125
2	0x3d1574dd	0.036488403
3	0x3df6724e	0.12033521
4	0x3e24f5be	0.16109368
5	0x3de37c84	0.11107734
6	0x3cd10435	0.025514701
7	0x3d04c4f1	0.03241438
8	0xbc1c0eb1	-0.009524987
9	0xbd621cde	-0.05520331
10	0x3db48944	0.08815244
11	0x3e109304	0.14118582
12	0x3e0bea10	0.13663507
13	0xbdf64da9	-0.12026531
14	0xbda03d08	-0.07824141
15	0x3e3163e8	0.17323267
16	0xbe254c40	-0.16142368
17	0x3e193bdb	0.1496424
18	0x3d601ff6	0.05471798
19	0xbcd829fb	-0.026387205
20	0xbd264a95	-0.04059847
21	0xbe2f5556	-0.17122397
22	0xbce37136	-0.027763944
23	0xbe2a7e78	-0.16649806
24	0x3e0e4fa8	0.13897574
25	0x3dbaaa9c	0.091145724
26	0xbdfd3157	-0.123629265
27	0xbd82463d	-0.06361053
28	0x3e125506	0.14290246
29	0x3dce73e2	0.10080697
30	0x3deccf6e	0.115630016
31	0x3d0ee489	0.034885917
32	0x3e1c32d2	0.15253761
33	0x3df2183e	0.1182103
34	0x3ddd272b	0.10798486
35	0x3d7817f5	0.060569722
36	0x3d7a84fd	0.061161984
37	0xbda9a45d	-0.08283303
38	0x3d9489a3	0.072528146
39	0xbdc80631	-0.09766806
40	0x3d817e70	0.06322944
41	0xbd9033b7	-0.07041114
42	0xbcc2c091	-0.023773463
43	0xbe1d815f	-0.15381382
44	0x3da617b9	0.081099935
45	0xbb26735b	-0.0025398347
46	0xbdfac576	-0.12244694
47	0xbdf30ecd	-0.118680574
48	0x3dac95de	0.084270224
49	0xbe115dcc	-0.14195937
50	0xbd1dab87	-0.03849366
51	0x3d0ccd8c	0.034375712
52	0xbdc47f49	-0.0959459
53	0xbdf3c1ba	-0.11902185
54	0xbdd88fc5	-0.10574297
55	0x3ddcad4e	0.10775243
56	0xbc48ce30	-0.01225619
57	0xbdc6f0ca	-0.097138956
58	0xbd74557a	-0.05965183
59	0x3e057bc9	0.13035502
60	0x3e0d7e54	0.13817722
61	0xbc4c9363	-0.012486312
62	0xbdb2703e	-0.08712815
63	0xbbb07cc3	-0.0053859665
64	0xbe1eb4fc	-0.15498728
65	0xbdb04e71	-0.086087115
66	0x3d779278	0.060442418
67	0xbd351e0c	-0.044218108
68	0x3e756d2d	0.23967429
69	0xbd6b70f9	-0.057480786
70	0xbcddd766	-0.027080249
71	0x3ccbaf31	0.024863811
72	0x3d1b34a2	0.03789199
73	0x3d339d05	0.043850917
74	0xbe0bb28d	-0.1364233
75	0xbd529403	-0.051410686
76	0x3db80e60	0.08987117
77	0xbd371118	-0.044694036
78	0x3d2242d6	0.03961452
79	0x3dc15e7a	0.09441848
80	0x3e195ea4	0.14977509
81	0xbe08d3ca	-0.13362041
82	0x3d1eb957	0.038750973
83	0x3e7020b0	0.2344997
84	0x3e432f40	0.19060993
85	0x3e3a5be0	0.1819911
86	0x3dadceee	0.08486734
87	0x3e0a65d2	0.13515404
88	0x3e31b025	0.1735235
89	0x3d7bf06d	0.061508585
90	0x3e0e71a4	0.13910538
91	0xbd8af10b	-0.067842565
92	0xbd307ed1	-0.04308969
93	0x3e1cd66c	0.1531617
94	0xbe12202a	-0.14270082
95	0x3de538f9	0.11192507
96	0xbdbeda79	-0.09319014
97	0x3c12ab01	0.008951903
98	0x3dc76cdd	0.09737561
99	0xbdad9219	-0.084751315
100	0xbd0ddc26	-0.034633778
101	0x3bb4aa43	0.005513461
102	0x3c8c5dd8	0.017134592
103	0x3c8f0e3c	0.017462842
104	0xbcfb806c	-0.030700885
105	0xbd9079e8	-0.07054502
106	0xbdba8533	-0.09107437
107	0xbdceb5d0	-0.10093272
108	0x3d64064d	0.05567007
109	0xbe1e5bc1	-0.15464689
110	0x3db619db	0.0889165
111	0xbdaadadb	-0.083425246
112	0xbd8e9795	-0.06962506
113	0x3d565aa2	0.052332528
114	0xbd58ca20	-0.052927136
115	0x3df5873b	0.11988684
116	0xbcfc81c2	-0.030823592
117	0x3c8bed63	0.017080968
118	0xbd326dac	-0.043561623
119	0xbcc94189	-0.024567382
120	0xbcec2a27	-0.028828694
121	0x3d9bb945	0.07603697
122	0x3e338010	0.1752932
123	0x3c843f24	0.016143389
124	0x3e0e998e	0.13925764
125	0xbc691ec6	-0.014228528
126	0xbc802e07	-0.015646948
127	0x3d700196	0.058595262
128	0xbc0b74b6	-0.008511713
129	0xbdb0ad4b	-0.08626803
130	0xbdce2a13	-0.10066619
131	0xbe12b8ed	-0.14328356
132	0x3de89a5e	0.11357568
133	0xbd5574d7	-0.05211338
134	0xbd903d23	-0.07042911
135	0x3dd3951b	0.10331174
136	0x3d115d00	0.035489082
137	0xbde940ce	-0.11389314
138	0x3e16908e	0.1470358
139	0x3e389544	0.1802569
140	0xbda3ded2	-0.08001484
141	0x3e383ae8	0.17991221
142	0xbbc6ded2	-0.0060690427
143	0x3dd804f6	0.10547821
144	0x3e12ca06	0.14334878
145	0xbdb6a44e	-0.089180574
146	0x3e386244	0.18006235
147	0xbd096b0a	-0.033549346
148	0x3db4d482	0.08829595
149	0x3d02291d	0.03177749
150	0xbda81d30	-0.08208692
151	0x3e3b52cc	0.18293303
152	0x3dea0767	0.11427193
153	0x3e1e81e9	0.15479244
154	0x3cb5856d	0.022158349
155	0xbe15fa6d	-0.14646311
156	0x3d948b68	0.07253152
157	0xbd59b2ff	-0.05314922
158	0x3ddc0a67	0.107441716
159	0x3e08daea	0.13364759
160	0xbe2e6f59	-0.17034663
161	0xbc1918e1	-0.0093443105
162	0xbe1e8c7b	-0.15483277
163	0xbdb171cd	-0.08664284
164	0x3e44717f	0.1918392
165	0xbc1ba1b0	-0.0094989985
166	0xbb22c9b0	-0.0024839453
167	0x3d8c3953	0.06846871
168	0xbd901093	-0.07034411
169	0xbe328640	-0.17434025
170	0x3dcd1ae7	0.10014897
171	0xbd879303	-0.06619837
172	0x3cb3e197	0.021958156
173	0x3e371d6c	0.17882317
174	0xbc10a88c	-0.008829247
175	0xbd04f897	-0.032463636
176	0xbdd84de0	-0.105617285
177	0x3d1764d8	0.036961406
178	0x3e2b0a2a	0.16703096
179	0x3d302591	0.043004576
180	0xbd84dfc5	-0.06487993
181	0x3e1ad085	0.15118606
182	0x3ce29117	0.027657075
183	0xbd5e04eb	-0.05420391
184	0x3d39b36e	0.045337133
185	0x3d388ef7	0.045058217
186	0xbcdfa142	-0.027298573
187	0xbd70bb46	-0.058772348
188	0x3e338389	0.17530645
189	0xbdf62fa3	-0.12020805
190	0xbe1ed9b9	-0.15512742
191	0x3e5b62dc	0.2142443
192	0x3d8da94c	0.069170564
193	0xbd831b6c	-0.06401715
194	0x3d5085c0	0.050908804
195	0x3e357ffb	0.17724602
196	0x3bcbe829	0.006222744
197	0xbdffe8d5	-0.12495581
198	0x3cae2d70	0.0212619
199	0xbae1c017	-0.0017223385
200	0x394ca8d8	0.00019517855
201	0x3d65cf42	0.05610586
202	0xbde86a11	-0.113483556
203	0x3e19cbad	0.15019102
204	0xbd8422ba	-0.06451936
205	0x3e109ea7	0.14123021
206	0xbd9e59d8	-0.0773198
207	0xbdc11b59	-0.09429044
208	0x3dc543f8	0.09632105
209	0x3c326010	0.010887161
210	0xbe12f551	-0.14351393
211	0x3e0e8b5d	0.1392035
212	0x3e1109e8	0.14163935
213	0xbe1ce36f	-0.15321134
214	0xbdd7670a	-0.105177
215	0x3cd488f0	0.025944203
216	0x3d507191	0.050889555
217	0xbdcdf7a2	-0.10056998
218	0x3d68125c	0.056658134
219	0x3dbc02f2	0.09180249
220	0x3de8ae44	0.113613635
221	0xbe2c333d	-0.16816421
222	0xbd03a5d9	-0.032140587
223	0x3e21eadb	0.15812247
224	0x3dd842e7	0.105596356
225	0xbc695391	-0.014241115
226	0xbdf843c8	-0.12122303
227	0xbd00047a	-0.03125427
228	0xbe0d4b59	-0.13798274
229	0x3e269a94	0.16269904
230	0x3e0297d4	0.1275323
231	0xbcb19f4c	-0.021682404
232	0x3e04f733	0.12984924
233	0xbe2dad89	-0.1696073
234	0x3e2846ce	0.1643326
235	0xbd9dcc2b	-0.077049576
236	0x3e0be4b2	0.13661459
237	0x3dafd89c	0.08586237
238	0x3d370cef	0.04469007
239	0x3cbc78c6	0.023006808
240	0x3d9c845a	0.076424316
241	0xbd6ab326	-0.057299756
242	0xbe211725	-0.15731485
243	0x3e2a285f	0.16616963
244	0xbd98e8b0	-0.074662566
245	0x3ce147f7	0.027500136
246	0xbe191719	-0.14950217
247	0xbdba5cbf	-0.09099721
248	0x3e25b163	0.16180949
249	0x3cda16a1	0.026622118
250	0xbe142be9	-0.14469875
251	0xbd53a7b0	-0.05167359
252	0x3b9673bc	0.0045914333
253	0xbdeae3fb	-0.11469265
254	0xbdd2c747	-0.102919154
255	0x3e203766	0.15646133

bias f4 [32]
0	0xbcd9582e	-0.026531305
1	0xbd406907	-0.046975162
2	0x3e31b72e	0.17355034
3	0xbe1b4e85	-0.15166672
4	0x3d135620	0.035970807
5	0x3e4865e3	0.19570117
6	0x3dd46a9c	0.103718966
7	0xbdc9fc03	-0.098625205
8	0xbe0757c6	-0.13217077
9	0xbd066074	-0.03280683
10	0x3d53e3d7	0.051730957
11	0xbddb0905	-0.1069508
12	0x3e814c4b	0.2525352
13	0x3e2069e4	0.15665394
14	0xbe27b7bf	-0.16378687
15	0xbd4f5bc1	-0.050624613
16	0xbdac81ef	-0.0842322
17	0xbd7095e2	-0.05873669
18	0xbd335ebc	-0.043791518
19	0x3e4cc6a2	0.19997647
20	0xbd97ac5b	-0.07405921
21	0x3d2570c8	0.04039076
22	0xbe27d74a	-0.1639072
23	0x3e4dc2a4	0.20093781
24	0xbdf719ba	-0.12065454
25	0xbd9cad08	-0.076501906
26	0x3d6b2d58	0.05741629
27	0xbe138f58	-0.1441015
28	0xbe171be8	-0.14756739
29	0x3e2823c3	0.16419892
30	0x3d3eaa20	0.046548963
31	0x3eabeb85	0.33578125

weight f4 [32, 32]
0	0x3dabdd9a	0.083918765
1	0x3c4517b0	0.012029573
2	0x3e01426b	0.12622993
3	0x3dceb4a2	0.10093047
4	0xbe300a56	-0.17191443
5	0x3bcc8880	0.006241858
6	0xbddb06f0	-0.106946826
7	0xbd93c379	-0.07215018
8	0x3d906f38	0.07052463
9	0xbe07df7e	-0.13268849
10	0x3bc90000	0.006134033
11	0xbd0ab1b4	-0.033860877
12	0xbe266ab4	-0.16251642
13	0x3da6df66	0.081480786
14	0xbde1f30c	-0.11032686
15	0xbd1969b8	-0.037454337
16	0x3d9c32e2	0.076268926
17	0x3bfaba60	0.007651612
18	0x3e1fbec1	0.1560011
19	0xbe06fbfd	-0.13182063
20	0x3de9c76a	0.11414988
21	0xbde81f33	-0.11334076
22	0xbdde1193	-0.10843196
23	0x3d491970	0.049096525
24	0x3dd97866	0.10618667
25	0x3d407aa0	0.046991944
26	0xbd7a5066	-0.06111183
27	0x3d7e5058	0.06208834
28	0xbc74a050	-0.0149308
29	0xbbf5bce0	-0.0074993223
30	0xbc2ffa10	-0.010740772
31	0x3e3353e9	0.17512478
32	0x3cf77cbd	0.030210847
33	0xbe29651e	-0.1654248
34	0x3e215af7	0.15757357
35	0x3dd6a6d6	0.1048104
36	0xbe15adf8	-0.14617145
37	0x3d9da19b	0.076968394
38	0xbe2a6392	-0.16639546
39	0x3b3b2b38	0.0028559696
40	0xbd405938	-0.046960086
41	0x3db2395a	0.08702345
42	0xbd134d82	-0.03596259
43	0xbd0e9937	-0.034814086
44	0x3e019d05	0.12657554
45	0x3da4b389	0.08042056
46	0x3dbef5df	0.0932424
47	0xbe2818f6	-0.16415772
48	0x3e03ae2f	0.12859415
49	0x3e102d01	0.14079668
50	0x3e26af6f	0.1627786
51	0x3e2e2adf	0.17008542
52	0xbdf29468	-0.118447125
53	0xbe025040	-0.12725925
54	0xbe2c6498	-0.16835248
55	0x3d99832d	0.07495723
56	0x3cbcb420	0.023035109
57	0xbe0e8bc9	-0.13920511
58	0xbd53f1cb	-0.051744264
59	0x3e2a6c1d	0.16642804
60	0x3d477b30	0.048701465
61	0xbdfb0033	-0.122558974
62	0x3e17e782	0.14834407
63	0xbe16abca	-0.1471397
64	0x3d1893ef	0.037250455
65	0x3db6a43f	0.08918046
66	0x3e214681	0.15749551
67	0xbdaee4a8	-0.085397065
68	0xbd3cf246	-0.046129487
69	0x3e414e74	0.18877584
70	0x3d10ea4e	0.0353797
71	0xbcaba1de	-0.020951208
72	0x3d7e77b0	0.06212586
73	0x3e18e2cf	0.1493027
74	0x3e07d0fd	0.13263316
75	0x3df3861a	0.11890812
76	0xbcfb567c	-0.030680887
77	0xbd9e5bb3	-0.07732334
78	0xbd98458d	-0.07435141
79	0xbe0d2f88	-0.13787663
80	0xbdf1a944	-0.11799863
81	0xbe1ba2a2	-0.15198758
82	0x3d35a5c8	0.044347554
83	0x3e27e903	0.1639748
84	0x3dd35505	0.103189506
85	0xbd9ae60e	-0.07563411
86	0x3de68256	0.11255328
87	0x3dd288f5	0.10280029
88	0xbcd106c0	-0.025515914
89	0x3ca77e38	0.020445928
90	0xbb49b9b5	-0.0030780856
91	0x3d051660	0.03249204
92	0xbe0edfe2	-0.13952592
93	0xbd87969a	-0.06620522
94	0x3d8664d8	0.06562203
95	0x3da09120	0.078401804
96	0xbc5ba6da	-0.01340648
97	0xbe27b3e0	-0.1637721
98	0x3e4bc99d	0.19901128
99	0x3e31ff32	0.17382506
100	0xbd968c3c	-0.07350966
101	0x3cf1340f	0.029443769
102	0x3db8b194	0.09018245
103	0xbd8e6e5d	-0.06954644
104	0xbb47ab00	-0.0030466914
105	0xbe123739	-0.14278878
106	0xbe215e27	-0.15758573
107	0x3c115f25	0.008872782
108	0x3e785921	0.2425275
109	0x3e5e6ed6	0.21721968
110	0x3dd264d1	0.102731355
111	0x3e3029dd	0.1720347
112	0xbdb6be8a	-0.08923061
113	0x3e044bd5	0.12919553
114	0xbdcb101a	-0.099151805
115	0x3d1f599b	0.038903814
116	0xbd975d96	-0.07390897
117	0xbdb20768	-0.08692819
118	0x3e052bf9	0.13005055
119	0x3dacf379	0.08444876
120	0x3ddfeb92	0.10933603
121	0xbdc64dcd	-0.09682808
122	0x3abe57ad	0.0014521979
123	0xbe20cf33	-0.1570404
124	0x3ddd7a02	0.10814287
125	0xbde9a530	-0.1140846
126	0xbe35a4cc	-0.17738646
127	0x3e510f6a	0.20416036
128	0x3df6d929	0.12053139
129	0x3ddb396a	0.1070431
130	0x3e6cae09	0.23113264
131	0xbe2ac70e	-0.16677496
132	0x3e59842b	0.21241824
133	0x3e4150b3	0.1887844
134	0xbd70fa1c	-0.058832273
135	0xbcf5a6df	-0.029986797
136	0xbcbb7ed0	-0.022887617
137	0xbe31a251	-0.17347075
138	0x3cf1175a	0.02943008
139	0xbd11ea72	-0.035623975
140	0xbda4def0	-0.080503345
141	0xbd98ed08	-0.07467085
142	0x3d41fcd1	0.047360245
143	0xbe314e3d	-0.17315002
144	0x3cf4a808	0.02986528
145	0xbbcb1260	-0.006197259
146	0x3e0fb3c0	0.14033413
147	0x3d92ccf8	0.07168001
148	0xbc84e429	-0.016222076
149	0xbd91e367	-0.07123452
150	0xbdd7ea7b	-0.105427705
151	0x3e05f6f4	0.13082486
152	0x3dc458aa	0.09587224
153	0x3d8ff5d8	0.07029313
154	0x3db7d73d	0.089766
155	0x3ce71d58	0.028212234
156	0x3e142bbf	0.14469813
157	0x3e248c66	0.16069183
158	0xbd8a61be	-0.06756924
159	0x3e84a079	0.2590368
160	0xbe348cbe	-0.17631814
161	0xbd27a515	-0.04092892
162	0x3db0cdb0	0.08632982
163	0x3db96906	0.09053235
164	0x3d8c4ff5	0.06851188
165	0x3e21b9ba	0.15793505
166	0x3d5c95d5	0.05385383
167	0xbddcbb7c	-0.10777947
168	0xbe04466c	-0.12917489
169	0xbe075a3b	-0.13218014
170	0x3e0a3425	0.13496454
171	0xbd6f2616	-0.05838593
172	0xbd5f4ce0	-0.054516673
173	0xbb969b01	-0.0045961146
174	0x3dfcca87	0.123433165
175	0xbcac6c85	-0.02104784
176	0x3d35172c	0.04421155
177	0x3e24628d	0.16053219
178	0xbdb6d1bb	-0.08926722
179	0xbe066dcb	-0.1312782
180	0x3e009cbd	0.12559791
181	0x3e2e4311	0.17017771
182	0x3d34ae6c	0.044111654
183	0x3db2396a	0.08702357
184	0xbd14b9c4	-0.036309972
185	0xbdf8f186	-0.12155442
186	0xbe005dbd	-0.12535758
187	0x3e254b2d	0.16141959
188	0xbe1e96af	-0.15487169
189	0x3d40bb1d	0.047053445
190	0xbda7312f	-0.08163678
191	0xbc05703f	-0.008144437
192	0x3d9b32e0	0.07578063
193	0xbbba5926	-0.005686897
194	0x3d691be3	0.05691136
195	0x3d084257	0.03326639
196	0xbc413575	-0.01179253
197	0xbdc3f756	-0.0956866
198	0xbdcdc16a	-0.100466564
199	0x3e28db82	0.16489986
200	0x3d934406	0.07190709
201	0xbdb9a5b8	-0.090648115
202	0x3e26f42e	0.16304085
203	0xbdc903b5	-0.0981516
204	0x3d3180d5	0.043335754
205	0x3d14dbea	0.03634254
206	0xbe13a5ab	-0.14418666
207	0xbdc730f4	-0.09726134
208	0x3e04f013	0.12982206
209	0x3d77ce80	0.060499668
210	0x3de753c7	0.11295276
211	0xbd65675e	-0.05600678
212	0xbc174c80	-0.009234548
213	0x3d4e2fd9	0.0503386
214	0x3dbd363e	0.092388615
215	0x3d71171c	0.05885993
216	0x3d8a95f8	0.067668855
217	0xbd6d8c44	-0.057995096
218	0xbda85797	-0.082198314
219	0xbda38264	-0.079838544
220	0x3cb5b338	0.022180185
221	0x3e263885	0.16232498
222	0x3d4309de	0.047616832
223	0xbe23963d	-0.1597528
224	0xbe26e12a	-0.16296831
225	0xbc77d343	-0.015126052
226	0x3de6ee49	0.11275918
227	0x3df0ae90	0.11752045
228	0x3cb72765	0.022357652
229	0x3e2c5337	0.16828619
230	0x3e1150eb	0.14191024
231	0x3df1ad44	0.11800626
232	0xbd91fd2b	-0.07128366
233	0x3d178eb0	0.03700131
234	0x3e0868e3	0.13321261
235	0xbe0bd45e	-0.1365523
236	0x3e6bd756	0.23031363
237	0x3e3508b3	0.176791
238	0xbdca4470	-0.09876335
239	0xbc948f40	-0.018134713
240	0xbe066bc0	-0.13127041
241	0xbe1cc583	-0.1530972
242	0xbdf11d1f	-0.117731325
243	0x3e4b1eea	0.19836012
244	0xbe25854f	-0.16164134
245	0x3c24f1af	0.0100673875
246	0x3d6ecc68	0.058300406
247	0x3e24abe5	0.16081198
248	0x3d242bac	0.04008071
249	0xbdaa521d	-0.08316443
250	0x3d7fb1fe	0.062425606
251	0x3e1994ef	0.1499822
252	0xbdec2928	-0.115312874
253	0x3dab6161	0.08368183
254	0xbe2a581a	-0.1663517
255	0x3d981ac3	0.074269794

bias f4 [32]
0	0xbdca5c14	-0.09880844
1	0xbd7b109f	-0.061295148
2	0x3e0c202c	0.13684148
3	0x3e9e632c	0.30935037
4	0x3e21dc1a	0.15806618
5	0xbdcd1066	-0.100128934
6	0x3d824c42	0.06362201
7	0x3e01e9c2	0.12686828
8	0x3ea168ba	0.31525213
9	0x3e33f910	0.17575479
10	0x3e8777a2	0.2645846
11	0xbda79ca9	-0.081841774
12	0xbd5b050a	-0.053471602
13	0x3dc19208	0.094516814
14	0xbe1950f3	-0.14972286
15	0x3e4161fb	0.18885033
16	0xbcb4ad9c	-0.02205544
17	0x3d915363	0.07095983
18	0x3d9c3c0e	0.07628642
19	0x3dc720ff	0.097230904
20	0xbda3db93	-0.08000865
21	0xbd849ad1	-0.064748414
22	0xbc9a32fc	-0.01882314
23	0xbddaa950	-0.10676825
24	0x3ea209b4	0.31648028
25	0x3dd7ff96	0.10546796
26	0xbda669f8	-0.08125681
27	0xbdca50b6	-0.09878676
28	0x3e924b52	0.2857309
29	0x3dfae5ec	0.12250885
30	0x3e5735a9	0.21016563
31	0xbb60b985	-0.0034290266

weight f4 [1, 32]
0	0x3e24ddb9	0.16100205
1	0xbdcf2f5b	-0.10116454
2	0x3e42237c	0.18958849
3	0x3eca7392	0.39541298
4	0x3eaf87b1	0.34283212
5	0xbc8bdc53	-0.017072832
6	0xbda64fbd	-0.081206776
7	0x3eaad4aa	0.33365375
8	0x3e9c7e25	0.3056499
9	0x3eb3efee	0.3514399
10	0x3eaa1607	0.3321993
11	0x3d31099f	0.043222066
12	0x3d5fafbc	0.054610953
13	0x3d514a26	0.051096104
14	0xbe302c95	-0.17204507
15	0x3da150fd	0.078767754
16	0x3d11030b	0.035403293
17	0x3dc358df	0.09538435
18	0x3d688289	0.056765113
19	0xbe31a764	-0.1734901
20	0xbdebb796	-0.115096256
21	0xbaa2de00	-0.001242578
22	0xbdde7821	-0.108627565
23	0xbda87b72	-0.0822667
24	0x3ec0f15a	0.37684137
25	0xbc9ae6e5	-0.018908927
26	0x3c9663f0	0.0183582
27	0xbe0f5cb8	-0.14000213
28	0x3ec9b7b6	0.39397973
29	0x3e7fa0f1	0.24963738
30	0x3e5d43d6	0.21607909
31	0xbca4170e	-0.020030525

weight f4 [32, 288]
0	0x3d116f81	0.03550673
1	0xbd3c43d3	-0.04596312
2	0xbd4a3cae	-0.049374275
3	0x3d640af5	0.055674512
4	0x3d4fd0e1	0.05073631
5	0xbc6f0bf0	-0.014590248
6	0xbd05e932	-0.032693096
7	0xbccdb8aa	-0.025112469
8	0xbafb2400	-0.0019160509
9	0xbbfcf790	-0.0077199414
10	0x3cd1959a	0.02558403
11	0xbce6e475	-0.028185109
12	0xbd0befc1	-0.034164194
13	0x3d438575	0.047734696
14	0x3d1910a3	0.03736938
15	0x3d240e0b	0.040052455
16	0x3d70a897	0.05875453
17	0x3c94466a	0.018099982
18	0x3d277c1f	0.040889855
19	0x3c937c62	0.018003646
20	0x3d16de75	0.036833245
21	0xbd46161c	-0.04836093
22	0xbcd7e3c0	-0.026353717
23	0x3d3e9d50	0.046536744
24	0xbba9a2b8	-0.0051768683
25	0x3d5397b9	0.051658366
26	0xbb9c6128	-0.004772324
27	0x3c1c9a2c	0.009558242
28	0x3cf576c2	0.029963855
29	0xbd6eff56	-0.058348976
30	0xbd6e88fa	-0.0582361
31	0xbbf5bbf0	-0.0074992105
32	0x3c7e50dc	0.015522208
33	0x3d022ff7	0.031784024
34	0xbd5c26ce	-0.053747945
35	0x3cf3e162	0.029770557
36	0xbd53806b	-0.05163614
37	0xbd2f924e	-0.042864136
38	0x3cf82782	0.030292276
39	0xbd21ee61	-0.039533976
40	0xbd18fcac	-0.03735034
41	0x3c42c0a4	0.011886749
42	0xbd60b8ed	-0.05486386
43	0x3d5b0c71	0.053478662
44	0xbd16dbbc	-0.03683065
45	0x3c8f1612	0.017466579
46	0xbc4a2560	-0.012338012
47	0xbc6dd983	-0.014517191
48	0xbbab5bd8	-0.0052294545
49	0x3cd7e402	0.02635384
50	0xbc9294d8	-0.01789324
51	0x3d0fbbdf	0.035091277
52	0xbbaa4aa8	-0.005196888
53	0xbbc74db0	-0.006082259
54	0xbd3ffbee	-0.04687112
55	0x3c6462b4	0.013939548
56	0x3d5ac5cf	0.0534113
57	0x3c8c5d0a	0.017134208
58	0xbd3c3b46	-0.045954965
59	0x3d03453f	0.03204846
60	0xb9956500	-0.00028494745
61	0xbd353534	-0.04424019
62	0xbb8088b0	-0.0039225444
63	0x3d43fc41	0.04784799
64	0xbd0a4ac6	-0.033762716
65	0xbd155268	-0.03645554
66	0x3d2ed5cd	0.042684365
67	0xbc806b12	-0.015676055
68	0xbd5d8b64	-0.05408801
69	0x3c0a46bc	0.008439716
70	0xbd6dbe82	-0.05804301
71	0x3d3d21f7	0.04617497
72	0x3d4a4e09	0.049390826
73	0xbcd20aca	-0.02563991
74	0x3c9a7462	0.018854324
75	0xbc421d48	-0.0118478015
76	0xbcec4247	-0.028840197
77	0x3d0480df	0.032349464
78	0xbb2b34ac	-0.0026123924
79	0x3c03051c	0.007996824
80	0x3c700624	0.014649902
81	0x3cbfbdb2	0.023405883
82	0x3c2303fc	0.00994968
83	0x3d0055c5	0.031331796
84	0x3d34d503	0.044148456
85	0xbd368277	-0.044558015
86	0x3d5d081d	0.053962816
87	0x3d04fa19	0.032465074
88	0x3cc66efe	0.024222847
89	0x3bc725b8	0.0060774945
90	0xbc14461c	-0.0090499185
91	0x3c98c05a	0.018646408
92	0xbb006a90	-0.0019594766
93	0x3d6aaa07	0.057291057
94	0xbd06fd90	-0.03295666
95	0x3bba5fd8	0.005687695
96	0xbd368f1e	-0.04457008
97	0xbd56cf50	-0.052443802
98	0xbcb81e4c	-0.022475384
99	0x3d527459	0.05138049
100	0xbb2a0c50	-0.002594728
101	0xbd2b3b62	-0.04180468
102	0x3b844db8	0.004037585
103	0x3d4adac5	0.04952504
104	0x3a166f80	0.00057386607
105	0x3d3ea193	0.046540808
106	0xbaa939a0	-0.001291085
107	0xbcbc44e6	-0.022982072
108	0xbd4991ca	-0.0492113
109	0xbd5b6cec	-0.053570673
110	0x3d67e42f	0.056614097
111	0xbd27286e	-0.04081004
112	0xbd0ba4d0	-0.034092724
113	0xbca1de76	-0.019759398
114	0x3cbf6542	0.023363713
115	0x3c3a15f4	0.011357773
116	0xbafe85c0	-0.0019418523
117	0xbceebee5	-0.02914376
118	0x3c30f22c	0.010799926
119	0xbd11fd8c	-0.03564219
120	0xbd3c6576	-0.0459952
121	0x3d370c98	0.044689745
122	0x3d205bcd	0.039150048
123	0x3d554475	0.05206724
124	0x3c97c21e	0.01852518
125	0x3c24d9cc	0.010061692
126	0x3c5fe884	0.013666276
127	0xbadf8ea0	-0.0017056055
128	0xbcc963ca	-0.024583716
129	0x39849b80	0.00025292858
130	0x3cbee0e2	0.023300592
131	0xbd2f6844	-0.042824045
132	0x3c541334	0.0129440315
133	0xbcb01e1a	-0.021498729
134	0xbd13301e	-0.03593456
135	0xbd049e1a	-0.03237734
136	0x3c8a952e	0.016916838
137	0xbd55ee04	-0.052228943
138	0xbd079d18	-0.0331088
139	0xbca120ee	-0.019669022
140	0xbd1689b6	-0.036752425
141	0x3c349ff4	0.011024464
142	0x3c91d36e	0.017801013
143	0xbb4b59d0	-0.0031028874
144	0x3c34a431	0.011025474
145	0xbd5ccbd1	-0.053905312
146	0xbd5f07d0	-0.05445081
147	0xbd0e0b42	-0.034678705
148	0xbd2705a6	-0.04077687
149	0x3d4307db	0.047614913
150	0xbcd4c822	-0.025974337
151	0x3ccb7fd2	0.024841223
152	0x3cfc1b94	0.030774869
153	0xbd3080ad	-0.043091465
154	0xbc9335a0	-0.017969906
155	0xbc0ff0bb	-0.008785422
156	0x3d2bfefb	0.041991215
157	0xbd449973	-0.047997903
158	0xbcb31e1a	-0.02186494
159	0xbd018e4b	-0.03162984
160	0xbc9427b5	-0.01808534
161	0x3ca0ab0d	0.019612813
162	0x3d413ade	0.04717528
163	0xbbb5d297	-0.005548786
164	0x3d204263	0.03912581
165	0x3cfa27f1	0.030536624
166	0xbd074ded	-0.0330333
167	0xbca6df13	-0.020370042
168	0xbd21988f	-0.03945213
169	0x3cc562c5	0.024094949
170	0x3bcbb5de	0.0062167486
171	0xbd62035e	-0.055178992
172	0x3cb5c899	0.022190379
173	0x3b9c3cd4	0.0047679935
174	0x3cc0ecb5	0.02355037
175	0xbcd4348d	-0.025903964
176	0x3d0115e5	0.03151502
177	0xbc0324ec	-0.008004408
178	0xbd3d0527	-0.04614749
179	0xbd18e5cc	-0.037328526
180	0x3d59cbcd	0.053172875
181	0xbd2683e4	-0.040653124
182	0x3d4c14d9	0.04982457
183	0xbd0deff2	-0.034652658
184	0xbcc49f70	-0.024001807
185	0x3c7de128	0.015495576
186	0xbd09cda8	-0.033643395
187	0xbd397487	-0.045277145
188	0xbd6ffbba	-0.058589675
189	0xbd23f238	-0.04002592
190	0xbd04ec0c	-0.032451674
191	0x3c4d7f94	0.012542624
192	0xbd1d84ca	-0.038456716
193	0x3ca54ffb	0.02017974
194	0xbd2d1910	-0.04226023
195	0xbcff2aa1	-0.031148257
196	0xbd6196bb	-0.05507539
197	0x3cbc5b9c	0.022992902
198	0x3d5c6e40	0.05381608
199	0xbcc512eb	-0.024056872
200	0xbc98941f	-0.018625317
201	0x3d345fb0	0.044036567
202	0xbd32a0ad	-0.043610264
203	0xbc7ebddb	-0.015548195
204	0x3d60c660	0.054876685
205	0xbb5c8fcb	-0.0033655043
206	0xbd3e0ee9	-0.04640094
207	0xbcc1cba6	-0.023656677
208	0xbd646305	-0.055758495
209	0xbcfe9254	-0.031075634
210	0xbd0b7b73	-0.034053277
211	0xbd1c4b60	-0.03815782
212	0x3c98033e	0.018556233
213	0x3d020cd9	0.031750534
214	0xbd70cdff	-0.058790203
215	0xbd71f79a	-0.059074022
216	0x3d07651d	0.033055414
217	0xbd2f194c	-0.042748734
218	0xbcf213e5	-0.029550502
219	0xbb7a95ab	-0.0038236182
220	0xbd7f2347	-0.062289502
221	0x3d2e0ab0	0.04249066
222	0x3b65bcc2	0.0035055135
223	0x3cf9294e	0.030415203
224	0x3d121e81	0.035673622
225	0x3ce92eed	0.028464759
226	0x3c93152a	0.017954428
227	0xbc875856	-0.016521614
228	0xbd1084fe	-0.03528308
229	0x3a611780	0.00085865706
230	0xbd3a7def	-0.045530256
231	0x3c82336a	0.015893657
232	0x3cc84f0e	0.024451759
233	0xbd0a2711	-0.033728663
234	0x3d1d95f4	0.038473085
235	0x3c995cef	0.018721072
236	0x3d17a468	0.037022024
237	0x3d274f08	0.040846854
238	0xbcccc105	-0.024994383
239	0xbb8da155	-0.004322211
240	0xbcb87ecb	-0.022521397
241	0x3b65b92b	0.0035052996
242	0xbc7f00ab	-0.015564124
243	0xbcfa759f	-0.030573664
244	0x3d04c47f	0.032413956
245	0xbccef26a	-0.025262076
246	0x3c129d6b	0.008948664
247	0xbb895f95	-0.0041923025
248	0x3cd7d590	0.026346952
249	0x39d54b53	0.00040682647
250	0xbc3951bc	-0.011310991
251	0x3d51350c	0.05107598
252	0xbbe7a4e8	-0.007069219
253	0xbc1094d8	-0.00882455
254	0x3bb18baf	0.005418263
255	0x3b089994	0.0020843493

bias f4 [32]
0	0x3c2e5b89	0.010641941
1	0xbd480d32	-0.04884071
2	0x3cf8d7af	0.030376283
3	0xbce83ce5	-0.02834935
4	0x3e403441	0.18769933
5	0x3cdbb28a	0.026818532
6	0xbd63b42d	-0.05559175
7	0xbcfa19d1	-0.030529888
8	0xbbef6bde	-0.00730656
9	0xbb2fe666	-0.002684021
10	0x3d5777fc	0.05260466
11	0x3cd7df9a	0.026351739
12	0xbc6cc061	-0.014450164
13	0x3bda756f	0.006666831
14	0x3ca09389	0.0196016
15	0xbad733c6	-0.0016418628
16	0x3d847450	0.06467497
17	0x3cfcb677	0.030848725
18	0x3d0b14a1	0.03395522
19	0x3e1cc9aa	0.15311304
20	0x3d9b83e8	0.075935185
21	0x3db215e4	0.086955816
22	0xbd65ebf5	-0.05613323
23	0xbc63da43	-0.013907018
24	0x3e20a49a	0.1568779
25	0x3d8a256e	0.067454204
26	0x3e1c40b1	0.15259053
27	0xbd21bcd8	-0.039486736
28	0x3d489466	0.04896965
29	0xbd4e1136	-0.050309382
30	0xbd9cfd28	-0.07665473
31	0x3e37ef1c	0.17962307

weight f4 [32, 32]
0	0x3e100145	0.14062984
1	0xbdf51573	-0.11966982
2	0x3d1574c8	0.036488324
3	0x3df67358	0.12033719
4	0x3e24f87d	0.16110416
5	0x3de37d0e	0.11107837
6	0x3cd10804	0.025516517
7	0x3d04c761	0.032416705
8	0xbc1c0581	-0.009522797
9	0xbd621c59	-0.055202816
10	0x3db48c6f	0.08815848
11	0x3e1094d3	0.14119272
12	0x3e0beb27	0.13663922
13	0xbdf64bea	-0.12026198
14	0xbda03bc4	-0.078238994
15	0x3e316580	0.17323875
16	0xbe254976	-0.16141304
17	0x3e193da7	0.14964925
18	0x3d601f43	0.054717313
19	0xbcd82006	-0.026382457
20	0xbd264abe	-0.040598623
21	0xbe2f556a	-0.17122427
22	0xbce36bb2	-0.027761314
23	0xbe2a7d62	-0.16649392
24	0x3e0e52f3	0.1389883
25	0x3dbaab01	0.09114648
26	0xbdfd2c2e	-0.12361942
27	0xbd824582	-0.06360914
28	0x3e1254c1	0.14290144
29	0x3dce7400	0.10080719
30	0x3decd146	0.11563353
31	0x3d0eed61	0.03489435
32	0x3e1c3325	0.15253885
33	0x3df21958	0.1182124
34	0x3ddd2866	0.10798721
35	0x3d7818d8	0.060570568
36	0x3d7a9140	0.061173677
37	0xbda9a3c7	-0.08283191
38	0x3d948abf	0.07253026
39	0xbdc805a1	-0.09766699
40	0x3d817fec	0.06323227
41	0xbd9033b7	-0.07041114
42	0xbcc2bd3e	-0.023771878
43	0xbe1d808c	-0.15381068
44	0x3da619c9	0.08110387
45	0xbb262b57	-0.0025355422
46	0xbdfac49f	-0.12244534
47	0xbdf30e54	-0.11867967
48	0x3dac9ba8	0.084281266
49	0xbe115d7a	-0.14195815
50	0xbd1daaee	-0.03849309
51	0x3d0cd53f	0.034383055
52	0xbdc47e49	-0.095943995
53	0xbdf3bf89	-0.11901767
54	0xbdd88f79	-0.1057424
55	0x3ddcb044	0.107758075
56	0xbc48ab34	-0.012247849
57	0xbdc6f023	-0.09713771
58	0xbd744ccc	-0.05964355
59	0x3e057c8e	0.13035795
60	0x3e0d7f14	0.13818008
61	0xbc4c92c1	-0.012486161
62	0xbdb27020	-0.087127924
63	0xbbb0463b	-0.005379466
64	0xbe1ec250	-0.15503812
65	0xbdb051c6	-0.08609347
66	0x3d76ba09	0.06023601
67	0xbd35375d	-0.04424225
68	0x3e746364	0.2386604
69	0xbd6ba84c	-0.057533547
70	0xbcddf04f	-0.027092127
71	0x3ccb728d	0.024834896
72	0x3d1b1728	0.03786388
73	0x3d339a78	0.043848485
74	0xbe0bb95d	-0.13644929
75	0xbd52f624	-0.05150427
76	0x3db7ea29	0.089802094
77	0xbd37503f	-0.044754263
78	0x3d21d539	0.039509986
79	0x3dc12f57	0.094328575
80	0x3e18a89a	0.14908066
81	0xbe09132d	-0.13386221
82	0x3d1dcab4	0.03852339
83	0x3e6f175b	0.23348753
84	0x3e42ca53	0.19022493
85	0x3e39a4e5	0.18129309
86	0x3dadbb98	0.08483046
87	0x3e0a3a17	0.13498722
88	0x3e30d0f4	0.1726721
89	0x3d79ba7c	0.06096886
90	0x3e0d696b	0.13809745
91	0xbd8af7a3	-0.06785514
92	0xbd31fe60	-0.04345548
93	0x3e1cd5dd	0.15315957
94	0xbe122243	-0.14270882
95	0x3de2fd00	0.11083412
96	0xbdbeda78	-0.09319013
97	0x3c12ab4d	0.008951974
98	0x3dc76cfa	0.097375825
99	0xbdad9207	-0.08475118
100	0xbd0ddc0d	-0.034633685
101	0x3bb4aa6f	0.0055134813
102	0x3c8c5dd8	0.017134592
103	0x3c8f0e4c	0.017462872
104	0xbcfb80be	-0.030701037
105	0xbd9079e8	-0.07054502
106	0xbdba84e0	-0.09107375
107	0xbdceb5a1	-0.10093237
108	0x3d6406aa	0.055670418
109	0xbe1e5b7e	-0.15464589
110	0x3db61a67	0.088917546
111	0xbdaadab7	-0.08342498
112	0xbd8e978d	-0.069625
113	0x3d565b71	0.0523333
114	0xbd58ca1a	-0.052927114
115	0x3df5874c	0.119886965
116	0xbcfc8114	-0.030823268
117	0x3c8bed84	0.01708103
118	0xbd326d00	-0.04356098
119	0xbcc94189	-0.024567382
120	0xbcec2a2a	-0.0288287
121	0x3d9bba0d	0.07603846
122	0x3e3380c7	0.17529593
123	0x3c843fe4	0.016143747
124	0x3e0e99e4	0.13925892
125	0xbc691e93	-0.014228481
126	0xbc802d83	-0.015646702
127	0x3d7001b8	0.05859539
128	0xbc0bc2a8	-0.008530296
129	0xbdb0aea6	-0.086270615
130	0xbdce517b	-0.10074135
131	0xbe12bb58	-0.14329278
132	0x3de7ca95	0.11317936
133	0xbd5589c0	-0.05213332
134	0xbd903f2c	-0.07043299
135	0x3dd38fca	0.1033016
136	0x3d1152a6	0.03547921
137	0xbde94150	-0.113894105
138	0x3e168dfd	0.14702602
139	0x3e388c6b	0.18022315
140	0xbda3ec39	-0.0800404
141	0x3e383554	0.17989093
142	0xbbc8195f	-0.00610654
143	0x3dd7f3b6	0.10544531
144	0x3e128446	0.14308271
145	0xbdb6d368	-0.08927041
146	0x3e384cc4	0.17998034
147	0xbd0b043b	-0.03393958
148	0x3db48b8c	0.08815679
149	0x3d01186a	0.031517424
150	0xbda82498	-0.08210105
151	0x3e3b42f4	0.1828726
152	0x3de95b7d	0.11394403
153	0x3e1e4e33	0.15459518
154	0x3cb24ac1	0.021764161
155	0xbe15fbba	-0.14646807
156	0x3d94456f	0.07239806
157	0xbd59b470	-0.053150594
158	0x3ddc08ea	0.10743888
159	0x3e086b7d	0.13322254
160	0xbe2e77f1	-0.17037942
161	0xbc19320a	-0.009350309
162	0xbe1eb0e1	-0.15497161
163	0xbdb17b47	-0.086660914
164	0x3e43b422	0.19111684
165	0xbc1c3637	-0.00953441
166	0xbb236e31	-0.0024937505
167	0x3d8c2de5	0.06844691
168	0xbd901b73	-0.070364855
169	0xbe3286c7	-0.17434226
170	0x3dcd0f51	0.10012687
171	0xbd87b637	-0.066265516
172	0x3cb376e2	0.021907274
173	0x3e371107	0.17877589
174	0xbc11d388	-0.008900531
175	0xbd053c8a	-0.032528438
176	0xbdd95160	-0.10611224
177	0x3d16b722	0.036795743
178	0x3e2ae1bc	0.16687673
179	0x3d2d3aea	0.042292513
180	0xbd8569c7	-0.06514316
181	0x3e1a50a7	0.15069829
182	0x3ce258f7	0.027630312
183	0xbd5e7f58	-0.054320663
184	0x3d373a9b	0.044733625
185	0x3d3709bc	0.044687018
186	0xbce5799e	-0.028012093
187	0xbd70c50a	-0.05878166
188	0x3e3342ac	0.17505902
189	0xbdf630c0	-0.12021017
190	0xbe1edb3b	-0.15513317
191	0x3e5a98e1	0.21347381
192	0x3d8da450	0.06916106
193	0xbd831bf3	-0.06401815
194	0x3d505445	0.050861616
195	0x3e357ef2	0.17724207
196	0x3bc3717b	0.0059644557
197	0xbdffef39	-0.124968
198	0x3cae29e6	0.021260213
199	0xbae27403	-0.0017277006
200	0x3947273c	0.00018992735
201	0x3d65ceeb	0.056105535
202	0xbde86bf4	-0.113487154
203	0x3e19c6cb	0.1501724
204	0xbd842a75	-0.064534105
205	0x3e109ba7	0.14121877
206	0xbd9e654d	-0.07734165
207	0xbdc125ad	-0.09431014
208	0x3dc4eaaf	0.09615075
209	0x3c317f09	0.01083351
210	0xbe13035f	-0.14356755
211	0x3e0e48e2	0.1389499
212	0x3e10f268	0.1415497
213	0xbe1d0ff5	-0.15338118
214	0xbdd76b55	-0.10518519
215	0x3cd43a38	0.025906667
216	0x3d4f9468	0.05067864
217	0xbdce3b06	-0.100698516
218	0x3d67072a	0.056403317
219	0x3dbc0186	0.09179978
220	0x3de88157	0.113527946
221	0xbe2c3406	-0.1681672
222	0xbd03a6bf	-0.032141443
223	0x3e21a27c	0.15784639
224	0x3dd843b9	0.10559792
225	0xbc6953b3	-0.014241147
226	0xbdf843eb	-0.12122329
227	0xbd0004e2	-0.031254657
228	0xbe0d4c07	-0.13798533
229	0x3e269b36	0.16270146
230	0x3e0297ad	0.12753172
231	0xbcb19f87	-0.021682514
232	0x3e04f77c	0.12985033
233	0xbe2dad5f	-0.16960667
234	0x3e2846aa	0.16433206
235	0xbd9dcc85	-0.07705025
236	0x3e0be4ec	0.13661546
237	0x3dafd80f	0.08586132
238	0x3d370d5f	0.044690486
239	0x3cbc787a	0.023006666
240	0x3d9c83a6	0.076422974
241	0xbd6ab342	-0.05729986
242	0xbe21177e	-0.15731618
243	0x3e2a27cd	0.16616745
244	0xbd98e8f5	-0.07466308
245	0x3ce144f5	0.027498702
246	0xbe19170e	-0.14950201
247	0xbdba5d07	-0.09099775
248	0x3e25b0d7	0.1618074
249	0x3cda155d	0.026621515
250	0xbe142c75	-0.14470084
251	0xbd53a809	-0.051673923
252	0x3b96713c	0.0045911353
253	0xbdeae3b3	-0.114692114
254	0xbdd2c70a	-0.1029187
255	0x3e203712	0.15646008

bias f4 [32]
0	0xbcd92c7f	-0.026510475
1	0xbd404d68	-0.04694882
2	0x3e2f59be	0.17124078
3	0xbe1b4e3e	-0.15166566
4	0x3d0eee30	0.034895122
5	0x3e46a407	0.19398509
6	0x3dd2ee09	0.10299308
7	0xbdc9fcd2	-0.09862675
8	0xbe0757c6	-0.13217077
9	0xbd066074	-0.03280683
10	0x3d53df0e	0.051726393
11	0xbddb1a81	-0.106984146
12	0x3e806529	0.2507718
13	0x3e1f41c8	0.15552437
14	0xbe27b265	-0.16376646
15	0xbd4f529d	-0.050615896
16	0xbdac81ef	-0.0842322
17	0xbd7095e2	-0.05873669
18	0xbd335d8a	-0.043790378
19	0x3e4bd6f9	0.19906224
20	0xbd97adcf	-0.07406198
21	0x3d2619f7	0.040552106
22	0xbe27d74a	-0.1639072
23	0x3e4c60f9	0.19958867
24	0xbdf719ba	-0.12065454
25	0xbd9cad08	-0.076501906
26	0x3d644b2b	0.05573575
27	0xbe138f58	-0.1441015
28	0xbe171be8	-0.14756739
29	0x3e274ab1	0.16337086
30	0x3d3f278b	0.04666857
31	0x3eaab12a	0.3333829

weight f4 [32, 32]
0	0x3dabdd9a	0.083918765
1	0x3c4517b0	0.012029573
2	0x3e01426b	0.12622993
3	0x3dceb4a2	0.10093047
4	0xbe300a56	-0.17191443
5	0x3bcc8880	0.006241858
6	0xbddb06f0	-0.106946826
7	0xbd93c379	-0.07215018
8	0x3d906f38	0.07052463
9	0xbe07df7e	-0.13268849
10	0x3bc90000	0.006134033
11	0xbd0ab1b4	-0.033860877
12	0xbe266ab4	-0.16251642
13	0x3da6df66	0.081480786
14	0xbde1f30c	-0.11032686
15	0xbd1969b8	-0.037454337
16	0x3d9c32e2	0.076268926
17	0x3bfaba64	0.007651614
18	0x3e1fbec1	0.1560011
19	0xbe06fbfd	-0.13182063
20	0x3de9c76a	0.11414988
21	0xbde81f33	-0.11334076
22	0xbdde1193	-0.10843196
23	0x3d491970	0.049096525
24	0x3dd97866	0.10618667
25	0x3d407aa9	0.046991978
26	0xbd7a5066	-0.06111183
27	0x3d7e505c	0.062088355
28	0xbc74a050	-0.0149308
29	0xbbf5bce0	-0.0074993223
30	0xbc2ffa10	-0.010740772
31	0x3e3353e9	0.17512478
32	0x3cf781fa	0.030213345
33	0xbe29647f	-0.16542242
34	0x3e2172ba	0.15766421
35	0x3dd6a739	0.10481114
36	0xbe15a364	-0.1461311
37	0x3d9dbf58	0.077025115
38	0xbe2a5a99	-0.16636123
39	0x3b3b46fe	0.002857625
40	0xbd405938	-0.046960086
41	0x3db2395a	0.08702345
42	0xbd134d9c	-0.035962686
43	0xbd0e96b0	-0.034811676
44	0x3e01af2e	0.12664482
45	0x3da4c646	0.0804563
46	0x3dbef6e0	0.093244314
47	0xbe281877	-0.16415583
48	0x3e03ae2f	0.12859415
49	0x3e102d06	0.14079675
50	0x3e26af6f	0.1627786
51	0x3e2e35e4	0.17012745
52	0xbdf29474	-0.118447214
53	0xbe024fcd	-0.12725754
54	0xbe2c6498	-0.16835248
55	0x3d99a6f1	0.07502545
56	0x3cbcb420	0.023035109
57	0xbe0e8bc9	-0.13920511
58	0xbd53a903	-0.051674854
59	0x3e2a6c1d	0.16642804
60	0x3d477b30	0.048701465
61	0xbdfaf65f	-0.12254023
62	0x3e17e7ed	0.14834566
63	0xbe16902b	-0.14703433
64	0x3d188bb0	0.03724259
65	0x3db6a3e8	0.089179814
66	0x3e20ae45	0.15691479
67	0xbdaee516	-0.085397884
68	0xbd3e0446	-0.046390794
69	0x3e40e6d2	0.18838051
70	0x3d0fda7d	0.035120476
71	0xbcababfc	-0.020956032
72	0x3d7e77b0	0.06212586
73	0x3e18e2cf	0.1493027
74	0x3e07d065	0.1326309
75	0x3df38141	0.118898876
76	0xbcff42df	-0.031159816
77	0xbd9ee15a	-0.07757826
78	0xbd98476f	-0.074355
79	0xbe0d302c	-0.13787907
80	0xbdf1a94c	-0.11799869
81	0xbe1ba2a2	-0.15198758
82	0x3d35a538	0.044347018
83	0x3e2797f5	0.16366561
84	0x3dd35472	0.10318841
85	0xbd9aeaf8	-0.07564348
86	0x3de68256	0.11255328
87	0x3dd19b6d	0.10234723
88	0xbcd106c0	-0.025515914
89	0x3ca77e38	0.020445928
90	0xbb669f5c	-0.00351902
91	0x3d051660	0.03249204
92	0xbe0edfe2	-0.13952592
93	0xbd87e970	-0.066363215
94	0x3d8663f0	0.0656203
95	0x3d9f1d5d	0.077692725
96	0xbc5c0508	-0.013428934
97	0xbe27b476	-0.16377434
98	0x3e4a9c76	0.19786248
99	0x3e31fed8	0.17382371
100	0xbd97a9c8	-0.0740543
101	0x3cea9d14	0.028639354
102	0x3db797b1	0.0896448
103	0xbd8e74e8	-0.06955892
104	0xbb47ab00	-0.0030466914
105	0xbe123739	-0.14278878
106	0xbe215e96	-0.15758738
107	0x3c11060b	0.008851538
108	0x3e775f32	0.24157408
109	0x3e5de3fd	0.21669002
110	0x3dd25fca	0.102721766
111	0x3e302950	0.1720326
112	0xbdb6be8a	-0.08923061
113	0x3e044bd5	0.12919553
114	0xbdcb10d0	-0.09915316
115	0x3d1cc190	0.038270533
116	0xbd975da5	-0.07390908
117	0xbdb21489	-0.08695323
118	0x3e052bf9	0.13005055
119	0x3dab1a7d	0.083546616
120	0x3ddfeb92	0.10933603
121	0xbdc64dcd	-0.09682808
122	0x3a131315	0.00056104484
123	0xbe20cf33	-0.1570404
124	0x3ddd7a02	0.10814287
125	0xbdea5392	-0.11441721
126	0xbe35a554	-0.17738849
127	0x3e4fab39	0.2028016
128	0x3df6cf10	0.12051213
129	0x3ddb38c2	0.10704185
130	0x3e6ba471	0.23011948
131	0xbe2ac72e	-0.16677544
132	0x3e5907ba	0.21194354
133	0x3e409840	0.18808079
134	0xbd72e75d	-0.059302676
135	0xbcf5bd77	-0.02999757
136	0xbcbb7ed0	-0.022887617
137	0xbe31a251	-0.17347075
138	0x3cf116d5	0.029429832
139	0xbd11fd98	-0.035642236
140	0xbda697fa	-0.08134456
141	0xbd99dfa3	-0.075133584
142	0x3d41f440	0.047352076
143	0xbe314f0f	-0.17315315
144	0x3cf4a808	0.02986528
145	0xbbcb1261	-0.0061972593
146	0x3e0fb325	0.14033182
147	0x3d91a9da	0.07112475
148	0xbc84e38b	-0.016221782
149	0xbd91eeab	-0.071256004
150	0xbdd7ea7b	-0.105427705
151	0x3e05261d	0.1300282
152	0x3dc458aa	0.09587224
153	0x3d8ff5d8	0.07029313
154	0x3db63d5f	0.08898424
155	0x3ce71d58	0.028212234
156	0x3e142bbf	0.14469813
157	0x3e2440a3	0.16040282
158	0xbd8a62c2	-0.06757118
159	0x3e840207	0.25782797
160	0xbe348cc0	-0.17631817
161	0xbd27a514	-0.040928915
162	0x3db0ce27	0.086330704
163	0x3db96906	0.09053235
164	0x3d8c5002	0.06851198
165	0x3e21b9fe	0.15793607
166	0x3d5c95f9	0.053853963
167	0xbddcbb7a	-0.10777946
168	0xbe04466c	-0.12917489
169	0xbe075a3b	-0.13218014
170	0x3e0a3425	0.13496454
171	0xbd6f258b	-0.058385413
172	0xbd5f4c8c	-0.05451636
173	0xbb969a1b	-0.0045960075
174	0x3dfccb4b	0.123434626
175	0xbcac6c70	-0.0210478
176	0x3d35172c	0.04421155
177	0x3e24628d	0.16053219
178	0xbdb6d1bb	-0.08926722
179	0xbe066db5	-0.13127787
180	0x3e009cbd	0.12559791
181	0x3e2e4311	0.17017771
182	0x3d34ae6c	0.044111654
183	0x3db23970	0.087023616
184	0xbd14b9c4	-0.036309972
185	0xbdf8f186	-0.12155442
186	0xbe005d8f	-0.1253569
187	0x3e254b2d	0.16141959
188	0xbe1e96af	-0.15487169
189	0x3d40bb80	0.047053814
190	0xbda73137	-0.08163684
191	0xbc056e62	-0.008143993
192	0x3d9b3808	0.075790465
193	0xbbba54e5	-0.0056863897
194	0x3d69581d	0.056968797
195	0x3d084274	0.0332665
196	0xbc40b9d6	-0.011763057
197	0xbdc3e7e8	-0.09565717
198	0xbdcdadc3	-0.10042908
199	0x3e28dc41	0.1649027
200	0x3d934406	0.07190709
201	0xbdb9a5b8	-0.090648115
202	0x3e26f446	0.1630412
203	0xbdc902e0	-0.098150015
204	0x3d31bd80	0.043393612
205	0x3d14fe23	0.036375176
206	0xbe13a501	-0.14418413
207	0xbdc730a1	-0.09726072
208	0x3e04f013	0.12982206
209	0x3d77ce80	0.060499668
210	0x3de753fa	0.11295314
211	0xbd653c07	-0.05596545
212	0xbc174c76	-0.009234538
213	0x3d4e36bf	0.05034518
214	0x3dbd363e	0.092388615
215	0x3d715db5	0.058927257
216	0x3d8a95f8	0.067668855
217	0xbd6d8c44	-0.057995096
218	0xbda84173	-0.082156084
219	0xbda38264	-0.079838544
220	0x3cb5b338	0.022180185
221	0x3e263d13	0.16234235
222	0x3d4307a0	0.047614694
223	0xbe238088	-0.15967
224	0xbe26e600	-0.16298676
225	0xbc77d642	-0.015126767
226	0x3de4e7de	0.11177038
227	0x3df0ae84	0.11752036
228	0x3cb35ea3	0.021895712
229	0x3e2b9f91	0.16760089
230	0x3e10d91b	0.14145319
231	0x3df1a7f6	0.11799614
232	0xbd91fd2b	-0.07128366
233	0x3d178eb0	0.03700131
234	0x3e0868bd	0.13321204
235	0xbe0bd8fe	-0.13656995
236	0x3e6b0089	0.22949423
237	0x3e3492e4	0.1763416
238	0xbdca4899	-0.09877128
239	0xbc949154	-0.018135704
240	0xbe066bc0	-0.13127041
241	0xbe1cc583	-0.1530972
242	0xbdf11d73	-0.11773195
243	0x3e4a9177	0.19782053
244	0xbe2585de	-0.16164348
245	0x3c249e0b	0.010047446
246	0x3d6ecc68	0.058300406
247	0x3e23e072	0.16003588
248	0x3d242bac	0.04008071
249	0xbdaa521d	-0.08316443
250	0x3d7c92ff	0.061663624
251	0x3e1994ef	0.1499822
252	0xbdec2928	-0.115312874
253	0x3daace61	0.08340145
254	0xbe2a583e	-0.16635224
255	0x3d95afc2	0.07308914

bias f4 [32]
0	0xbdca5c14	-0.09880844
1	0xbd7a73fa	-0.06114576
2	0x3e0b18c2	0.13583663
3	0x3e9d83a9	0.3076451
4	0x3e204244	0.15650278
5	0xbdcd1044	-0.10012868
6	0x3d82a758	0.063795745
7	0x3e005863	0.12533717
8	0x3ea0aac4	0.31380284
9	0x3e325a23	0.17417197
10	0x3e86b059	0.26306418
11	0xbda7fec9	-0.08202893
12	0xbd5b050a	-0.053471602
13	0x3dc116b2	0.09428157
14	0xbe19320d	-0.14960499
15	0x3e40ebce	0.18839952
16	0xbcb6404a	-0.022247452
17	0x3d904684	0.070447
18	0x3d9b88d8	0.0759446
19	0x3dc765de	0.097362265
20	0xbda3db93	-0.08000865
21	0xbd849ad1	-0.064748414
22	0xbc99c2bb	-0.018769613
23	0xbddaa950	-0.10676825
24	0x3ea12fbc	0.3148173
25	0x3dd82cfc	0.10555455
26	0xbda669ff	-0.08125686
27	0xbdca50b6	-0.09878676
28	0x3e916b88	0.28402352
29	0x3df85510	0.121255994
30	0x3e561369	0.20905842
31	0xbb54200f	-0.0032367741

weight f4 [1, 32]
0	0x3e24ddb9	0.16100205
1	0xbdcf326f	-0.10117041
2	0x3e404da8	0.18779624
3	0x3ec9116f	0.39271113
4	0x3eae3317	0.34023353
5	0xbc8bdcf0	-0.017073125
6	0xbda68b0c	-0.0813199
7	0x3ea986a7	0.33110544
8	0x3e9b4711	0.30327657
9	0x3eb29a7d	0.3488349
10	0x3ea8fd94	0.33005965
11	0x3d2cff91	0.042235915
12	0x3d5fafbc	0.054610953
13	0x3d4dafce	0.05021649
14	0xbe30312e	-0.1720626
15	0x3da048d5	0.078263916
16	0x3d107e8a	0.035276927
17	0x3dc0c98a	0.094134405
18	0x3d674310	0.05646044
19	0xbe31ac78	-0.17350948
20	0xbdebb796	-0.115096256
21	0xbaa2de00	-0.001242578
22	0xbdde7990	-0.1086303
23	0xbda87b72	-0.0822667
24	0x3ebf7afc	0.37398517
25	0xbc9bed32	-0.019034002
26	0x3c9663f0	0.0183582
27	0xbe0f5cb8	-0.14000213
28	0x3ec83420	0.39102268
29	0x3e7d8adb	0.2476
30	0x3e5ad750	0.21371198
31	0xbca650b1	-0.020302149
