rl2024/exercise4/DDPG--racetrack-v0--critic_hidden_size:[32, 16, 16]_policy_hidden_size:[96, 96, 64]--2.pt (torch, 896067 bytes, 56 tensors)

weight f4 [96, 288]
0	0xbc99e7c4	-0.018787272
1	0xbd3e06e8	-0.046393305
2	0x3bc86518	0.006115567
3	0x3d54b43d	0.0519297
4	0xbd39d196	-0.045365892
5	0xbb7cc990	-0.003857229
6	0xbd4df09f	-0.050278302
7	0xbc7421b0	-0.01490061
8	0xbd341530	-0.04396552
9	0x3d2b71d9	0.04185662
10	0x3cfadbb6	0.030622344
11	0xbd477d0b	-0.048703235
12	0xbd5b898a	-0.053597964
13	0x3c925576	0.017863017
14	0x3d3fdaa7	0.046839382
15	0xbbf2d1c0	-0.007410258
16	0x3d00c479	0.03143737
17	0x3c0231c4	0.007946435
18	0xbd0d6cb5	-0.0345275
19	0x3d082b09	0.033244167
20	0x3c839602	0.01606274
21	0x3c72f4ec	0.014828902
22	0x3bf8de48	0.0075948574
23	0x3cbd5cde	0.023115572
24	0xbbfa1d18	-0.007632863
25	0x3cf43922	0.0298124
26	0xbc056ae8	-0.008143164
27	0x3c480db4	0.012210298
28	0x3c4f2dfc	0.012645241
29	0x3b2156d0	0.0024618395
30	0xbd1f3196	-0.03886565
31	0x3d23ee97	0.04002246
32	0x3b291400	0.0025799274
33	0x3cecb62a	0.028895456
34	0x3d0b3bcf	0.033992585
35	0x3ca6486a	0.020298202
36	0x3b9706b8	0.0046089552
37	0xbd294c54	-0.041332558
38	0x3b5d02d0	0.00337236
39	0x3c7be46c	0.015374284
40	0xbd1869c1	-0.03721023
41	0x3cb66752	0.022266064
42	0xbc2d80cc	-0.01058979
43	0x3d2abdd5	0.041684944
44	0x3d5507a1	0.05200923
45	0xbbd98598	-0.00663824
46	0x3b117640	0.0022195727
47	0x3d4da2f7	0.050204244
48	0x3d4975a7	0.049184468
49	0x3c49efe4	0.012325261
50	0x3c83de3e	0.016097184
51	0xbd29dd76	-0.041470967
52	0xbc4c92a0	-0.01248613
53	0xbbce6ef8	-0.0062998496
54	0xbd58e962	-0.052956946
55	0x3c858252	0.016297493
56	0xbd637af0	-0.055537164
57	0xbd1d5784	-0.03841354
58	0x3d6864d5	0.056736786
59	0xbd3cabcc	-0.046062276
60	0x3cb4092e	0.021977033
61	0xbd6a71ed	-0.057237554
62	0xbd3bc52c	-0.045842335
63	0xbc51cc78	-0.012805097
64	0xbd429372	-0.047503896
65	0xbd56afda	-0.0524138
66	0x3c64f4ec	0.01397441
67	0xbd109183	-0.03529502
68	0x3cee3d5e	0.029081997
69	0x3cfd531e	0.030923422
70	0xbc5bbb00	-0.0134112835
71	0xba1b0800	-0.0005913973
72	0xbd64dfb9	-0.05587742
73	0x3d49ee7b	0.0492997
74	0x3d0fcfed	0.035110403
75	0xbd2dafd2	-0.042404003
76	0xbc010220	-0.007874042
77	0xbb114c50	-0.002217073
78	0xbc3bcb31	-0.011462019
79	0x39c12780	0.00036841258
80	0x3c4e4f14	0.012592096
81	0x3b9138a8	0.004431803
82	0xbbc59f20	-0.006030932
83	0xbc48ce84	-0.012256268
84	0xbcd0245c	-0.025407963
85	0x3cda1c72	0.026624892
86	0xbd232c04	-0.0398369
87	0xbadb17c0	-0.0016715452
88	0xbcf05b6e	-0.029340472
89	0xbd527f64	-0.05139102
90	0xbd1ca496	-0.0382429
91	0xb82e6400	-4.1577965e-05
92	0xbc9243aa	-0.01785453
93	0xbd1e10d2	-0.03859026
94	0xbd32379b	-0.04351006
95	0xbd2982c2	-0.041384466
96	0xbd6f094b	-0.05835847
97	0x3a97d160	0.0011582784
98	0x3d657ac5	0.056025285
99	0x3b619d90	0.003442619
100	0x3cccc142	0.024994496
101	0xbd258cda	-0.04041753
102	0xbc8af688	-0.016963258
103	0xbd29e81e	-0.04148113
104	0x3d48582f	0.048912223
105	0xbae56a20	-0.0017502941
106	0xbb7bb0c0	-0.0038404912
107	0x3be88008	0.0070953406
108	0xbd4e10fb	-0.050309163
109	0x3c147ba4	0.009062681
110	0xb9871180	-0.00025762245
111	0xbc73e94c	-0.014887165
112	0x3d68b801	0.056816105
113	0x3d19232b	0.037387054
114	0xbbc2de50	-0.005946912
115	0xbcf61132	-0.030037496
116	0x3d55314f	0.052048977
117	0xbd02afb6	-0.031905852
118	0x3d5852a5	0.05281319
119	0x3cd58cfe	0.026068207
120	0x3bff86a8	0.0077980347
121	0xbd06f6d8	-0.032950252
122	0x3c62c96c	0.013841968
123	0xbc8657d2	-0.016399298
124	0xbc818dbe	-0.015814658
125	0x3d0e8701	0.03479672
126	0x3c25aeb4	0.010112453
127	0x3ce25e32	0.027632806
128	0x3d11f961	0.035638217
129	0x3d0341c5	0.032045145
130	0xbd377e6a	-0.044798292
131	0x3baa0038	0.0051880144
132	0xbc870614	-0.01648239
133	0x3d5d055d	0.053960193
134	0x3d2db171	0.04240555
135	0xba45b440	-0.0007541813
136	0xbc39aeac	-0.011333149
137	0xbcfa04d1	-0.030519875
138	0x3d1c62ff	0.038180348
139	0x3d1d54c5	0.03841092
140	0x3ccd169e	0.025035199
141	0xbd560228	-0.05224815
142	0xbd6de2e3	-0.058077704
143	0xbd6f3997	-0.05840453
144	0x3b0bc84a	0.0021329098
145	0x3d3f5304	0.04671003
146	0xbc823434	-0.015894033
147	0xbc62dda7	-0.013846791
148	0xbd57cb2f	-0.052684005
149	0x3d41508e	0.047195964
150	0xbc20ac33	-0.0098066805
151	0xbd09bc3c	-0.03362678
152	0x3d07f511	0.033192698
153	0xbc267d40	-0.010161698
154	0xbbaedae0	-0.0053361505
155	0xbd14e0c1	-0.036347155
156	0x3bb31a48	0.0054657795
157	0x3ca39796	0.019969743
158	0x3d487d88	0.04894784
159	0x3d535585	0.05159523
160	0x3d6fa8f9	0.058510754
161	0xbd61c132	-0.055115886
162	0xbd3c3230	-0.0459463
163	0xbd368ebc	-0.044569716
164	0x3b0d7e50	0.002159018
165	0x3d0db6a6	0.034598015
166	0x3d3e314f	0.046433743
167	0x3d4eca41	0.050485853
168	0x3ce6e7df	0.028186737
169	0x3d616e94	0.055037096
170	0xbd2fc0af	-0.042908367
171	0x3d18b950	0.037286103
172	0x3d56febc	0.052489027
173	0xbcf5646d	-0.029955113
174	0x3d1cd77d	0.038291443
175	0xbd42a72b	-0.047522705
176	0x3d3b34bd	0.045704592
177	0x3d4576e7	0.048209097
178	0xbc5922ae	-0.013252897
179	0x3d54cf14	0.051955298
180	0x3d4490f9	0.04798982
181	0xbd532785	-0.05155136
182	0xbc6578af	-0.014005824
183	0x3bec4412	0.007210263
184	0x39eaaf2d	0.00044762474
185	0xbd10e44c	-0.03537397
186	0xbd170a60	-0.03687513
187	0xbca85711	-0.020549329
188	0xbc23b040	-0.009990752
189	0x3cda4b80	0.02664733
190	0x3d323489	0.043507133
191	0xbca4e103	-0.020126825
192	0xbc167ede	-0.009185521
193	0xbb2a0dfa	-0.0025948272
194	0xbd1c07eb	-0.03809349
195	0x3d1e08e3	0.038582694
196	0x3d283f98	0.041076273
197	0xbd601d46	-0.054715417
198	0xbd427fd1	-0.047485176
199	0x3c997867	0.01873417
200	0x3d2fdc27	0.042934563
201	0x3ce6b53f	0.028162597
202	0xbc04f297	-0.008114479
203	0xbd435193	-0.047685217
204	0x3d65db50	0.056117356
205	0x3d1100ff	0.03540134
206	0x3cfcc9d6	0.030857962
207	0xbd6dc1ac	-0.058046028
208	0x3d41d8d8	0.04732594
209	0x3d233e5a	0.039854385
210	0x3c36f894	0.011167664
211	0xbab94e86	-0.0014137782
212	0x3c7db5e5	0.015485262
213	0xbd1c4916	-0.038155638
214	0xbd26cc4b	-0.040722173
215	0x3d16b06b	0.03678934
216	0xbab27d2f	-0.001361763
217	0xbcaf8764	-0.021426864
218	0xbd0d8f52	-0.03456051
219	0xbd31d26f	-0.043413576
220	0xbcc95c24	-0.024580069
221	0x3cbea490	0.023271829
222	0x3c388cef	0.01126407
223	0x3c8c639d	0.017137343
224	0xbb5cb50f	-0.0033677255
225	0x3d1a49fc	0.037668213
226	0xbd5a877d	-0.053351868
227	0xbd5c01c4	-0.05371262
228	0xbc9d0218	-0.019166037
229	0xbce8ea60	-0.028432071
230	0xbc9fc1e8	-0.019501641
231	0xbc13251c	-0.0089810155
232	0xbc9ab5e4	-0.01888556
233	0x3cc9468e	0.024569776
234	0xbd0270ca	-0.031845845
235	0xbd223d50	-0.039609253
236	0x3cfd32f9	0.030908095
237	0xbc68bd2f	-0.014205261
238	0xbd0310b8	-0.031998366
239	0xbd2def15	-0.042464335
240	0x3bc2f87f	0.005950033
241	0x3cea8ca7	0.028631521
242	0xbcba89da	-0.02277081
243	0xbd323bb2	-0.04351396
244	0xbd408512	-0.047001906
245	0x3a9a7220	0.001178328
246	0xbcf26551	-0.029589327
247	0xbd668813	-0.056282114
248	0xbc08cd53	-0.008349734
249	0x3c3e66e2	0.011621209
250	0x3cf9e4cf	0.030504612
251	0x3cd41f36	0.025893789
252	0x3c92d462	0.017923538
253	0xbbcd8058	-0.0062714033
254	0xbd07744e	-0.0330699
255	0xbd4651ea	-0.048417963

bias f4 [96]
0	0xbd57ca25	-0.052683014
1	0xbce10fe3	-0.027473396
2	0xbd6d1a8d	-0.05788665
3	0x3a93844d	0.0011254639
4	0x3c491846	0.012273854
5	0x3b12df97	0.0022411102
6	0xbd4d40c9	-0.050110612
7	0x3bcd1964	0.0062591303
8	0x3c4f17fe	0.0126399975
9	0xbd293334	-0.041308597
10	0x3cec02e8	0.02880998
11	0x3b881fa2	0.0041541616
12	0xbd11c77a	-0.035590626
13	0xbd508bf1	-0.05091471
14	0x3d83cf40	0.06436014
15	0xbd034779	-0.032050584
16	0x3cbea04a	0.023269791
17	0x3cc8ebeb	0.024526557
18	0x3d3ba225	0.04580893
19	0xbc9249d1	-0.017857464
20	0xbc6b37d8	-0.014356576
21	0x3d617f09	0.05505279
22	0x3d3f13d5	0.046649773
23	0xbd479c2d	-0.048732925
24	0x3c947f97	0.018127246
25	0xbb35799e	-0.0027690898
26	0xbd41c213	-0.047304224
27	0xbccbc4f4	-0.024874188
28	0xbc78909c	-0.015171196
29	0x3d0cff28	0.034423023
30	0xbcfcd8e6	-0.030865144
31	0x3d1f24b0	0.038853347
32	0x3de37a2a	0.11107285
33	0x3c45c602	0.0120711345
34	0x3d778783	0.06043197
35	0x3d02bc0a	0.03191761
36	0x3dc4073e	0.09571694
37	0x3d564e6a	0.052320875
38	0xbceb2408	-0.028703704
39	0xbd669353	-0.056292843
40	0x3d4b424e	0.04962378
41	0x3d179934	0.03701134
42	0xbd49f58a	-0.04930643
43	0x3e025844	0.12728983
44	0xbcc33978	-0.023831114
45	0xbb91fc4f	-0.0044551264
46	0xbd605f03	-0.05477811
47	0xbc764594	-0.015031237
48	0x3cf304f3	0.029665446
49	0xbc6ddf28	-0.014518537
50	0xbd108178	-0.03527972
51	0xbcd9c6f6	-0.02658413
52	0x3d0549cb	0.032541078
53	0x3d7cb3d2	0.061694928
54	0xbd5fe477	-0.05466124
55	0x3d980c9d	0.07424281
56	0x3daaf72e	0.08347927
57	0x3dc8fe4f	0.098141305
58	0xbc2e58b8	-0.010641269
59	0x3c7cc98d	0.015428913
60	0xbd380646	-0.044927858
61	0x3dfc2111	0.123109944
62	0xbd1cd380	-0.03828764
63	0xbc048144	-0.00808746
64	0x3d277807	0.04088595
65	0x3d71b804	0.05901338
66	0x3d8e3256	0.069431946
67	0x3c9b0ae3	0.01892609
68	0x3d91dd9c	0.07122347
69	0xbc9d3ff0	-0.019195527
70	0xbcb9b52f	-0.022669403
71	0x3da69c3e	0.081352696
72	0xbcf00eee	-0.029303994
73	0x3d78c0aa	0.060730614
74	0xbcb7faca	-0.022458453
75	0x3d9441c7	0.072391085
76	0xbbd0e000	-0.006374359
77	0x3be420c2	0.006961913
78	0xbd3a403e	-0.045471422
79	0x3d92b87b	0.07164093
80	0x3a85103d	0.0010151934
81	0xbc00773e	-0.00784093
82	0x3da7c323	0.08191516
83	0x3c5e60b2	0.013572859
84	0x3d878b86	0.06618409
85	0x3dccbcf7	0.0999698
86	0xbd0025f6	-0.031286202
87	0x3d532bda	0.051555492
88	0x3c04bc20	0.008101493
89	0xbafefa15	-0.0019453192
90	0xbc0052d8	-0.0078322515
91	0xbd38b9f1	-0.045099203
92	0x3dd4f8c5	0.103990115
93	0x3d1e1779	0.038596604
94	0x3d941e18	0.072323024
95	0xbd0a380d	-0.03374486

weight f4 [96, 96]
0	0xbd8f5de5	-0.07000331
1	0x3cdf6623	0.027270382
2	0x3c0328e8	0.008005358
3	0x3dbe3e6c	0.0928925
4	0x3dcb5cca	0.099298075
5	0x3dc9fcdb	0.098626815
6	0x3abb9c27	0.0014313505
7	0x3dab545f	0.08365702
8	0x3d0fc05a	0.03509555
9	0xbda37d83	-0.07982924
10	0x3db9e077	0.090760164
11	0xbd843a0d	-0.06456385
12	0xbd989433	-0.07450142
13	0xbd6401b3	-0.055665683
14	0x3d9c529c	0.07632944
15	0xbdad6e9a	-0.08468361
16	0xbd91706c	-0.07101521
17	0x3d86b264	0.06576994
18	0x3d80bb41	0.06285716
19	0xbd33486a	-0.04377023
20	0xbd96a775	-0.07356159
21	0xbd5fa608	-0.0546017
22	0x3d315c68	0.043301016
23	0xbd404671	-0.04694218
24	0xbdb434f3	-0.08799162
25	0xbd903915	-0.070421375
26	0x3d73cd8a	0.05952219
27	0x3dcd4f72	0.100249186
28	0xbd8febd0	-0.070273995
29	0xbce131bd	-0.027489537
30	0x3da1a57e	0.07892893
31	0xbdc911de	-0.09817861
32	0x3cd84edc	0.02640479
33	0xbdaf5f7a	-0.085631326
34	0x3c47c224	0.012192283
35	0x3d550d21	0.052014474
36	0xbc84d1a4	-0.016213246
37	0x3ce5bb21	0.028043332
38	0x3da557e4	0.080734044
39	0x3d9014ec	0.070352405
40	0xbd1dc3dd	-0.038516868
41	0xbd927ced	-0.07152734
42	0xbd7b976b	-0.0614237
43	0xbd75fd60	-0.06005609
44	0xbd4f9b50	-0.050685227
45	0x3b95ee34	0.004575515
46	0xbdc85e83	-0.09783652
47	0xbd7d7b7a	-0.061885335
48	0x3c9b46c7	0.018954648
49	0xbda5d72b	-0.08097681
50	0xbd7542be	-0.059878103
51	0x3d75b676	0.05998846
52	0xbdaa1446	-0.08304648
53	0x3d0b6e5e	0.0340408
54	0x3d442206	0.04788401
55	0xbdc62322	-0.0967467
56	0xbcb6df90	-0.0223234
57	0xbd8fb071	-0.070160754
58	0xbc6c52eb	-0.014424066
59	0xbc977d27	-0.018492294
60	0xbd9034c9	-0.07041318
61	0x3db3372e	0.08750759
62	0x3ce00c1f	0.02734953
63	0xbdc5da28	-0.09660751
64	0xbcff9868	-0.031200603
65	0x3ca5576c	0.020183288
66	0xbd78b888	-0.060722858
67	0x3d3d5d4c	0.046231553
68	0xbcdeb186	-0.02718426
69	0xbd9c4bda	-0.07631655
70	0x3d700d02	0.058606155
71	0xbd671111	-0.05641276
72	0xbd98180e	-0.07426463
73	0xbcc86d8a	-0.024466295
74	0x3d8eedfe	0.06978987
75	0x3c046874	0.008081544
76	0x3d05a617	0.0326291
77	0x3d973da0	0.07384801
78	0x3d692d54	0.056927994
79	0x3c9b6a36	0.018971544
80	0x3d9fb41b	0.07798024
81	0xbd018acb	-0.031626504
82	0x3d2c8c98	0.04212627
83	0xbca4e00b	-0.020126363
84	0xbd0d22d1	-0.03445703
85	0xbc02351e	-0.007947234
86	0x3d03c052	0.032165833
87	0xbd35dd64	-0.044400588
88	0xbd212b03	-0.03934766
89	0xbd860480	-0.06543827
90	0x3c0a33eb	0.00843523
91	0xbd915be7	-0.07097607
92	0x3cceb4a6	0.025232624
93	0x3d36e8ef	0.044655737
94	0x3db1b7ec	0.086776584
95	0x3d3b934c	0.04579477
96	0x3cc6fba4	0.024289913
97	0xbcd44856	-0.025913399
98	0x3d25dc84	0.040493503
99	0x3d2f25bb	0.042760592
100	0x3d26dba2	0.040736802
101	0x3d5161e1	0.051118735
102	0x3cd6b0d1	0.02620736
103	0xbd28cffa	-0.041213967
104	0xbd712303	-0.05887128
105	0xbd9989b2	-0.074969664
106	0x3c433180	0.011913657
107	0xbd663311	-0.056201044
108	0xbd93b2ee	-0.072118625
109	0xbd8164e3	-0.06318071
110	0x3dd0722f	0.10178029
111	0xbd9d8841	-0.07692004
112	0xbd97e1d5	-0.07416121
113	0xbdcc3256	-0.09970538
114	0x3dc4d7a9	0.096114464
115	0x3cf3040d	0.029665018
116	0xbbff92e5	-0.0077994936
117	0x3dc1ec2b	0.094688736
118	0x3db32cdd	0.08748791
119	0x3d82a781	0.06379605
120	0xbd59ec2a	-0.05320374
121	0x3d8b696f	0.06807219
122	0xbd5b509d	-0.053543676
123	0xbd109315	-0.03529652
124	0x3d85636e	0.06513105
125	0xbd12396f	-0.035699304
126	0xbdb8646c	-0.09003529
127	0x3d70c73c	0.058783755
128	0x3d270e72	0.04078526
129	0x39fd41f5	0.00048305062
130	0xbd83eafb	-0.06441303
131	0x3cae5476	0.021280508
132	0xbd93dff7	-0.07220452
133	0x3d59534e	0.05305796
134	0xbcbdb6f7	-0.023158533
135	0x3dd0da88	0.101979315
136	0x3d1f682a	0.038917698
137	0x3d8545b8	0.065074384
138	0xbd2f586c	-0.042808935
139	0xbd89f34d	-0.06735859
140	0x3bb6ad41	0.0055748527
141	0x3da02088	0.07818705
142	0x3d61a34c	0.055087373
143	0x3d775c5b	0.06039081
144	0xbd835cf7	-0.06414216
145	0x3cf37d1f	0.029722748
146	0x3c38b5dd	0.011273828
147	0x3dc62e1c	0.096767634
148	0xbc696fd2	-0.014247851
149	0xbb341a9a	-0.0027481676
150	0xbdb2ff11	-0.08740056
151	0x3d9d4111	0.07678426
152	0xbd8dc854	-0.06922975
153	0x3c3f0fc5	0.011661475
154	0xbdce71b8	-0.10080284
155	0xbdc067d0	-0.09394801
156	0xbd9977de	-0.07493566
157	0x3d31515d	0.043290485
158	0xbd00bc15	-0.03142937
159	0x3d440068	0.04785195
160	0x3b9b4bc3	0.004739256
161	0x3cf43122	0.029808585
162	0xbd7d0090	-0.061768115
163	0x3d734efd	0.0594015
164	0xbdce0874	-0.10060206
165	0x3d114324	0.03546442
166	0xb8280d46	-4.0066683e-05
167	0xbda5e93f	-0.08101129
168	0x3d9537e5	0.07286052
169	0xbcc5f25f	-0.024163423
170	0x3dbb6fef	0.09152209
171	0x3d7ddeee	0.06198018
172	0xbda6633d	-0.08124397
173	0x3d9fcc74	0.07802668
174	0x3c91d835	0.01780329
175	0xbca84ee2	-0.020545427
176	0xbd6dcb13	-0.058054995
177	0xbd3f52e1	-0.0467099
178	0x3dc6defe	0.09710501
179	0xbc6fa40b	-0.014626513
180	0x3be9350d	0.00711692
181	0xbdacdfe9	-0.08441145
182	0xbdcabc04	-0.098991424
183	0xbd9206a0	-0.0713017
184	0xbc69c588	-0.0142682865
185	0x3dc5ee43	0.096645854
186	0xbdce796c	-0.10081753
187	0xbd13d129	-0.036088143
188	0xbc101ffd	-0.008796689
189	0x3d69c58b	0.057073157
190	0xbc8ba695	-0.017047206
191	0x3d7d6cb6	0.061871253
192	0x3d135051	0.035965268
193	0x3cb140e1	0.021637382
194	0x3d3921f0	0.04519838
195	0xbdc8c31a	-0.09802838
196	0xbda9b7fd	-0.08287046
197	0x3ce9f786	0.028560411
198	0xbd9059e1	-0.07048393
199	0x3d92071e	0.07130264
200	0xbc40d2a0	-0.011768967
201	0xbb01d7b8	-0.0019812416
202	0xbdb67b20	-0.08910203
203	0xbd2d4a62	-0.042307265
204	0xbd668d60	-0.05628717
205	0xbc40605a	-0.011741722
206	0xbdbd1cc8	-0.09234005
207	0x3c961e66	0.018325042
208	0x3cfd40fa	0.030914772
209	0x3d284f3b	0.041091185
210	0x3d6155f0	0.055013597
211	0x3db12a13	0.08650603
212	0xbc531458	-0.012883268
213	0xbdce6872	-0.10078515
214	0xbca124e2	-0.019670907
215	0xbd691445	-0.056904096
216	0xbdc5bea7	-0.09655505
217	0x3bc0da5e	0.0058854064
218	0x3cfd4ef8	0.030921444
219	0xbda64e9c	-0.08120462
220	0xbd43dbaa	-0.04781691
221	0xbc8794bb	-0.016550412
222	0x3dacf203	0.084445976
223	0x3dae15ab	0.085002266
224	0x3dd0972a	0.10185082
225	0xbd43feec	-0.047850534
226	0xbd7d942b	-0.061908882
227	0xbd882c2a	-0.066490486
228	0xbd205af7	-0.03914925
229	0xbd71566a	-0.0589203
230	0x3c36c109	0.011154422
231	0xbd6b19c2	-0.05739761
232	0xbd57be1f	-0.052671548
233	0xbd9f1764	-0.07768133
234	0xbd991ffd	-0.074768044
235	0x3caed3cb	0.021341225
236	0xbdc39b80	-0.09551144
237	0xbd138889	-0.036018882
238	0xbdcce695	-0.100049175
239	0x3b9740a0	0.004615858
240	0x3db741a4	0.08948067
241	0xbd7a7348	-0.061145097
242	0xbd8c8632	-0.06861533
243	0xbcd1aab4	-0.025594093
244	0xbcfda5a1	-0.030962767
245	0x3d613981	0.05498648
246	0xbcc9014c	-0.024536751
247	0x3ba77ecf	0.0051115523
248	0x3cdfd787	0.027324451
249	0xbd0028f1	-0.031289045
250	0x3d9adb79	0.07561392
251	0x3c2f2f60	0.010692447
252	0xbd8539b0	-0.06505144
253	0xbdc706b3	-0.09718075
254	0xbccd41ef	-0.025055854
255	0xbce7fe5d	-0.028319532

bias f4 [96]
0	0x3d4ffe55	0.05077966
1	0xbd9e33e9	-0.07724745
2	0x3c24f3ea	0.010067919
3	0x3d92b4e5	0.07163409
4	0x3d8342c2	0.064092174
5	0xbcb699dd	-0.022290165
6	0x3e371e31	0.17882611
7	0xbb6d7910	-0.003623549
8	0x3da4e58c	0.08051595
9	0x3e5a01d1	0.21289755
10	0x3df66b57	0.12032192
11	0xba8c2afa	-0.001069396
12	0x3dfbee76	0.12301342
13	0xbd3d752c	-0.046254322
14	0xbda558c6	-0.08073573
15	0x3dc02380	0.09381771
16	0x3d6122d2	0.054964848
17	0x3d39d535	0.045369346
18	0xbd526e48	-0.051374704
19	0xbda2d4ba	-0.079507306
20	0x3e01fd4c	0.12694281
21	0xbcee70a9	-0.029106455
22	0xbd11e62c	-0.0356199
23	0xbdc8589a	-0.097825244
24	0x3e203eec	0.15649003
25	0xbd46f2fb	-0.048571568
26	0xbcfbc8e4	-0.03073544
27	0xbd10280d	-0.035194445
28	0xbd8b3279	-0.06796736
29	0xbbb78994	-0.0056011174
30	0x3dc626c5	0.096753635
31	0xbd8d9838	-0.06913799
32	0x3e4212f8	0.18952549
33	0xbd66cc96	-0.056347452
34	0xbd270e09	-0.04078487
35	0x3de7b5bf	0.11313962
36	0xbda88057	-0.08227604
37	0x3c20b7b3	0.009809422
38	0x3e0dd351	0.13850142
39	0x3dfa5266	0.122227475
40	0x3e20dc31	0.15708996
41	0xbda6c17e	-0.081423745
42	0xbd533fb1	-0.051574413
43	0x3d3558b5	0.04427405
44	0x3cb0624d	0.021531248
45	0x3e0c5e42	0.13707832
46	0xbda3a78d	-0.07990942
47	0x3e349b8f	0.17637466
48	0x3da4bc36	0.08043711
49	0xbd7f11c7	-0.062272813
50	0xbcaaa643	-0.020831233
51	0x3da0cfe7	0.07852154
52	0xbd28ac74	-0.04118009
53	0xbb81e850	-0.0039644614
54	0xbd92ee47	-0.07174354
55	0x3c036070	0.008018598
56	0xbda86ab4	-0.08223477
57	0xbd635ce5	-0.055508513
58	0xbd921f61	-0.07134891
59	0x3dede381	0.116156586
60	0xbbc7089a	-0.0060740234
61	0x3d6e1676	0.05812689
62	0xbd2a3c3d	-0.041561354
63	0xbcbc3044	-0.022972234
64	0xbcebd85e	-0.028789695
65	0x3cadd186	0.021218073
66	0xbd83d4c8	-0.06437069
67	0xbd37b662	-0.04485167
68	0xbcfd4c3c	-0.03092014
69	0xbdbf66fa	-0.09345813
70	0x3bab808a	0.005233829
71	0xbd8209b0	-0.06349504
72	0x3b3eb89f	0.0029101742
73	0x3e8cfc3f	0.27536198
74	0x3d8502e7	0.06494694
75	0x3d41cdd8	0.04731545
76	0x3e3aef79	0.18255414
77	0x3e2f58c5	0.17123707
78	0x3df80cd7	0.12111824
79	0x3dc4427b	0.09582993
80	0x3e66cfd5	0.22540219
81	0xbdbc629e	-0.09198497
82	0x3dd2e278	0.10297102
83	0x3da91bc2	0.082572475
84	0x3db23df2	0.087032214
85	0x3d086463	0.03329886
86	0xbd9222c6	-0.07135539
87	0xbda46755	-0.080275215
88	0xbdd05963	-0.10173299
89	0xbd157686	-0.036489986
90	0xbdb29dac	-0.0872148
91	0x3a8fcaef	0.0010970513
92	0x3bfc1437	0.0076928395
93	0x3db5e0c4	0.08880761
94	0x3e3caab0	0.18424487
95	0x3e1aa9ab	0.15103786

weight f4 [64, 96]
0	0x3c801227	0.015633656
1	0x3d5b31ee	0.053514414
2	0xbdb7eaf7	-0.08980363
3	0x3cbdc75c	0.023166351
4	0xbc464f86	-0.012103921
5	0xbc76b34d	-0.015057397
6	0xbbfdc21b	-0.0077440864
7	0xbdcba860	-0.09944224
8	0x3d97d431	0.07413519
9	0x3d8732b7	0.0660147
10	0x3d672f6d	0.056441713
11	0x3d888b95	0.06667248
12	0x3d58152f	0.052754577
13	0x3d61d8a5	0.05513825
14	0x3d5c5b67	0.053798106
15	0xbd8943ea	-0.06702407
16	0x3dcfa7d8	0.101394355
17	0xbcf2446c	-0.029573642
18	0xbd35c8cf	-0.04438096
19	0x3c8bb563	0.017054265
20	0x3d677b56	0.056514107
21	0x3d29e9c0	0.041482687
22	0xbd80801c	-0.06274435
23	0x3dc4585f	0.09587168
24	0x3d8cc00d	0.06872568
25	0x3d58b1d6	0.052903973
26	0x3b566fe4	0.00327205
27	0x3cf52058	0.02992265
28	0x3c7f3ac2	0.015577974
29	0x3c9ffd41	0.01952994
30	0xbd79b153	-0.060960125
31	0x3ca54f73	0.020179486
32	0x3d9bea3b	0.07613035
33	0x3d946c64	0.07247236
34	0x3d4d8a63	0.050180804
35	0x3c54626f	0.0129629215
36	0x3d3731ac	0.044725105
37	0x39d4d0bc	0.0004059131
38	0x3d2e03cd	0.042484093
39	0x3dc5a88f	0.096512906
40	0x3d9e7b49	0.077383585
41	0xbc3db778	-0.011579387
42	0x3d96d741	0.07365275
43	0x3dce15bc	0.10062739
44	0xbd925227	-0.071445756
45	0x3de747b2	0.11292972
46	0xbd91191e	-0.07084869
47	0xbadb6803	-0.0016739372
48	0x3d710d05	0.058850307
49	0xbd8b50f1	-0.06802548
50	0x3db41a33	0.087940596
51	0x3dbe1c30	0.0928272
52	0x3d3b3742	0.045706995
53	0x3ca77d79	0.020445572
54	0x3d9119b4	0.070849806
55	0xbdaefb17	-0.08543985
56	0xbdb356ee	-0.08756815
57	0x3d767184	0.06016685
58	0x3d98549f	0.07438015
59	0x3d1f6514	0.038914755
60	0x3dca08b0	0.09864938
61	0x3d46479a	0.04840813
62	0x3dc3d44e	0.09561978
63	0x3d828ce8	0.06374532
64	0x3cf9e05e	0.030502494
65	0xbd6ca395	-0.05777319
66	0x3d8bc6de	0.0682504
67	0xbdcc7243	-0.09982731
68	0x3db612c8	0.08890301
69	0xbdc83c48	-0.09777123
70	0x3bacc2e2	0.0052722553
71	0xbb2f04ab	-0.0026705663
72	0xbc63cbc7	-0.013903565
73	0x3dd37b7a	0.10326286
74	0xbd220e53	-0.039564442
75	0x3ccd7ae8	0.02508302
76	0x3db23fa1	0.087035425
77	0x3cdfc608	0.027316108
78	0x3d743bff	0.05962753
79	0x3d931e9c	0.07183573
80	0x3e099fa6	0.13439807
81	0xbcd5c9bc	-0.026097171
82	0xbd575752	-0.05257351
83	0x3c0ad64d	0.008473945
84	0xbd40593c	-0.0469601
85	0xbd5b2765	-0.053504366
86	0xbc03e302	-0.008049728
87	0x3d938d83	0.072047256
88	0xbd2a45c3	-0.041570436
89	0x3db3ed4a	0.08785494
90	0x3d4b04f3	0.049565267
91	0x3da422a6	0.08014421
92	0x3da1b316	0.07895486
93	0x37bc2c99	2.2432114e-05
94	0x3da6d12b	0.081453644
95	0x3c766feb	0.015041332
96	0xbdb6df40	-0.089293
97	0xbd85f5eb	-0.06541046
98	0xbd95122c	-0.07278857
99	0x3dc59d8d	0.09649191
100	0x3dca68fb	0.09883305
101	0x3befbfb6	0.007316555
102	0x3d37d24c	0.04487829
103	0x3c8888b7	0.016666753
104	0x3d1045ea	0.035222925
105	0xbca49c1d	-0.020093972
106	0x3cb86cf7	0.022512896
107	0x3db7038a	0.08936222
108	0xbd9b69cc	-0.075885385
109	0x3d7c3229	0.061571274
110	0xbc0275bf	-0.007962643
111	0xbcfd5b34	-0.030927278
112	0x3dcfaa95	0.10139958
113	0x3d264c70	0.04060024
114	0x3cd79c72	0.026319716
115	0x3d64e1de	0.055879466
116	0xbd6de556	-0.05808004
117	0x3d84272f	0.06452786
118	0x3c94a68c	0.018145822
119	0x3c23d057	0.009998403
120	0xbd60b59b	-0.054860692
121	0x3ce2ce91	0.02768639
122	0x3cb8ba1f	0.022549687
123	0x3d7641ed	0.060121465
124	0xbd29135d	-0.041278232
125	0x3d53481a	0.051582433
126	0x3dd2fd20	0.10302186
127	0xbd7e0df9	-0.062025044
128	0xbd7f3120	-0.06230271
129	0x3da3ae21	0.07992197
130	0xbd97209a	-0.07379265
131	0xbcd9ee94	-0.02660302
132	0xbd176110	-0.0369578
133	0xbd98d051	-0.07461608
134	0xbce775c8	-0.028254405
135	0x3d14dbd9	0.036342476
136	0x3d6a7251	0.057237927
137	0xbc1ba4e6	-0.009499764
138	0xbb9efac9	-0.0048516733
139	0xbdc386a3	-0.09547164
140	0x3d8a8869	0.067642994
141	0x3da9ef00	0.08297539
142	0xbc17206e	-0.00922404
143	0x3dd2b70f	0.10288822
144	0x3d87375f	0.06602358
145	0xbdb80832	-0.08985938
146	0x3cfd4bdc	0.030919962
147	0xbd6d24da	-0.057896473
148	0xbcff26b9	-0.031146394
149	0x3d8c5e29	0.06853897
150	0xbd4ce4b6	-0.050022803
151	0x3ca10999	0.019657897
152	0x3d9d2836	0.07673685
153	0x3d66f1d9	0.056382988
154	0xbcdb6762	-0.026782695
155	0x3ccfee52	0.025382195
156	0x3dc66469	0.096871205
157	0x3d592a96	0.05301913
158	0x3cab5b72	0.020917628
159	0x3d9f57fd	0.07780454
160	0xbc4d342e	-0.012524648
161	0xbdc366c2	-0.09541084
162	0xbb487ee0	-0.0030593202
163	0xbd771d69	-0.060330782
164	0x3d779d64	0.060452834
165	0xbcacd29c	-0.02109652
166	0xbd6f1c56	-0.058376633
167	0x3d2a5697	0.041586485
168	0xbc9a770f	-0.0188556
169	0xbd186108	-0.03720191
170	0x3db80e68	0.08987123
171	0xbc20c7e5	-0.009813284
172	0xbda208dd	-0.07911847
173	0xbcbc298e	-0.022969034
174	0x3cf95a38	0.030438527
175	0x3d77e2f3	0.06051917
176	0x3d2a71da	0.041612484
177	0xbda34f4d	-0.0797411
178	0x3d20cb49	0.039256368
179	0xbcc915ee	-0.02454659
180	0x3d82c826	0.063858315
181	0x3d1ac874	0.037788823
182	0x3daedfe1	0.08538795
183	0xbc617b4a	-0.013762305
184	0xbd5b9a27	-0.053613808
185	0x3c0f4607	0.008744723
186	0xbac80f97	-0.0015263435
187	0xbd75cab8	-0.06000778
188	0xbcf082da	-0.02935927
189	0x3d08fa78	0.03344199
190	0xbcd486e4	-0.025943227
191	0x3deb17f1	0.11479176
192	0xbb786ff4	-0.0037908526
193	0xbd9501bc	-0.072757214
194	0xbcb6245c	-0.022234134
195	0x3d82f51f	0.063944094
196	0x3d9f6b66	0.077841565
197	0xbdbad3b9	-0.09122414
198	0x3ccaee70	0.024771899
199	0xbd8ae81a	-0.06782551
200	0x3da8e842	0.08247425
201	0xbc3b7888	-0.011442311
202	0xbd855497	-0.06510275
203	0x3d6760fc	0.056488976
204	0xbd4c13a5	-0.049823422
205	0xbc0ada97	-0.008474967
206	0x3dcfce04	0.10146716
207	0xbd61c8d8	-0.05512318
208	0xbc96d1ad	-0.018410528
209	0x3db659aa	0.08903821
210	0xbdaf6fd0	-0.085662484
211	0xbdc2fefd	-0.095212914
212	0xbd916004	-0.07098392
213	0xbdb40e16	-0.08791749
214	0xbd659aca	-0.05605582
215	0xbd906c9a	-0.07051964
216	0x3dcc9e8a	0.099911764
217	0xbdba1d0a	-0.0908757
218	0xbd028106	-0.031861328
219	0xbca7ff7c	-0.020507567
220	0x3b3da480	0.002893716
221	0x3db5d5b9	0.08878655
222	0xb8337f37	-4.2795404e-05
223	0x3c0b5b30	0.0085056275
224	0xbbe60827	-0.007020015
225	0x3b85d3e0	0.0040840954
226	0x3b4b0da0	0.0030983463
227	0x3d350395	0.04419287
228	0x3bab1d20	0.005221978
229	0xbd82d8e4	-0.06389025
230	0xbd9737cf	-0.073836915
231	0x3d88a0de	0.06671308
232	0x3db22e49	0.087002344
233	0x3b90ae5c	0.0044153165
234	0xbda87f05	-0.08227352
235	0xbd390fa0	-0.045180917
236	0xbda52568	-0.08063775
237	0x3c4e4ecd	0.01259203
238	0xbc21ed30	-0.00988321
239	0xbc9e0757	-0.01929061
240	0xbd1c8fee	-0.0382232
241	0x3c666dab	0.014064233
242	0xbcf65080	-0.030067682
243	0xbdce72f7	-0.100805216
244	0xbb36b9c3	-0.0027881719
245	0x3da3c3ae	0.07996307
246	0x3d923b58	0.07140225
247	0x3d54808c	0.051880404
248	0x3dc53770	0.096297145
249	0xbd82c514	-0.06385246
250	0xbcdf4de8	-0.027258828
251	0x3d0e73ce	0.03477841
252	0x3c8d4ed4	0.017249502
253	0xbd5aa3aa	-0.05337874
254	0xbb47a4c0	-0.003046319
255	0x3d079924	0.03310503

bias f4 [64]
0	0x3e7cfb5e	0.24705264
1	0x3df26cf0	0.118371844
2	0xbc5a5e89	-0.013328203
3	0xbd2208f4	-0.03955932
4	0x3e85ba48	0.26118684
5	0x3e10a927	0.14127026
6	0xbd98cf7c	-0.074614495
7	0xbd8b3489	-0.0679713
8	0xbd30eec8	-0.04319647
9	0x3e655b14	0.22398025
10	0x3e519071	0.20465256
11	0x3c5c0159	0.013428056
12	0xbcae9bd0	-0.021314532
13	0xbc1929ea	-0.009348372
14	0x3c5e492d	0.013567251
15	0xbd819af8	-0.06328386
16	0x3d25f9d0	0.040521443
17	0xbccab570	-0.02474472
18	0xbd754a48	-0.059885293
19	0xbd572c70	-0.052532613
20	0xbd8a9fc3	-0.067687534
21	0xbba7351a	-0.0051027657
22	0xbd42f28e	-0.0475946
23	0xbdbb207e	-0.09137057
24	0xbd303b7b	-0.043025475
25	0x3e4e94ef	0.20174001
26	0x3cc3a435	0.023882011
27	0x3d4b783e	0.04967522
28	0x3e259e89	0.16173758
29	0xbc98cc66	-0.018652152
30	0xbd9f9d71	-0.077937014
31	0x3e82d6c6	0.25554484
32	0xbd85d418	-0.06534594
33	0xbbfee480	-0.007778704
34	0x3e3e615c	0.18591827
35	0x3dcc772b	0.09983667
36	0x3c1ffb04	0.009764437
37	0xbd83483d	-0.06410263
38	0xbdcf6bdd	-0.10127995
39	0xbaa540ab	-0.0012607774
40	0xbcc57f42	-0.024108533
41	0xbcec132c	-0.028817736
42	0x3e1f77fa	0.15573111
43	0xbda6bceb	-0.08141502
44	0x3e5b39e1	0.21408798
45	0xbd7d3789	-0.06182054
46	0x3b8a68db	0.0042239255
47	0x3d2fec91	0.042950217
48	0xbd213179	-0.03935382
49	0x3e174788	0.14773381
50	0xbd67c333	-0.05658264
51	0xbd19d3cd	-0.037555505
52	0x3e8c07e6	0.27349776
53	0x3c1cc408	0.009568222
54	0x3e4c8fe9	0.19976772
55	0xbda9a39c	-0.08283159
56	0xbd76b99a	-0.060235597
57	0x3d4f2371	0.05057091
58	0x3e81d713	0.253594
59	0x3af42275	0.0018625992
60	0x3b3796d2	0.002801348
61	0x3cbeb7cc	0.023281
62	0x3d4f96dd	0.050680984
63	0x3e7c9856	0.24667487

weight f4 [1, 64]
0	0xbe857025	-0.26062122
1	0xbdeeeda1	-0.11666418
2	0x3dea7a8e	0.11449157
3	0xbd9d3f04	-0.07678035
4	0xbe84b4f0	-0.25919294
5	0xbe41ff46	-0.18945035
6	0x3cf4f3b8	0.02990137
7	0xbdd509b6	-0.10402243
8	0x3d916b8a	0.071005896
9	0xbe930569	-0.28715065
10	0xbe7c93d0	-0.24665761
11	0xbdff0bf6	-0.12453453
12	0x3b906f95	0.004407833
13	0x3d370b54	0.044688538
14	0xbdbffb5b	-0.09374114
15	0xbd64edd0	-0.05589086
16	0xbba8bbab	-0.005149325
17	0x3d0f9b6f	0.035060342
18	0x3d855524	0.0651038
19	0x3dccc724	0.099989206
20	0xbdb79e14	-0.08965698
21	0x3d107bc8	0.035274297
22	0x3dab131f	0.083532564
23	0xbd995863	-0.074875616
24	0x3cafbecc	0.021453284
25	0xbe77e132	-0.24206999
26	0x3d9edb22	0.0775664
27	0xbb5eb613	-0.0033983036
28	0xbe2bed20	-0.16789675
29	0x3b503f35	0.0031775956
30	0x3d859d0d	0.06524096
31	0xbe8bf268	-0.2733338
32	0xbd15db90	-0.036586344
33	0xbc5da630	-0.013528392
34	0xbeaa780f	-0.33294722
35	0xbe346b6f	-0.17619108
36	0x3da142bc	0.07874057
37	0x3c9bbb26	0.019010138
38	0xbdcada38	-0.09904903
39	0x3d901f4c	0.070372194
40	0x3c624b63	0.013811919
41	0xbde98190	-0.11401665
42	0xbe465d56	-0.19371542
43	0x3dda9ad8	0.10674065
44	0xbe8420fd	-0.25806418
45	0x3d743837	0.059623923
46	0x3ddd63dc	0.10810062
47	0xbddc5e5b	-0.107601844
48	0x3cc1b50d	0.023645902
49	0xbe7c09e7	-0.24613152
50	0xbdf48f0c	-0.119413465
51	0x3dc4d577	0.09611028
52	0xbea29afa	-0.31758863
53	0xba22fd00	-0.00062175095
54	0xbe946544	-0.2898351
55	0xbda7111a	-0.08157559
56	0x3c9c7c70	0.019102305
57	0xbd86fbea	-0.065910175
58	0xbeb7024d	-0.35743943
59	0xbd433a14	-0.04766281
60	0x3d87e821	0.06636072
61	0x3d7682ba	0.060183264
62	0xbc86afde	-0.016441282
63	0xbea50595	-0.3223082

weight f4 [96, 288]
0	0xbc99e7c4	-0.018787272
1	0xbd3e06e8	-0.046393305
2	0x3bc86518	0.006115567
3	0x3d54b43d	0.0519297
4	0xbd39d196	-0.045365892
5	0xbb7cc990	-0.003857229
6	0xbd4df09f	-0.050278302
7	0xbc7421b0	-0.01490061
8	0xbd341538	-0.04396555
9	0x3d2b71d9	0.04185662
10	0x3cfadbb6	0.030622344
11	0xbd477d0b	-0.048703235
12	0xbd5b898a	-0.053597964
13	0x3c925576	0.017863017
14	0x3d3fdaa7	0.046839382
15	0xbbf2d1c0	-0.007410258
16	0x3d00c47d	0.031437386
17	0x3c0231c4	0.007946435
18	0xbd0d6cb5	-0.0345275
19	0x3d082b09	0.033244167
20	0x3c839602	0.01606274
21	0x3c72f4ec	0.014828902
22	0x3bf8de48	0.0075948574
23	0x3cbd5cde	0.023115572
24	0xbbfa1d18	-0.007632863
25	0x3cf43922	0.0298124
26	0xbc056ae8	-0.008143164
27	0x3c480db9	0.012210303
28	0x3c4f2dfc	0.012645241
29	0x3b2156d0	0.0024618395
30	0xbd1f3196	-0.03886565
31	0x3d23ee97	0.04002246
32	0x3b291407	0.002579929
33	0x3cecb62a	0.028895456
34	0x3d0b3bcf	0.033992585
35	0x3ca6486a	0.020298202
36	0x3b9706b8	0.0046089552
37	0xbd294c54	-0.041332558
38	0x3b5d02d0	0.00337236
39	0x3c7be46c	0.015374284
40	0xbd1869c1	-0.03721023
41	0x3cb66752	0.022266064
42	0xbc2d80cc	-0.01058979
43	0x3d2abdd5	0.041684944
44	0x3d5507a1	0.05200923
45	0xbbd9859a	-0.006638241
46	0x3b117640	0.0022195727
47	0x3d4da2f7	0.050204244
48	0x3d4975a7	0.049184468
49	0x3c49efe4	0.012325261
50	0x3c83de3e	0.016097184
51	0xbd29dd76	-0.041470967
52	0xbc4c92a0	-0.01248613
53	0xbbce6ef8	-0.0062998496
54	0xbd58e962	-0.052956946
55	0x3c858252	0.016297493
56	0xbd637af0	-0.055537164
57	0xbd1d5784	-0.03841354
58	0x3d6864d5	0.056736786
59	0xbd3cabcc	-0.046062276
60	0x3cb4092e	0.021977033
61	0xbd6a71ed	-0.057237554
62	0xbd3bc530	-0.04584235
63	0xbc51cc78	-0.012805097
64	0xbd429372	-0.047503896
65	0xbd56afda	-0.0524138
66	0x3c64f4f3	0.013974416
67	0xbd109183	-0.03529502
68	0x3cee3d5e	0.029081997
69	0x3cfd531e	0.030923422
70	0xbc5bbb00	-0.0134112835
71	0xba1b0800	-0.0005913973
72	0xbd64dfb9	-0.05587742
73	0x3d49ee7b	0.0492997
74	0x3d0fcfed	0.035110403
75	0xbd2dafd2	-0.042404003
76	0xbc010220	-0.007874042
77	0xbb114c50	-0.002217073
78	0xbc3a30d7	-0.011364183
79	0x39c12780	0.00036841258
80	0x3c4e4f14	0.012592096
81	0x3b9138a8	0.004431803
82	0xbbc59f20	-0.006030932
83	0xbc48ce84	-0.012256268
84	0xbcd0245c	-0.025407963
85	0x3cda1c72	0.026624892
86	0xbd232c04	-0.0398369
87	0xbadb17c0	-0.0016715452
88	0xbcf05b6e	-0.029340472
89	0xbd527f64	-0.05139102
90	0xbd1ca496	-0.0382429
91	0xb82e6400	-4.1577965e-05
92	0xbc9243aa	-0.01785453
93	0xbd1e10d2	-0.03859026
94	0xbd32379b	-0.04351006
95	0xbd2982c2	-0.041384466
96	0xbd6f094b	-0.05835847
97	0x3a97d160	0.0011582784
98	0x3d657ac5	0.056025285
99	0x3b619d90	0.003442619
100	0x3cccc142	0.024994496
101	0xbd258cda	-0.04041753
102	0xbc8af688	-0.016963258
103	0xbd29e81e	-0.04148113
104	0x3d48582f	0.048912223
105	0xbae56a23	-0.0017502945
106	0xbb7bb0c0	-0.0038404912
107	0x3be88008	0.0070953406
108	0xbd4e10fb	-0.050309163
109	0x3c147ba4	0.009062681
110	0xb9871180	-0.00025762245
111	0xbc73e94c	-0.014887165
112	0x3d68b801	0.056816105
113	0x3d19232b	0.037387054
114	0xbbc2de50	-0.005946912
115	0xbcf61132	-0.030037496
116	0x3d55314f	0.052048977
117	0xbd02afb6	-0.031905852
118	0x3d5852a5	0.05281319
119	0x3cd58cfe	0.026068207
120	0x3bff86a8	0.0077980347
121	0xbd06f6d8	-0.032950252
122	0x3c62c96c	0.013841968
123	0xbc8657d5	-0.016399303
124	0xbc818dbe	-0.015814658
125	0x3d0e8701	0.03479672
126	0x3c25aeb4	0.010112453
127	0x3ce25e32	0.027632806
128	0x3d11f961	0.035638217
129	0x3d0341c5	0.032045145
130	0xbd377e6a	-0.044798292
131	0x3baa0038	0.0051880144
132	0xbc870614	-0.01648239
133	0x3d5d055d	0.053960193
134	0x3d2db171	0.04240555
135	0xba45b440	-0.0007541813
136	0xbc39aeac	-0.011333149
137	0xbcfa04d1	-0.030519875
138	0x3d1c62ff	0.038180348
139	0x3d1d54c5	0.03841092
140	0x3ccd169e	0.025035199
141	0xbd560228	-0.05224815
142	0xbd6de2e3	-0.058077704
143	0xbd6f3997	-0.05840453
144	0x3b0c1af1	0.0021378363
145	0x3d3f5ef1	0.046721403
146	0xbc81fa8d	-0.015866542
147	0xbc622d08	-0.013804682
148	0xbd57ae76	-0.052656613
149	0x3d416061	0.047211055
150	0xbc2086d4	-0.0097977705
151	0xbd09bc3c	-0.03362678
152	0x3d07f511	0.033192698
153	0xbc267d40	-0.010161698
154	0xbbaedae0	-0.0053361505
155	0xbd14dc7f	-0.036343094
156	0x3bb56a18	0.005536329
157	0x3ca42953	0.020039236
158	0x3d48b437	0.04899999
159	0x3d5388ec	0.05164425
160	0x3d6fbd27	0.05853
161	0xbd61b0a3	-0.055100095
162	0xbd3c2463	-0.04593314
163	0xbd368ccf	-0.04456788
164	0x3b0d9c6d	0.002160813
165	0x3d0dbce9	0.034603987
166	0x3d3e39d1	0.046441857
167	0x3d4ecf54	0.050490692
168	0x3ce72274	0.02821467
169	0x3d618126	0.055054806
170	0xbd2fb1c0	-0.042894125
171	0x3d18d9a9	0.037316952
172	0x3d571ae4	0.05251588
173	0xbcf53c14	-0.029935874
174	0x3d1ce7f9	0.038307164
175	0xbd429389	-0.04750398
176	0x3d3b494f	0.04572421
177	0x3d458f75	0.048232514
178	0xbc587c10	-0.013213173
179	0x3d54fc13	0.05199821
180	0x3d44abc2	0.048015364
181	0xbd5304cb	-0.051518243
182	0xbc64e389	-0.013970264
183	0x3bed2ec9	0.0072382432
184	0x39fccdb1	0.00048218438
185	0xbd10bb7c	-0.03533505
186	0xbd16d4cd	-0.036824036
187	0xbca7f9d5	-0.020504871
188	0xbc22fc96	-0.0099479165
189	0x3cda94cc	0.02668228
190	0x3d323f6f	0.043517526
191	0xbca4d1f9	-0.020119654
192	0xbc161296	-0.009159705
193	0xbb25eda5	-0.002531865
194	0xbd1bd781	-0.038047317
195	0x3d1e3976	0.038629018
196	0x3d2864c5	0.041111726
197	0xbd5ff38a	-0.054675616
198	0xbd426751	-0.04746181
199	0x3c99a77d	0.018756622
200	0x3d3004f5	0.042973477
201	0x3ce7191c	0.028210215
202	0xbc04332f	-0.008068844
203	0xbd432b88	-0.047648937
204	0x3d660658	0.056158394
205	0x3d11042f	0.03540438
206	0x3cfcdc92	0.030866895
207	0xbd6da510	-0.058018744
208	0x3d42101b	0.04737864
209	0x3d2374f9	0.039906476
210	0x3c37bfe9	0.011215189
211	0xbab3cc79	-0.0013717554
212	0x3c7e3306	0.015515095
213	0xbd1c4168	-0.038148314
214	0xbd26cc4b	-0.040722173
215	0x3d16b932	0.03679771
216	0xbaac1f65	-0.0013131915
217	0xbcaf237b	-0.021379223
218	0xbd0d6844	-0.034523264
219	0xbd31bf10	-0.043395102
220	0xbcc95c24	-0.024580069
221	0x3cbeb2f0	0.023278683
222	0x3c388f18	0.011264585
223	0x3c8c87c3	0.01715458
224	0xbb5c30ee	-0.00335985
225	0x3d1a5d9e	0.037686937
226	0xbd5a877d	-0.053351868
227	0xbd5bf929	-0.053704415
228	0xbc9cff35	-0.019164661
229	0xbce8e68c	-0.028430246
230	0xbc9fc1e8	-0.019501641
231	0xbc13251c	-0.0089810155
232	0xbc9ab5e6	-0.018885564
233	0x3cc9468e	0.024569776
234	0xbd026931	-0.0318386
235	0xbd223a0d	-0.039606143
236	0x3cfd51d5	0.03092281
237	0xbc68b088	-0.014202245
238	0xbd03004d	-0.03198271
239	0xbd2def15	-0.042464335
240	0x3bc30568	0.005951572
241	0x3cea9036	0.028633218
242	0xbcba89da	-0.02277081
243	0xbd323bb2	-0.04351396
244	0xbd408512	-0.047001906
245	0x3a9a7220	0.001178328
246	0xbcf25706	-0.029582512
247	0xbd668764	-0.056281462
248	0xbc08a40f	-0.008339896
249	0x3c3e94ae	0.011632128
250	0x3cfa05b8	0.030520305
251	0x3cd41f36	0.025893789
252	0x3c92d7b7	0.017925126
253	0xbbcd726e	-0.0062697446
254	0xbd07744e	-0.0330699
255	0xbd4651ea	-0.048417963

bias f4 [96]
0	0xbd5763a1	-0.052585248
1	0xbcced3ae	-0.025247421
2	0xbd6d63d3	-0.057956528
3	0x3b3e46ba	0.0029033856
4	0x3c401187	0.011722929
5	0x3b7e9647	0.0038846896
6	0xbd4bee39	-0.049787734
7	0x3c386fda	0.011257136
8	0x3c4fa990	0.012674704
9	0xbd2948fc	-0.04132937
10	0x3cec4eae	0.028846111
11	0x3c3bb713	0.0114572225
12	0xbd10b56f	-0.03532928
13	0xbd514584	-0.051091686
14	0x3d54c218	0.051942915
15	0xbd038970	-0.032113492
16	0x3cbe9f14	0.023269214
17	0x3ce90c99	0.02844839
18	0x3d0b93bc	0.034076437
19	0xbc9252fc	-0.017861836
20	0xbc5ec90a	-0.013597736
21	0x3d372da1	0.04472125
22	0x3d395070	0.045242727
23	0xbd46f9ab	-0.048577946
24	0x3cbef4d2	0.023310099
25	0xbc2231da	-0.009899581
26	0xbd418f57	-0.04725584
27	0xbccb29b8	-0.024800166
28	0xbc7815d5	-0.015141924
29	0x3cd2c784	0.025729902
30	0xbcfd097a	-0.030888308
31	0x3d1f2c11	0.038860384
32	0x3dc3bc0e	0.09557353
33	0x3be9f08c	0.007139271
34	0x3d4b86c7	0.04968908
35	0x3d04f6ce	0.032461934
36	0x3dae06ef	0.08497416
37	0x3d4578b5	0.04821082
38	0xbcc3e839	-0.023914443
39	0xbd67499c	-0.056466684
40	0x3d399795	0.045310576
41	0x3cf59984	0.029980429
42	0xbd49b807	-0.049247768
43	0x3de11500	0.109903336
44	0xbcc2b67d	-0.023768658
45	0xbb9b406e	-0.004737905
46	0xbd5f8f9a	-0.05458031
47	0xbc72cf78	-0.014819972
48	0x3d04c7f7	0.032417264
49	0xbc6ec004	-0.014572147
50	0xbd10c3aa	-0.03534285
51	0xbcdad9e4	-0.026715226
52	0x3d0550b3	0.032547664
53	0x3d4709e5	0.04859342
54	0xbd600b0f	-0.054698046
55	0x3d8df67b	0.06931778
56	0x3d99d2aa	0.07510884
57	0x3db40fa7	0.08792048
58	0xbb947fc2	-0.0045318315
59	0x3c6f97c0	0.014623582
60	0xbd38312b	-0.044968765
61	0x3dd7318d	0.10507498
62	0xbd1ae667	-0.037817385
63	0xbc08a7a3	-0.008340749
64	0x3d04845c	0.03235279
65	0x3d6ee1f5	0.05832096
66	0x3d87b30c	0.06625947
67	0x3c9a8965	0.018864343
68	0x3d66577c	0.056235775
69	0xbc9dead5	-0.019277016
70	0xbcbcf9ee	-0.023068395
71	0x3d9501ec	0.07275757
72	0xbcf0ecb8	-0.029409751
73	0x3d6e636c	0.058200285
74	0xbcb6e63b	-0.02232658
75	0x3d82e84a	0.06391962
76	0xbbd0d5ca	-0.006373142
77	0x3bbc3fca	0.005744909
78	0xbd3bcf8a	-0.04585222
79	0x3d831d29	0.06402046
80	0x3b5eeb16	0.0034014634
81	0xbc0052bf	-0.007832228
82	0x3d86528d	0.06558714
83	0x3c585c20	0.013205558
84	0x3d6ebd06	0.058285736
85	0x3db75c09	0.08953101
86	0xbcf07c84	-0.029356249
87	0x3d1976a8	0.037466675
88	0x3c00519d	0.007831958
89	0xbb50d82c	-0.003186713
90	0x38a6d94c	7.9559715e-05
91	0xbd3a5248	-0.045488626
92	0x3dbe1e4e	0.09283124
93	0x3d036e30	0.032087505
94	0x3d8a2e12	0.067470685
95	0xbd0ab33d	-0.03386234

weight f4 [96, 96]
0	0xbd8f5d13	-0.070001744
1	0x3cdf7392	0.027276788
2	0x3c0328fc	0.008005377
3	0x3dbe3eb0	0.092893004
4	0x3dcb5ded	0.09930024
5	0x3dca03c2	0.09863998
6	0x3abc1d28	0.0014351951
7	0x3dab6db1	0.08370531
8	0x3d0fc059	0.035095546
9	0xbda37cb1	-0.079827674
10	0x3db9e0cf	0.09076082
11	0xbd842e3a	-0.064541295
12	0xbd989315	-0.07449929
13	0xbd6401fa	-0.055665947
14	0x3d9bab2e	0.07601009
15	0xbdad6da2	-0.084681764
16	0xbd91713c	-0.07101676
17	0x3d86b01a	0.065765575
18	0x3d803144	0.06259397
19	0xbd33420e	-0.043764167
20	0xbd96a263	-0.073551916
21	0xbd607d6a	-0.054807104
22	0x3d30fb27	0.043208268
23	0xbd4045c4	-0.046941534
24	0xbdb41a71	-0.08794106
25	0xbd907f41	-0.07055522
26	0x3d73cddd	0.0595225
27	0x3dcd5097	0.10025137
28	0xbd8fe85d	-0.07026742
29	0xbce2fcdb	-0.027708462
30	0x3da1a674	0.078930765
31	0xbdc911e1	-0.09817863
32	0x3cd54956	0.026035946
33	0xbdaf8970	-0.08571136
34	0x3c438da4	0.011935625
35	0x3d550ede	0.05201613
36	0xbc8796c6	-0.016551387
37	0x3ce49069	0.027900891
38	0x3da57447	0.08078819
39	0x3d9019c0	0.070361614
40	0xbd1e0c7b	-0.03858612
41	0xbd92d241	-0.07169009
42	0xbd7b9138	-0.06141779
43	0xbd77d639	-0.060507033
44	0xbd4f9c18	-0.050685972
45	0x3b95f428	0.004576225
46	0xbdc85e31	-0.097835906
47	0xbd7d7b90	-0.061885417
48	0x3c9b1450	0.018930584
49	0xbda5d5ed	-0.08097444
50	0xbd7540e4	-0.059876338
51	0x3d75b79a	0.05998955
52	0xbdaa12d3	-0.08304372
53	0x3d0a3474	0.03374143
54	0x3d442282	0.04788447
55	0xbdc69c65	-0.09697799
56	0xbcb85f50	-0.022506386
57	0xbd903d9a	-0.070429996
58	0xbc6b2a96	-0.014353415
59	0xbc97cb81	-0.018529655
60	0xbd903422	-0.070411935
61	0x3db249d9	0.087054916
62	0x3ce00fa0	0.0273512
63	0xbdc5da4e	-0.09660779
64	0xbd0090db	-0.031388145
65	0x3ca5202a	0.020156939
66	0xbd7901f1	-0.060792867
67	0x3d3d5c9c	0.046230897
68	0xbce148f9	-0.027500616
69	0xbd9c47ad	-0.076308586
70	0x3d700f9e	0.058608644
71	0xbd680e28	-0.056654125
72	0xbd981633	-0.07426109
73	0xbcc9d25c	-0.02463644
74	0x3d8eeea6	0.06979112
75	0x3bfffa46	0.0078118173
76	0x3d05a67c	0.032629475
77	0x3d971722	0.07377459
78	0x3d693089	0.056931052
79	0x3c99ad7b	0.01875948
80	0x3d9fc749	0.078016825
81	0xbd0182af	-0.03161877
82	0x3d2b1ff0	0.041778505
83	0xbca4e19b	-0.020127108
84	0xbd0dc820	-0.034614682
85	0xbc073ca2	-0.008254202
86	0x3d03cb78	0.032176465
87	0xbd3724f9	-0.044712994
88	0xbd212b92	-0.039348193
89	0xbd861cc6	-0.06548457
90	0x3c0bb297	0.008526466
91	0xbd915c01	-0.070976265
92	0x3cccf10d	0.025017286
93	0x3d36459f	0.04449999
94	0x3db15489	0.08658702
95	0x3d3b9727	0.045798447
96	0x3cc6fd8c	0.024290822
97	0xbcd4438a	-0.025911111
98	0x3d25dc84	0.040493503
99	0x3d2f2aa5	0.04276528
100	0x3d26deb1	0.04073972
101	0x3d516201	0.051118854
102	0x3cd6b7e4	0.026210733
103	0xbd28cfb3	-0.041213702
104	0xbd7122ec	-0.058871195
105	0xbd99893e	-0.0749688
106	0x3c433180	0.011913657
107	0xbd66325f	-0.05620038
108	0xbd93b25e	-0.07211755
109	0xbd8164a5	-0.063180245
110	0x3dd075d0	0.10178721
111	0xbd9d87c6	-0.07691912
112	0xbd97e1da	-0.07416125
113	0xbdcc31f8	-0.09970468
114	0x3dc4da70	0.09611976
115	0x3cf3077d	0.029666657
116	0xbbff84fe	-0.0077978363
117	0x3dc1ed8b	0.09469136
118	0x3db32e23	0.08749034
119	0x3d82a7a2	0.0637963
120	0xbd59ebcc	-0.05320339
121	0x3d8b6b6a	0.06807597
122	0xbd5b5032	-0.053543277
123	0xbd109296	-0.035296045
124	0x3d856544	0.065134555
125	0xbd123121	-0.035691384
126	0xbdb8638f	-0.09003364
127	0x3d70c73c	0.058783755
128	0x3d2715d3	0.040792298
129	0x39fdb01f	0.0004838714
130	0xbd83e8b6	-0.064408705
131	0x3cae5603	0.021281248
132	0xbd93dcf6	-0.07219879
133	0x3d595a1a	0.053064443
134	0xbcbdb50e	-0.023157623
135	0x3dd0db60	0.101980925
136	0x3d1f713a	0.03892634
137	0x3d854882	0.065079704
138	0xbd2f5783	-0.042808067
139	0xbd89f195	-0.06735531
140	0x3bb6aed3	0.00557504
141	0x3da02130	0.0781883
142	0x3d61a394	0.05508764
143	0x3d775ec6	0.060393117
144	0xbd835c36	-0.06414072
145	0x3cf380e7	0.029724551
146	0x3c38ba42	0.011274876
147	0x3dc62f51	0.09676994
148	0xbc6964a5	-0.014245187
149	0xbb33bf08	-0.0027427096
150	0xbdb2ff18	-0.087400615
151	0x3d9d422b	0.07678636
152	0xbd8dc669	-0.06922609
153	0x3c3f1738	0.011663251
154	0xbdce701d	-0.10079978
155	0xbdc06721	-0.0939467
156	0xbd9977de	-0.07493566
157	0x3d315c79	0.04330108
158	0xbd00bbcb	-0.031429093
159	0x3d4401a7	0.04785314
160	0x3b9b78e9	0.004744638
161	0x3cf43584	0.029810674
162	0xbd7cfefc	-0.06176661
163	0x3d73526e	0.059404783
164	0xbdce079c	-0.10060045
165	0x3d1145f1	0.035467092
166	0xb821acf8	-3.854648e-05
167	0xbda5e917	-0.08101099
168	0x3d95386d	0.07286153
169	0xbcc5eb9e	-0.024160203
170	0x3dbb70a4	0.09152344
171	0x3d7de05d	0.061981548
172	0xbda6633d	-0.08124397
173	0x3d9fcdc8	0.078029215
174	0x3c91d9d5	0.017804066
175	0xbca84dcf	-0.020544915
176	0xbd6dc9c2	-0.05805374
177	0xbd3f5126	-0.04670825
178	0x3dc6e274	0.09711161
179	0xbc6f9fed	-0.014625532
180	0x3be93e0d	0.0071179927
181	0xbdacdef0	-0.084409595
182	0xbdcabba9	-0.098990746
183	0xbd920513	-0.07129874
184	0xbc69b37b	-0.014263983
185	0x3dc5f0cd	0.0966507
186	0xbdce7818	-0.100815
187	0xbd13cedf	-0.03608596
188	0xbc100b59	-0.008791768
189	0x3d69c840	0.05707574
190	0xbc8ba3f6	-0.017045956
191	0x3d7d6db8	0.061872214
192	0x3d1351ce	0.035966687
193	0x3cb140ff	0.021637438
194	0x3d3921f0	0.04519838
195	0xbdc8c2f9	-0.09802813
196	0xbda9b74f	-0.082869165
197	0x3ce9f822	0.028560702
198	0xbd90598e	-0.07048331
199	0x3d92073d	0.07130287
200	0xbc40d2a0	-0.011768967
201	0xbb01cfb0	-0.001980763
202	0xbdb67b20	-0.08910203
203	0xbd2d49df	-0.042306777
204	0xbd668d60	-0.05628717
205	0xbc405c31	-0.01174073
206	0xbdbd1cc8	-0.09234005
207	0x3c962496	0.018327992
208	0x3cfd44ee	0.030916657
209	0x3d285177	0.041093316
210	0x3d6156f5	0.05501457
211	0x3db12a57	0.08650654
212	0xbc531462	-0.012883278
213	0xbdce6872	-0.10078515
214	0xbca121d4	-0.01966945
215	0xbd691445	-0.056904096
216	0xbdc5bcd8	-0.0965516
217	0x3bc0edcd	0.005887723
218	0x3cfd4ef8	0.030921444
219	0xbda64e9c	-0.08120462
220	0xbd43dac9	-0.04781607
221	0xbc87916e	-0.016548838
222	0x3dacf1df	0.08444571
223	0x3dae160e	0.085003
224	0x3dd0972a	0.10185082
225	0xbd43fea9	-0.047850285
226	0xbd7d92b2	-0.061907478
227	0xbd882bcd	-0.06648979
228	0xbd2059cf	-0.03914815
229	0xbd7154fc	-0.058918938
230	0x3c36d066	0.0111580845
231	0xbd6b18f3	-0.05739684
232	0xbd57be22	-0.05267156
233	0xbd9f16f9	-0.077680536
234	0xbd991fa6	-0.074767396
235	0x3caed5ce	0.021342184
236	0xbdc39b80	-0.09551144
237	0xbd1387dc	-0.036018237
238	0xbdcce60e	-0.10004817
239	0x3b9740a0	0.004615858
240	0x3db743fa	0.089485124
241	0xbd7a734c	-0.061145112
242	0xbd8c85dd	-0.0686147
243	0xbcd1aa21	-0.02559382
244	0xbcfda542	-0.03096259
245	0x3d613a42	0.0549872
246	0xbcc900b1	-0.024536463
247	0x3ba78f10	0.00511349
248	0x3cdfdc0e	0.02732661
249	0xbd002751	-0.031287495
250	0x3d9adc2d	0.075615264
251	0x3c2f30da	0.010692799
252	0xbd8539b0	-0.06505144
253	0xbdc70658	-0.09718007
254	0xbccd41c1	-0.025055768
255	0xbce7fd4e	-0.028319027

bias f4 [96]
0	0x3d4a1439	0.049335692
1	0xbd9e2407	-0.077217154
2	0x3c252dfb	0.010081763
3	0x3d8cfd70	0.06884277
4	0x3d7ca4cd	0.061680604
5	0xbcb6aab0	-0.022298187
6	0x3e1fac74	0.1559313
7	0xbb70143c	-0.0036633154
8	0x3d826102	0.06366159
9	0x3e42e18a	0.19031349
10	0x3ddcdbe3	0.107841276
11	0xba784160	-0.0009470191
12	0x3de86ea3	0.11349227
13	0xbd3c09a8	-0.045907646
14	0xbda17daa	-0.07885297
15	0x3dbf61a5	0.09344796
16	0x3d5c6186	0.053803943
17	0x3d4053e0	0.04695499
18	0xbd522396	-0.05130347
19	0xbda30067	-0.07959061
20	0x3de0001a	0.10937519
21	0xbcedd5eb	-0.029032668
22	0xbd11e9c8	-0.03562334
23	0xbdc847b8	-0.09779304
24	0x3e0f445d	0.13990922
25	0xbd46c118	-0.048523992
26	0xbcfab53e	-0.030604001
27	0xbd0f5843	-0.034996282
28	0xbd8b2c8e	-0.067956075
29	0xbbb430ca	-0.00549898
30	0x3db29155	0.08719126
31	0xbd8d8512	-0.06910147
32	0x3e2b9413	0.16755705
33	0xbd516cba	-0.05112908
34	0xbd274b6a	-0.040843405
35	0x3dd257e8	0.10270673
36	0xbda8805f	-0.0822761
37	0x3c4163e1	0.011803598
38	0x3dff6fdc	0.12472507
39	0x3dee8107	0.11645704
40	0x3e11d450	0.14241147
41	0xbd9cdb2d	-0.07658992
42	0xbd538084	-0.051636234
43	0x3d51ec90	0.051250994
44	0x3c90e5b6	0.01768766
45	0x3def9c55	0.1169974
46	0xbda3fcc4	-0.080071956
47	0x3e1e7799	0.1547531
48	0x3d8b3776	0.06797688
49	0xbd8059e6	-0.06267147
50	0xbcac6bd4	-0.02104751
51	0x3d93e823	0.07222011
52	0xbd2a7836	-0.04161855
53	0xbb84b933	-0.004050398
54	0xbd92ee47	-0.07174354
55	0x3c03e9c5	0.0080513405
56	0xbda86ab4	-0.08223477
57	0xbd63225b	-0.055452686
58	0xbd9254b8	-0.07145065
59	0x3dd3844c	0.10327968
60	0xbbc93073	-0.006139809
61	0x3d62fd7b	0.05541752
62	0xbd2c66f5	-0.042090375
63	0xbcbbd008	-0.022926345
64	0xbced317c	-0.02895426
65	0x3ca9f520	0.020746768
66	0xbd83d4c8	-0.06437069
67	0xbd398dfa	-0.045301415
68	0xbcef3f6b	-0.029205045
69	0xbdbf62e0	-0.09345031
70	0x3bed4c98	0.0072417967
71	0xbd81bf8a	-0.06335361
72	0x3b33e3c7	0.0027448998
73	0x3e762545	0.24037655
74	0x3d5cf912	0.05394847
75	0x3d1bd390	0.03804356
76	0x3e2b0bc0	0.16703701
77	0x3e1a57f4	0.15072614
78	0x3de5ff88	0.11230379
79	0x3d98d50b	0.0746251
80	0x3e4e077d	0.20120044
81	0xbdbc856a	-0.09205134
82	0x3db4f786	0.08836274
83	0x3d99d1bb	0.07510706
84	0x3d8f0b25	0.069845475
85	0x3d1d77d0	0.03844434
86	0xbd922c50	-0.07137358
87	0xbda3f87d	-0.0800638
88	0xbdd04daa	-0.10171063
89	0xbd1b3709	-0.037894282
90	0xbdb28d8c	-0.08718404
91	0x3b8e5e58	0.0043447427
92	0x3bd31ecc	0.0064428803
93	0x3da58e74	0.080838114
94	0x3e27f6bc	0.16402715
95	0x3e046742	0.12930015
