rl2024/exercise4/DDPG--racetrack-v0--critic_hidden_size:[64, 64, 64]_policy_hidden_size:[64, 64, 64]--0.pt (torch, 902467 bytes, 56 tensors)

weight f4 [64, 288]
00000000: 05c0 253d d7eb 233d c365 603d 3e44 2dbd
00000010: 602e 003b d9a0 2b3d acad 0cbd beaa 9f3c
00000020: 38f4 9ebb 142d 4b3d f2a5 b2bc 0ac6 4dbd
00000030: 85d5 f4bc a85e d23b 280a dd3b 4fdb 6a3d
00000040: a486 14bc 6d6b 673d 1d60 e8bc 58db 9ebc
00000050: 52ba a93c 7e01 94bc fc3b 26bd fdb9 363d
00000060: 20c4 40bc 1300 1e3d e355 05bd 6cde dbbc
00000070: 9838 b4bc 72ba 0ebd 51c0 583d f0a6 d3bb
00000080: f477 17bd 4cc4 6d3c 4211 b83c 486a b1bc
00000090: 505f 08bc 0347 2c3d cfe0 3a3d 623f f1bc
000000a0: 7313 273d 9484 8fbc 9e2d a93c b329 40bd
000000b0: a5cd 303d 6d76 e5bc 89b0 6f3d 10cf 7cbc
000000c0: f26f 0bbd de74 f83c 943d 613c 508e 58bd
000000d0: 3e39 f43c 301a 01bb 7cbc 99bc 4b37 493d
000000e0: 3e97 e4bc ed8b 6e3d 2f9f 303d 8f69 e3bc
000000f0: 9832 8e3b d6db 31bd d900 213d d7f1 413d
00000100: aced 48bd dc19 46bd 058a 4ebd ec04 1cbd
00000110: 3971 3b3d 7ed4 f6bc 0a18 c73c aed7 ca3c
00000120: aa54 8c3c f5ef f9bc 78f1 fc3b 5668 2abd
00000130: e8ab f43b 70a9 1ebd 5497 583c b523 61bd
00000140: 3102 623d 1d68 553d 1834 933b 28e6 99bb
00000150: d0f8 a5bb 7094 dbbc 41f2 3e3d f4fa 4bbd
00000160: 90e0 263b 1d83 1bbd 88a0 8b3b fe8a a0bc
00000170: 38cc 41bd b110 6c3d b35b 67bd 73e0 193d
00000180: d840 af3b f0bc 683b c9a5 683d 3322 673d
00000190: 2052 d23a c22a fe3c 4643 f73c 22eb a2bc
000001a0: 5d55 203d 0196 243d 040b 633c 58bd e2bb
000001b0: 252a 37bd 7808 e13b 4c28 54bd 6ac0 5fbd
000001c0: aed8 903c 567c c83c 7ac8 f53c 6874 45bc
000001d0: efdd 30bd 2fbd 273d 08fb b53b f09c d5bb
000001e0: 93e9 273d 00b3 61bb b8d5 bc3b 780d 62bc
000001f0: 2144 0b3d 1b8c 513d 7757 67bd 8b0a 473d
00000200: e33e 213d 705c 01bd 60df a8ba 7e89 b33c
00000210: fdb8 363d 8b04 f6bc eba1 65bd 207e abba
00000220: d254 fa3c 16db afbc ffc7 17bd 8461 40bd
00000230: 5993 023d 3246 fbbc e539 20bd da2b 863c
00000240: deb5 23bc 74c7 eb3c 40c7 4ebd c325 b33a
00000250: f77b 01bd c1de 6cbd fadf a13c c425 dcbc
00000260: bef6 473d 18a3 51bc 8094 39ba df15 22bd
00000270: 2999 d73a c91c da3c 4256 55bd 99fb 623d
00000280: 64dd 463d 8c76 953b b323 1dbd ec87 5abd
00000290: cd50 ec3c 7ce1 693c c0f0 dcbc f3b7 293d
000002a0: efb5 9ebb 28cd 033d 3cff c43c fcc7 413d
000002b0: cdce 2dbd cb4f 79bb 8d49 31bd da07 6dbd
000002c0: 3f68 4dbd 9ad7 0bbd 6a48 adbc 37ed 693d
000002d0: 591b 4b3b 46fa 65bb 447a 23bd 17f4 e43c
000002e0: 0eb2 d3bc 7bca 373d 1710 31bc b853 b33b
000002f0: c20c 10bd 1ec0 243d f41f 8abc 4a22 2dbc
00000300: 9c7d 3bbc 24c1 18bd 9a89 fa3c ab9f c9bb
00000310: 249d 3bbd 3dc3 f43c 3cc1 513c 9025 03bd
00000320: 90ac 37bc 298b 55bd eee8 c43c 8af8 043d
00000330: d8a6 47bc 88a0 3c3d 6e24 a83b f4fe 9dbc
00000340: 41c9 02bd 015e c7bb 9630 26bd ed06 2e3d
00000350: 9265 a53a 2f59 c23b 02a9 6abd 12db 87ba
00000360: 60e2 203d 4e2a e13c d33c df3c 5f68 413b
00000370: 2212 45bd 30f9 033d f690 5ebd fc3c 67bd
00000380: 8128 6abd d69c 463a a8ed d9bc b6f2 a8bc
00000390: fab2 ff3c f122 6dbd d754 2b3c cda9 0fbd
000003a0: 6c72 3e3c c064 863b d7b0 603d 3d40 6bbd
000003b0: b282 493d 7edc 133d 9e7c cb3c c011 3dbc
000003c0: 9568 09bd 2f1b f6bc 56c3 913c cf22 54bd
000003d0: ea5d ab3c 578b 003d d91d 4b3d 8416 61bd
000003e0: fc92 503c 104d 6f3b b0ce 7ebb 50c6 b0bb
000003f0: ddcf 6f3d ad9b 40bd 5016 a2bb c56a 60bd
0.040466327 0.040019836 0.054784548 -0.04230141 0.0019558892 0.041901443 -0.034345314 0.019490596
-0.0048508905 0.049603537 -0.021807645 -0.050237693 -0.02988697 0.0064199753 0.0067455955 0.057338055
-0.009065304 0.056498934 -0.028366143 -0.0193917 0.020718727 -0.018067118 -0.04058455 0.044610966
-0.01176551 0.03857429 -0.03255261 -0.026839457 -0.021999642 -0.034845777 0.052917782 -0.0064591095
-0.03697963 0.014512133 0.022469167 -0.021657124 -0.0083235055 0.04205991 0.04562455 -0.029449169
0.040790033 -0.017519273 0.020651635 -0.046914767 0.043164868 -0.028010571 0.058517966 -0.015430227
-0.034042306 0.030329164 0.0137475915 -0.052870095 0.029812451 -0.0019699447 -0.018766634 0.049124997
-0.02790415 0.058238912 0.04312056 -0.027760295 0.0043395273 -0.043422543 0.03930745 0.047349777
-0.049054787 -0.048364505 -0.050424594 -0.03809063 0.045762274 -0.030130621 0.024303455 0.024761047
0.017130215 -0.030509928 0.007719215 -0.04160341 0.007466782 -0.038735807 0.013219673 -0.054965694
0.05517787 0.052101243 0.004492294 -0.004696626 -0.005065061 -0.026804179 0.04661775 -0.049799874
0.002546344 -0.037966836 0.00426108 -0.019597527 -0.0473139 0.057633106 -0.056483936 0.037567567
0.005348306 0.0035513006 0.05679873 0.0564291 0.0016046204 0.031026248 0.030183446 -0.01988751
0.03914391 0.040182117 0.013857607 -0.006919544 -0.044717927 0.0068674646 -0.051796243 -0.05462686
0.017681446 0.02447335 0.030002821 -0.012051679 -0.043180402 0.040951904 0.005553607 -0.0065189525
0.040994238 -0.0034438968 0.005762782 -0.0137971565 0.03400052 0.051159006 -0.056479897 0.04859404
0.039366614 -0.031582296 -0.0012883954 0.021916147 0.044610012 -0.030031463 -0.05606262 -0.0013083853
0.030558024 -0.021466773 -0.037055966 -0.046968 0.031878803 -0.03067312 -0.039117713 0.016378332
-0.009992091 0.02878163 -0.05048299 0.001366787 -0.031612363 -0.057829622 0.01976012 -0.026873477
0.048819296 -0.012795232 -0.0007079318 -0.03957164 0.0016448844 0.026625054 -0.052084215 0.055415723
0.04855098 0.004561251 -0.038364124 -0.05335228 0.028847123 0.014274951 -0.026970267 0.041435193
-0.0048434655 0.032178074 0.024047486 0.04730986 -0.04243355 -0.0038041945 -0.043283034 -0.057868816
-0.050148245 -0.03414116 -0.021152694 0.05711099 0.0030991642 -0.0035091802 -0.039911523 0.027948422
-0.025841739 0.044870835 -0.010807059 0.0054726265 -0.035168417 0.04022228 -0.01686094 -0.010567257
-0.011443522 -0.03729357 0.030583192 -0.006153067 -0.045804158 0.029878253 0.012802418 -0.032018244
-0.011210576 -0.052134667 0.02403685 0.032463588 -0.012185775 0.046051532 0.005131296 -0.01928661
-0.031930212 -0.006084204 -0.04057368 0.042487074 0.0012618771 0.0059310417 -0.057290085 -0.0010364971
0.039278388 0.027485993 0.027250683 0.0029511673 -0.048112996 0.032220066 -0.054337464 -0.056454644
-0.057167534 0.0007576471 -0.026602581 -0.020623546 0.031213272 -0.05789465 0.010457239 -0.035074044
0.01162396 0.004101366 0.054856148 -0.05743431 0.049196906 0.03609895 0.024839696 -0.011539876
-0.033547003 -0.030042259 0.017793339 -0.05179101 0.020918805 0.031382885 0.04958901 -0.054953113
0.012730356 0.0036514439 -0.003888052 -0.0053947344 0.058547843 -0.047023464 -0.0049465075 -0.054789323

bias f4 [64]
00000000: 76f6 45bc 8059 b43d e9c5 7dbc 7e19 0bbd
00000010: 8240 e73b fea3 743c e510 c43c 7d70 bc3d
00000020: b712 ca3d 3d87 1c3c e259 9e3d af41 943d
00000030: 7933 de3c 819f 4dbd 8f36 83bd be9f 193d
00000040: e3bd 503d 6dbc 3dbd 2f12 1c3d 35a1 ddbc
00000050: 7882 d83c 8357 163c 0375 d13c 2693 3a3d
00000060: 499b 91bc 5536 5fbd 69d2 78bb 2b1c 76bd
00000070: 21a4 babc 4456 cdbc b326 7bbb 84ed d33d
00000080: e2d0 b63d 1191 3f3d f937 f93c de08 55bb
00000090: d70a b53d 0a21 68bd 7155 dcb9 d443 a63d
000000a0: 4ac2 c93c 4d3d 0f3e f2ec c1bb b66c 19bd
000000b0: e7dd f03c 03c1 4d3d 2ce0 ae3d e032 1d3d
000000c0: 918a 1f3b 72b1 4c3d 4199 673c 1199 de3c
000000d0: 5fd4 d23d b364 04bd 95d8 173d 8265 80bc
000000e0: 4823 673d d839 ca3d e0b6 37bd 4942 25bd
000000f0: fbe5 12bd eb1f 4a3d 1520 aabc d65a 02bd
-0.012082687 0.08806133 -0.01548908 -0.033959858 0.0070572505 0.014931677 0.023933837 0.09201143
0.09866851 0.009553728 0.077319875 0.07239091 0.027124153 -0.050200943 -0.064068906 0.037505858
0.05096234 -0.046322275 0.03810328 -0.027054409 0.0264294 0.009176138 0.02556849 0.045550488
-0.017774241 -0.054495174 -0.003796721 -0.060085457 -0.02278334 -0.025065549 -0.0038322627 0.10348037
0.0892656 0.046769205 0.030422198 -0.0032506506 0.08839958 -0.056672134 -0.0004202533 0.08118406
0.024628777 0.13988228 -0.0059181387 -0.03745719 0.029402686 0.0502329 0.08538851 0.038378596
0.0024344067 0.049973913 0.01413566 0.027172597 0.10294413 -0.032322597 0.037071783 -0.015673403
0.05643013 0.09874314 -0.044852138 -0.040346418 -0.035863858 0.049346846 -0.020767251 -0.03182491

weight f4 [64, 64]
00000000: 0a17 81bd e948 873d 689b 8fbd 80e9 d23c
00000010: 991a ebbd f4dc 883d 5438 b23c 2fa8 1cbd
00000020: faf1 3a3d f981 cabd 75b0 64bc 6093 ea3d
00000030: 38f2 4b3c f9c6 f2bd b226 27bd 2cbb c83d
00000040: fcb0 9e3d 2d25 92bb 1e60 8abc a432 ac3d
00000050: f188 8c3d c2e4 ca3d 2673 8a3d 3f19 ef3d
00000060: 3f3b 363d d0ed e33c d784 2dbd a531 113d
00000070: 5227 db3d f6d8 efbd e939 e83a 0586 88bd
00000080: b71b 8d3d 1dbb 9b3d 215c 8e3d f9de 1e3d
00000090: c67c 763d c3a4 cf3d 14d1 fc3d 0979 b33c
000000a0: 28e2 ccbd bb20 723d 61be a4bc 0373 6a3d
000000b0: d1f5 c2bd 25af a53d b1aa f2bd 3522 53bc
000000c0: fdbc 4f3c d2b3 d7bd 1bca b4bd 497d a2bd
000000d0: f55e a23d 673b 73bd 37b2 f33c 40e5 f3bb
000000e0: 3d86 a8bc c387 843c 7f0a a53d 8cf1 953d
000000f0: 772a 103b f5a5 7dbd b984 5fbd 5fe3 fe3c
00000100: 7f9b 97bd 7f16 75bd bb82 a8bd f918 b5bd
00000110: 1633 b03d d0c1 afbd 8cc3 b73d a0bb de3d
00000120: 0bd7 e33d 8f6e ef3d 7647 adbd fe3c eebc
00000130: 0bb7 133d 5db6 373d 4830 cabd 8da6 91bd
00000140: 09cc f63c 92fc 2fbd a46e a7bc e825 d9bd
00000150: ec57 f23d 04fb a93d 8601 5a3d 4f64 99bd
00000160: afb0 5c3d 4ef2 88bd 1e76 f7bd bd87 fc3b
00000170: 61c9 88bd de7f 083d ff6e 523d 163f bcbc
00000180: 75e3 a3bd 4ff1 da3a 27b2 d43c b6d6 8a3d
00000190: 46a9 393d 0c63 a4bd 69ac ba3d 0f14 f93d
000001a0: 1395 173d 15b4 89ba 8179 313d 422c ac3d
000001b0: ac4d 743d 57fb f1bd 03a6 af3c 1c49 ee3d
000001c0: e942 853d 8025 08bd a900 a7bd e6a7 10bd
000001d0: c273 9fbd 98cd 89bd 2f07 593c e7ec 83bd
000001e0: af48 f7bd 2743 173d b688 4dbd 5ebf ac3d
000001f0: 9e0e ae3a 021c ddbd 7147 5cbd f66f 0abd
00000200: cf11 e6bc 281e 113e 38e3 c2bc 3875 8c3d
00000210: b0f1 f9bd 3d96 053d 5833 a63d 0753 0b3e
00000220: 3b12 8a3d 412b 3cbd e7cb 6b3d aac8 ab3c
00000230: e504 ef3d a0dd ab3c 5f13 a5bd 5f35 b63d
00000240: 2b18 0bbd 7ac0 f1bd 8c04 d33d c55f adbd
00000250: 118b 8d3d dac8 933d ac38 e4bc 5de5 f0bc
00000260: 8739 f13d d513 b1bc 8e7d df3d b4a7 afbb
00000270: 8265 bc3d 17fb ce3d 5a5c e23b d28c 133e
00000280: 7eb3 cdbb acf0 953c 7ecc 1bbb 79d1 fdbc
00000290: 51d6 963d 1780 d23d cd45 f23d 23af 183e
000002a0: c03e 8fbd c13b 8a3d b440 d73d 916e d0bd
000002b0: 154e b9bd 4cd7 36bd f8d0 a03d c842 8bbd
000002c0: b862 8d3d 3eb9 edbd 8eaf f7bd 8167 a03d
000002d0: a2f2 de3c 9ae0 b5bd 9fc4 dc3d 98f6 6b3d
000002e0: 1ff9 5f3d 88e9 e4bc 0c4f 8e3c d448 e33d
000002f0: 0e69 023e acf3 983d 6831 b8bd a3e0 543d
00000300: 87c8 c9bd 81d0 b53d 86bb c03d 4ecd 8db9
00000310: aeb8 94bd bda0 a6bc 28f2 ef3d 5ec3 07bd
00000320: ac1f 0a3b bdcf f1bd 4883 843c c4a1 163a
00000330: cca5 f3bd 7fe3 b03d e3f0 d0bd 880e d83c
00000340: c5e3 813b 69fb 31bd c686 803d d19e 39bd
00000350: f4f6 853d c0b2 04bc e36c 033d 8674 453d
00000360: c9f1 b03d 7b30 cabd b9f6 a53a 758e 7dbd
00000370: fe25 a1bd 9153 90bd 4384 d83d b392 7bbd
00000380: 42e1 8c3c 0d35 c4bd a6e8 cbbd b4cd a7bd
00000390: 134a e03d 2bc3 b8bd f515 ebbd b2e1 e53d
000003a0: ef30 9e3d 9232 e03d 062b 75bc e03c db3d
000003b0: 7e61 533d 6226 cbbc a65c 513d 96aa 5cbd
000003c0: 8e66 e1bc d95b 0fbc fab9 c83c 4a5b 3f3d
000003d0: 06a3 90bc f77c 5b3d 0851 c03d c795 88bd
000003e0: 7f14 723d 9dd1 093e 9fa6 8abd 1a93 d4bd
000003f0: d8a4 d53d 6fed 98bd 372a 0f3d 81fa ff3c
-0.063032225 0.066057034 -0.07012063 0.025746107 -0.114796825 0.066827685 0.021755375 -0.03824633
0.045640923 -0.098880716 -0.013958086 0.11453891 0.012447886 -0.11854357 -0.040808387 0.09801325
0.07748601 -0.004459998 -0.016891535 0.084080964 0.06862057 0.09906913 0.06760244 0.11674737
0.044490095 0.027823359 -0.042363014 0.035447735 0.10700859 -0.11711304 0.0017717454 -0.06666187
0.06890052 0.076040484 0.06951166 0.038786862 0.060177587 0.10138848 0.12344566 0.0219083
-0.100040734 0.059113245 -0.020110311 0.05723859 -0.09519542 0.08090047 -0.11848963 -0.012886574
0.012679336 -0.10532345 -0.08827611 -0.079340525 0.07928268 -0.059382822 0.029748065 -0.0074431
-0.020571822 0.016178017 0.080586426 0.07321462 0.0021997967 -0.061925847 -0.054569934 0.031114278
-0.074027054 -0.059835907 -0.0822806 -0.08842654 0.08603494 -0.08581889 0.089728445 0.108756304
0.111250006 0.11691009 -0.08460896 -0.029081818 0.036063235 0.04485165 -0.0987249 -0.07111845
0.030126588 -0.04296548 -0.0204385 -0.10602933 0.11833176 0.082998306 0.05322411 -0.074898355
0.053879436 -0.06686841 -0.12083076 0.007706611 -0.06679035 0.03332507 0.051375385 -0.0229793
-0.08002368 0.0016703996 0.025963856 0.06779234 0.045327447 -0.08026704 0.09114916 0.12162029
0.037007403 -0.0010505939 0.043328766 0.08406879 0.059644386 -0.118155174 0.021441465 0.11635038
0.06506903 -0.033238888 -0.08154423 -0.03531637 -0.07785751 -0.06728667 0.013246342 -0.0644167
-0.1207441 0.036929276 -0.050179206 0.08434938 0.0013279503 -0.10796358 -0.05377907 -0.03379818
-0.028084664 0.1417166 -0.023789987 0.06858295 -0.12204301 0.03261398 0.08115262 0.13605891
0.067417584 -0.045939688 0.057567503 0.020969708 0.116708554 0.020979702 -0.08060335 0.088968985
-0.033958595 -0.1180429 0.103036016 -0.08465532 0.069112904 0.07216044 -0.027859055 -0.029406244
0.117785506 -0.021615902 0.109126195 -0.005360568 0.091990486 0.10106485 0.006907982 0.14409187
-0.0062775007 0.018303238 -0.002377301 -0.030983673 0.07365096 0.102783374 0.1182972 0.1491056
-0.069943905 0.067496784 0.10510388 -0.10177339 -0.09048096 -0.044638917 0.078523576 -0.06799847
0.06903595 -0.11607598 -0.12094031 0.07832242 0.027215306 -0.0888073 0.1077969 0.057608217
0.05468094 -0.027943388 0.017371677 0.11097875 0.12735388 0.07468352 -0.089937985 0.051972043
-0.09852701 0.088776596 0.09410767 -0.0002704658 -0.07261787 -0.020340318 0.117161095 -0.0331453
0.0021076007 -0.11807201 0.016175881 0.0005746151 -0.118968576 0.086371414 -0.102021955 0.026374117
0.00396392 -0.043452654 0.06275706 -0.045317475 0.06541243 -0.008099258 0.032086264 0.04820683
0.08639867 -0.09872528 0.001266203 -0.061903436 -0.078685746 -0.07047189 0.10572102 -0.0614192
0.017197255 -0.09580431 -0.099564835 -0.08193532 0.109516285 -0.090216 -0.11478797 0.112246886
0.07724177 0.109471455 -0.014963871 0.1070497 0.051606648 -0.024798576 0.051113747 -0.05387362
-0.027514722 -0.0087499255 0.024502743 0.04671792 -0.01765586 0.053585973 0.093904555 -0.06669193
0.059101578 0.13458867 -0.06770062 -0.1037962 0.10431832 -0.07467162 0.03495237 0.03124738

bias f4 [64]
00000000: b58f d8bd 0f38 413d 6ee1 8d3e 3bee 0d3e
00000010: c84d ccbd 8b19 213c 7848 b5bd 6d4f 3f3d
00000020: 5b1f 8e3d 7577 d33c 19a0 8cbd 01ca 34bd
00000030: 2b0b ff3d b5ee 87bd 6e78 4a3e 7ab1 583e
00000040: 3d01 8e3d 5d58 7a3d c70c 203e f653 513e
00000050: 1133 9a3d 9517 aebd ceb1 3ebc aed4 29bd
00000060: 9035 a3bd 7f4e 90bd a43c 663e d178 34bd
00000070: 3819 f1bd 07ac 813d 4183 aebd 875e 843e
00000080: 2ea9 fc3c 7ef0 edbb 57ca fdbd 99eb b43d
00000090: 739e 503e 3fb3 1c3e a038 d43c 6c54 4f3e
000000a0: 5e20 3d3e 56ee c23c dcc4 f4bd 9314 28bd
000000b0: 6187 ea3d 947c 183c dd25 393e 37a5 743c
000000c0: c5a1 0e3e b4b3 bbbd c094 e0bb 109b babd
000000d0: 3a6b a7bc a795 d0bd a00d 56bc c746 98bd
000000e0: 8c72 f33d 945b fc3d a298 48bd a992 56bd
000000f0: 7f4f 813b 7292 bbbd 7cf9 6e3e d13b 2e3e
-0.10574285 0.047172602 0.27711052 0.13860409 -0.09975773 0.00983275 -0.08851713 0.046706606
0.06939574 0.025813797 -0.06866474 -0.04413796 0.12453302 -0.06637327 0.19772503 0.21161452
0.0693383 0.061119426 0.15629874 0.20442185 0.075292714 -0.08500592 -0.011639072 -0.041462593
-0.079692006 -0.07046222 0.2248407 -0.044060532 -0.11772388 0.0633164 -0.085211284 0.2585337
0.03084239 -0.007261335 -0.12392109 0.08833999 0.20372944 0.15302752 0.025905907 0.20247048
0.18469378 0.023795288 -0.119516104 -0.041035246 0.11451603 0.0093070455 0.1808085 0.014931968
0.13928898 -0.09165135 -0.00685367 -0.09111607 -0.020436872 -0.10184794 -0.013064772 -0.07435375
0.118870825 0.12322155 -0.048973687 -0.05238596 0.0039462443 -0.091587916 0.23337358 0.17015006

weight f4 [64, 64]
00000000: f412 713d 14fa bd3d 98b2 d2bc 46ba b0bd
00000010: a8ff 82bd 6c75 b23d 9495 bf3d 80e2 f8ba
00000020: cc7c 663d 48a1 4a3d 6036 4c3c e2b3 86bd
00000030: b4ac 7abd cc5e 183d 3067 57bc 6087 9b3c
00000040: ba57 b6bd 9017 e6bc 70f4 d8bc b4bb 15bd
00000050: 9eea c8bd 2668 a1bd 7861 993c d44c 4a3d
00000060: e8fd e7bc 4800 a9bd 74fb 653d 706f c9bd
00000070: e880 cc3c dab5 b23d 1c52 c2bd c806 cd3c
00000080: c410 86bd 4059 0cbc 9ced 7b3d d452 7f3d
00000090: d84e cb3d dc51 8bbd 30df d23d bceb fdbd
000000a0: 54f9 ff3d 546b 7fbd 2aca 98bd 0059 383a
000000b0: 74ec 2abd b43d d03d 4a42 86bd f0ef 32bc
000000c0: 5850 d1bc 40be a03c e0f1 a1bc 1011 80bd
000000d0: b08d e8bd 28f4 40bd feb8 bcbd 04fa 103d
000000e0: 1658 e73d 28d5 9bbc 005d 0d3a a26f c0bd
000000f0: 0ca3 1d3d b441 393d 32dd b2bd 30f1 86bd
00000100: f62a 3abc e62b f43d c921 e23c 52fa b1bd
00000110: 007b 14bb e44e c4bd 646a fbbd 8234 93bd
00000120: 26af 733d 5c26 b3bc f23d 06bd 73a2 2c3d
00000130: 37b7 c73d d1e7 413d fd7f 7bbc 0913 163d
00000140: 0254 b6bd 3059 bd3d 7fa2 763c 7680 d13d
00000150: cc6f d2bd c05c 53bd cd53 9a3d 84f2 ddbc
00000160: 1826 3dbd cedf fcbd 8f83 763d 5b01 f63d
00000170: 72dd 983d f3aa f33d 98a8 dc3a fb3a 4ebb
00000180: f250 a0bd 3a62 cb3c c999 d53d 2343 573d
00000190: ae20 b73c a5c5 d43d 366a 653a 9da2 54bd
000001a0: 47c0 0a3d 5184 db3d e73e 5e3d a231 63bd
000001b0: b093 8c3d 6e20 513c c58c 7c3b 7b7c 92bd
000001c0: 6446 ce3d 42f2 f7bc 0995 403b 6c8a 203d
000001d0: 8045 e0bd 8efd 223d 79ea 933d b500 ebbd
000001e0: 0b8c b73d e095 41bb 1471 4d3d 5288 6abd
000001f0: 033c 1cbd d83b dc3d dd47 2abd 5f4e 813b
00000200: 7652 c1bd 1e03 e73d 542b 8fbd d038 be3d
00000210: 5cdf 663d 808c 07bb d297 eebd 20a7 78bc
00000220: 06f8 8f3d 1065 fdbc c045 47bd feed fdbd
00000230: ac94 cb3d e056 aebb 50e2 68bc dc6e f03d
00000240: bc9b 8abd 3090 cabd 2cd2 16bd 5a6f f0bd
00000250: f483 3e3d 501b f7bc 0428 40bd 142c 073d
00000260: 98b2 08bd b40a 24bd a4ef bc3d 04a2 e4bd
00000270: 9a79 f2bd 7cb3 adbd 708a e23c c096 7b3d
00000280: 58c7 2c3d 3065 693c 408f 01bc 24b5 0fbd
00000290: 6c71 c1bd 402b 4c3b a8d9 cfbc 68b5 dcbc
000002a0: 905a e9bd f835 7c3d c801 efbc 18c5 bebc
000002b0: ec7e 173d f878 6cbd da30 e6bd 7a25 acbd
000002c0: 4cad 0fbd 88db 5d3d f4ec 38bd b2a1 c13d
000002d0: 5cba 8cbd 3896 66bd dc27 223d a86e 953d
000002e0: 982a 873d 009e 28bd b4f9 543d 9219 c0bd
000002f0: a013 483d cc09 a53d 402e fe3b c227 92bd
00000300: d00d b8bd 6394 1a3c f63e d1bd b994 c53d
00000310: 4c4b 0abd 06b1 21bd 2006 a2bd 310c abbd
00000320: a5d5 263d f1c9 b6bc 1bdb 46bd cd6a 2c3d
00000330: 0abb 9bba 0d15 d93d 1625 4bbd 4017 9abd
00000340: d7a3 c03b cd62 80bd ef8c 25bc 25eb 663d
00000350: dc2d 9dbd 745f 8bbc 4780 e8bd f4aa b13c
00000360: 48bf cd3d fd0e 923c a6c9 e2bc 9f08 eebd
00000370: 58d4 fdbc ab59 393d a926 55bc 7ca7 443d
00000380: d5d0 b03d dadc f13d 1897 ce3c 5adb 533d
00000390: 9f48 cabd 4cfb 833d 6f33 913d 52bc e2bd
000003a0: 9fe3 a43d b9a7 c13d 8001 76bd 0c06 133d
000003b0: a006 893d 8aad f7bc 6673 e7bd c7d5 ccbd
000003c0: 8fa8 723d 0516 c9bc a326 5dbd f8d4 83bd
000003d0: 95a0 86bd ee9c fbbd c418 a3bd 5903 8c3d
000003e0: 6f0f c9bc a675 003d aa35 a03d a725 b53d
000003f0: 8dd2 45bd 607e 95bb 21ac bb3d 99ca d0bd
0.058855966 0.09276214 -0.025719926 -0.08629279 -0.06396419 0.08713803 0.09354702 -0.0018988401
0.05627136 0.049470216 0.012464136 -0.06577279 -0.06119986 0.03719978 -0.01314716 0.01898545
-0.08903451 -0.028087407 -0.026483744 -0.03655596 -0.09810375 -0.07881193 0.018723235 0.049389675
-0.028319314 -0.08252007 0.056148008 -0.09835708 0.024963811 0.08726092 -0.09488317 0.025027648
-0.065461665 -0.008566201 0.0615059 0.06233485 0.099271476 -0.06802723 0.10296476 -0.123984784
0.124987274 -0.062358215 -0.07460435 0.0007032305 -0.041729406 0.10168019 -0.065556124 -0.010921463
-0.025551006 0.019621968 -0.019768655 -0.062532544 -0.1135515 -0.047107846 -0.09214972 0.035394683
0.11296098 -0.01902254 0.0005392581 -0.09396292 0.03848557 0.045228675 -0.08733596 -0.065889716
-0.011362782 0.119224355 0.027604 -0.08690323 -0.0022656322 -0.0958536 -0.12276152 -0.071877494
0.059493206 -0.021868877 -0.03277392 0.04214711 0.09751742 0.047340218 -0.015350339 0.036639247
-0.08902742 0.09245527 0.0150533905 0.1022958 -0.1027523 -0.051602125 0.07535515 -0.02709318
-0.046178907 -0.12347375 0.060184058 0.12011977 0.07464112 0.1189784 0.0016834913 -0.003146826
-0.07827939 0.024827112 0.10429723 0.05255426 0.02235445 0.1038926 0.00087514834 -0.051912893
0.033874776 0.10718597 0.054259207 -0.055467255 0.06864107 0.0127640795 0.0038536054 -0.07152649
0.1007202 -0.030266885 0.0029385707 0.03919451 -0.10950756 0.03979259 0.072224565 -0.11474744
0.08962258 -0.0029538795 0.050156668 -0.05725891 -0.03814317 0.10753602 -0.04157244 0.00394611
-0.09439556 0.112798914 -0.06990686 0.0928818 0.056365356 -0.002068311 -0.11650051 -0.015176564
0.070297286 -0.03093198 -0.048650503 -0.12398909 0.09940466 -0.005320415 -0.014214113 0.11739895
-0.06767985 -0.09890783 -0.03682153 -0.117399886 0.04651256 -0.03016439 -0.046913162 0.03300102
-0.033373445 -0.04004927 0.09225395 -0.111637145 -0.118396 -0.084814996 0.027653903 0.061423063
0.042182297 0.014245316 -0.007907689 -0.03508486 -0.09445462 0.0031153709 -0.025372341 -0.02694197
-0.113942266 0.061574906 -0.029175654 -0.023287341 0.036986277 -0.057732552 -0.112397864 -0.084055856
-0.03507738 0.05416444 -0.04514785 0.09454669 -0.06871483 -0.056295604 0.039588794 0.07296497
0.06599921 -0.041166306 0.051995948 -0.09379877 0.04884684 0.08058509 0.0077569783 -0.071364895
-0.089870095 0.009434792 -0.10217087 0.09647507 -0.033763215 -0.039475463 -0.079113245 -0.08351935
0.04073109 -0.02231309 -0.0485488 0.04209404 -0.0011881304 0.10599718 -0.049595915 -0.07523966
0.005878906 -0.06268845 -0.010104402 0.056376595 -0.076747626 -0.017013289 -0.11352592 0.021687962
0.1004625 0.017829413 -0.027684044 -0.11622738 -0.030985042 0.04525153 -0.013009706 0.048011288
0.086335815 0.11809702 0.025218531 0.05172286 -0.098771326 0.064444155 0.07089888 -0.110710755
0.08051228 0.09455819 -0.060060024 0.03589444 0.06690717 -0.030234117 -0.113013074 -0.10001712
0.05924278 -0.024546633 -0.053991925 -0.06437105 -0.06573597 -0.12285791 -0.07963708 0.06836576
-0.024543492 0.0313622 0.078227356 0.08845072 -0.0482965 -0.004562184 0.0916369 -0.101948924

bias f4 [64]
00000000: 082e 4fbd 1260 b2bd 2e10 c7bd b812 323d
00000010: 9fba c4bd a8e6 cd3d 3dd9 143d 7334 6e3e
00000020: 1161 773d 8c1c 94bc 1261 babc 68f6 f3bd
00000030: c079 87bd b95f c93d 63b7 edbb 08df 90bd
00000040: ab49 933e a0ea 83bd a357 273e c168 113e
00000050: 109f 25bd 89eb 693e 72b1 82bc 3c6d 8c3e
00000060: 000f af3b e88e a6bd 02da 1d3e 28d1 a63e
00000070: bfcb db3d 8124 243d 607c ba3b 1f32 4cbd
00000080: dfc2 253e ae46 863e a6f7 7dbc f0ae 33bd
00000090: 7583 913e 5beb 693c ba38 743d b60d 92bd
000000a0: 2018 95bd ae17 4a3e 3c85 44bd 4524 60bd
000000b0: 5f02 b6bc d902 823e 24ed b7bb f5b3 613e
000000c0: 854f f2bd 9433 fcbd ce97 a93d 14c4 d7bd
000000d0: 6b3b ba3d c446 253e d9bb 783e 1065 eabc
000000e0: eaf7 84bd d17b a33d 4315 9ebd 2a31 f5bd
000000f0: 60a4 54bd c88f a8bc 5038 aebd 609c f6bd
-0.05058101 -0.0870973 -0.09719883 0.043474883 -0.09605908 0.1005376 0.036339987 0.23262195
0.060395304 -0.018080018 -0.022751365 -0.11912233 -0.06615019 0.09832711 -0.0072545274 -0.0707379
0.28767142 -0.064412355 0.16342025 0.14200117 -0.040434897 0.22843756 -0.015953753 0.2742709
0.0053423643 -0.08132726 0.15415195 0.3258145 0.10732221 0.040073875 0.005691096 -0.049852487
0.16187619 0.262258 -0.0155009385 -0.043868005 0.28420606 0.0142773045 0.05962441 -0.071315214
-0.07279992 0.19735596 -0.047978625 -0.05472209 -0.022217928 0.25392798 -0.005612986 0.22041304
-0.118315734 -0.12314525 0.082809076 -0.10535446 0.09093364 0.16140276 0.24290408 -0.028612643
-0.06492598 0.079826005 -0.07718899 -0.11972268 -0.051914573 -0.020576373 -0.085068345 -0.12041545

weight f4 [1, 64]
00000000: f00c e03c 32b3 51bd 08bc ec3c 9c5f 21bc
00000010: 6c88 dcbd 9c2d 7dbc f5d0 a13c e763 903e
00000020: 2e1e 38bd e788 43bd 4dae adbd 0664 da3d
00000030: 3a45 fe3d 720a cc3d ee41 5ebd 1275 c3bd
00000040: 2c23 ac3e f6bc 87bd 2db9 273e b9b0 143e
00000050: d368 92bd 3e49 8e3e c8e7 ac3c 9d74 a13e
00000060: 6cff 6e3d 0e37 90bd fea9 833e e055 b63e
00000070: 1ff0 953d cc46 a2ba a2f7 f8bd 8e53 433b
00000080: 621e ec3d fa3c b03e 6173 59bd 90f9 573c
00000090: b807 bb3e deee dfbd f358 90bd f043 6abc
000000a0: 6a65 cbbd 6eaf 393e 402e 063c c69c 913d
000000b0: d534 e13c 3c0e a83e 2a47 76bd 2097 573e
000000c0: ec2d afbd fcb6 f63d ac04 f13d 68d0 e93c
000000d0: d738 033e 4276 733d a964 ba3e 1061 fcbd
000000e0: b0f9 cb3d 8ea8 ed3d be5a debd 5c05 b6bd
000000f0: 6c87 513d 7c0c 51bd 101a ce3c cc39 02bd
0.02734992 -0.051196285 0.028898254 -0.009849455 -0.10768208 -0.015452769 0.019752959 0.2820122
-0.044950657 -0.047737982 -0.08480511 0.10663609 0.12415548 0.0996293 -0.054262094 -0.09543814
0.33620584 -0.06627838 0.16379233 0.1452054 -0.071489 0.27790254 0.021106616 0.3153428
0.058349058 -0.07041751 0.2571563 0.35612392 0.0732119 -0.0012380718 -0.12156607 0.002980444
0.115292326 0.3442152 -0.05308855 0.013182059 0.36529326 -0.10934232 -0.07048216 -0.014298424
-0.099314526 0.18133327 0.008189738 0.0710998 0.027491013 0.3282336 -0.06012646 0.21053743
-0.08553681 0.1204662 0.11768469 0.028541759 0.12814651 0.05943895 0.36404923 -0.12323201
0.099597335 0.11604415 -0.108571514 -0.08887741 0.05115454 -0.051037297 0.025158912 -0.0317934

weight f4 [64, 288]
00000000: 05c0 253d d7eb 233d c365 603d 3e44 2dbd
00000010: 602e 003b d9a0 2b3d acad 0cbd beaa 9f3c
00000020: 60f2 9ebb b82d 4b3d f2a5 b2bc 0ac6 4dbd
00000030: 85d5 f4bc a85e d23b 280a dd3b 4fdb 6a3d
00000040: a486 14bc 6d6b 673d 1d60 e8bc 58db 9ebc
00000050: 52ba a93c 7e01 94bc fc3b 26bd fdb9 363d
00000060: 20c4 40bc 1600 1e3d e355 05bd 6cde dbbc
00000070: 9838 b4bc 72ba 0ebd 51c0 583d f0a6 d3bb
00000080: f477 17bd 4cc4 6d3c 4211 b83c 486a b1bc
00000090: 505f 08bc 0347 2c3d cfe0 3a3d 623f f1bc
000000a0: 7313 273d 9484 8fbc 9e2d a93c b329 40bd
000000b0: a5cd 303d 6d76 e5bc 89b0 6f3d 10cf 7cbc
000000c0: f26f 0bbd de74 f83c 943d 613c 508e 58bd
000000d0: 3e39 f43c 301a 01bb 7cbc 99bc 4b37 493d
000000e0: 3e97 e4bc ed8b 6e3d 2f9f 303d 8f69 e3bc
000000f0: 9832 8e3b d6db 31bd d900 213d d7f1 413d
00000100: aced 48bd dc19 46bd 058a 4ebd ec04 1cbd
00000110: 3971 3b3d 7ed4 f6bc 0a18 c73c aed7 ca3c
00000120: aa54 8c3c f5ef f9bc 78f1 fc3b 5668 2abd
00000130: e8ab f43b 70a9 1ebd 252f 5d3c b523 61bd
00000140: 3102 623d 1d68 553d 1834 933b 28e6 99bb
00000150: d0f8 a5bb 7094 dbbc 41f2 3e3d f4fa 4bbd
00000160: 90e0 263b 1d83 1bbd 88a0 8b3b fe8a a0bc
00000170: 38cc 41bd b110 6c3d b35b 67bd 73e0 193d
00000180: d840 af3b f0bc 683b c9a5 683d 3322 673d
00000190: 2052 d23a c22a fe3c 4643 f73c 22eb a2bc
000001a0: 5d55 203d 0796 243d 040b 633c 58bd e2bb
000001b0: 252a 37bd 7808 e13b 4c28 54bd 6ac0 5fbd
000001c0: aed8 903c 567c c83c 7ac8 f53c 6874 45bc
000001d0: efdd 30bd 2fbd 273d 08fb b53b f09c d5bb
000001e0: 97e9 273d 00b3 61bb b8d5 bc3b 780d 62bc
000001f0: 2144 0b3d 1b8c 513d 7757 67bd 8b0a 473d
00000200: e33e 213d 705c 01bd 60df a8ba 7e89 b33c
00000210: 00b9 363d 8b04 f6bc eba1 65bd 207e abba
00000220: d454 fa3c 16db afbc ffc7 17bd 8461 40bd
00000230: 5993 023d 3c46 fbbc e539 20bd da2b 863c
00000240: e8ac 23bc 1fc7 eb3c d8c8 4ebd 93de b23a
00000250: 487d 01bd bbde 6cbd 7fde a13c 7a25 dcbc
00000260: 10f7 473d 54a1 51bc 8094 39ba 6715 22bd
00000270: cc8c d73a d11f da3c ba55 55bd 34fa 623d
00000280: d0dd 463d 9978 953b 8924 1dbd 6a87 5abd
00000290: 2d52 ec3c 7ce1 693c c0f0 dcbc 99b6 293d
000002a0: 98b1 9ebb 0dcd 033d d0fc c43c 40c8 413d
000002b0: 2ed0 2dbd 695e 79bb 9849 31bd 3807 6dbd
000002c0: 3f68 4dbd 9ad7 0bbd 6a48 adbc b4eb 693d
000002d0: ca18 4b3b 3110 66bb ae7b 23bd adf5 e43c
000002e0: 18b4 d3bc 37cb 373d 680d 31bc b853 b33b
000002f0: c20c 10bd 36c0 243d d324 8abc 3e2e 2dbc
00000300: 368e 3bbc 94c2 18bd 0784 fa3c 16a6 c9bb
00000310: 909c 3bbd a5c4 f43c 3cc1 513c 9025 03bd
00000320: 90ac 37bc da8a 55bd badf c43c 69f5 043d
00000330: 6db0 47bc 1f9b 3c3d 1b06 a83b 680b 9ebc
00000340: 9fcc 02bd 866e c7bb 7432 26bd 8302 2e3d
00000350: 0195 a43a 5a26 c23b 9eaa 6abd 8169 88ba
00000360: 8fdb 203d 0a1f e13c c83a df3c 8d51 413b
00000370: af18 45bd f6f2 033d 2b95 5ebd b23e 67bd
00000380: 0328 6abd 3941 463a f4f6 d9bc 2af6 a8bc
00000390: fab2 ff3c b322 6dbd 1b43 2b3c ecad 0fbd
000003a0: 1162 3e3c 6344 863b a8aa 603d 7a46 6bbd
000003b0: 707c 493d ced7 133d 2f79 cb3c f619 3dbc
000003c0: 9568 09bd 2f1b f6bc 56c3 913c cf22 54bd
000003d0: ea5d ab3c 578b 003d d91d 4b3d 8416 61bd
000003e0: fc92 503c 104d 6f3b b0ce 7ebb 58c6 b0bb
000003f0: ddcf 6f3d ad9b 40bd 5016 a2bb c56a 60bd
0.040466327 0.040019836 0.054784548 -0.04230141 0.0019558892 0.041901443 -0.034345314 0.019490596
-0.0048506707 0.049604148 -0.021807645 -0.050237693 -0.02988697 0.0064199753 0.0067455955 0.057338055
-0.009065304 0.056498934 -0.028366143 -0.0193917 0.020718727 -0.018067118 -0.04058455 0.044610966
-0.01176551 0.0385743 -0.03255261 -0.026839457 -0.021999642 -0.034845777 0.052917782 -0.0064591095
-0.03697963 0.014512133 0.022469167 -0.021657124 -0.0083235055 0.04205991 0.04562455 -0.029449169
0.040790033 -0.017519273 0.020651635 -0.046914767 0.043164868 -0.028010571 0.058517966 -0.015430227
-0.034042306 0.030329164 0.0137475915 -0.052870095 0.029812451 -0.0019699447 -0.018766634 0.049124997
-0.02790415 0.058238912 0.04312056 -0.027760295 0.0043395273 -0.043422543 0.03930745 0.047349777
-0.049054787 -0.048364505 -0.050424594 -0.03809063 0.045762274 -0.030130621 0.024303455 0.024761047
0.017130215 -0.030509928 0.007719215 -0.04160341 0.007466782 -0.038735807 0.01350001 -0.054965694
0.05517787 0.052101243 0.004492294 -0.004696626 -0.005065061 -0.026804179 0.04661775 -0.049799874
0.002546344 -0.037966836 0.00426108 -0.019597527 -0.0473139 0.057633106 -0.056483936 0.037567567
0.005348306 0.0035513006 0.05679873 0.0564291 0.0016046204 0.031026248 0.030183446 -0.01988751
0.03914391 0.04018214 0.013857607 -0.006919544 -0.044717927 0.0068674646 -0.051796243 -0.05462686
0.017681446 0.02447335 0.030002821 -0.012051679 -0.043180402 0.040951904 0.005553607 -0.0065189525
0.040994253 -0.0034438968 0.005762782 -0.0137971565 0.03400052 0.051159006 -0.056479897 0.04859404
0.039366614 -0.031582296 -0.0012883954 0.021916147 0.044610023 -0.030031463 -0.05606262 -0.0013083853
0.030558027 -0.021466773 -0.037055966 -0.046968 0.031878803 -0.030673139 -0.039117713 0.016378332
-0.0099899545 0.028781472 -0.05048451 0.0013646655 -0.031613618 -0.0578296 0.019759415 -0.026873339
0.0488196 -0.012794811 -0.0007079318 -0.039571192 0.0016445159 0.0266265 -0.05208371 0.055414394
0.04855138 0.0045614955 -0.03836492 -0.053351797 0.028847778 0.014274951 -0.026970267 0.041433904
-0.004842948 0.032177974 0.024046332 0.047310114 -0.042434864 -0.0038050658 -0.043283075 -0.057868212
-0.050148245 -0.03414116 -0.021152694 0.05710955 0.0030990117 -0.0035104866 -0.039912872 0.027949179
-0.025842711 0.044871535 -0.010806419 0.0054726265 -0.035168417 0.04022237 -0.016863262 -0.010570107
-0.01144748 -0.03729494 0.030580534 -0.006153832 -0.045803607 0.029878924 0.012802418 -0.032018244
-0.011210576 -0.052134372 0.024032462 0.032460604 -0.012188059 0.046046373 0.005127681 -0.019292548
-0.031933423 -0.0060861735 -0.04057546 0.042482864 0.0012556614 0.005924982 -0.05729162 -0.0010407419
0.039271887 0.02748062 0.027249709 0.002949807 -0.048119243 0.032214127 -0.054341476 -0.056456275
-0.057167064 0.00075628195 -0.026607014 -0.020625193 0.031213272 -0.05789442 0.010453011 -0.035077974
0.011620061 0.004097508 0.05485025 -0.05744026 0.04919094 0.03609448 0.024838058 -0.011541834
-0.033547003 -0.030042259 0.017793339 -0.05179101 0.020918805 0.031382885 0.04958901 -0.054953113
0.012730356 0.0036514439 -0.003888052 -0.005394738 0.058547843 -0.047023464 -0.0049465075 -0.054789323

bias f4 [64]
00000000: bf5e 41bc 039d b23d 9fba 7dbc ba2e 0bbd
00000010: e526 e63b d66c 6d3c 3945 c43c afa0 bb3d
00000020: a826 c83d aee1 1d3c e948 9d3d 94d7 923d
00000030: 6e1d de3c c01d 4dbd 5a5d 83bd a6c3 193d
00000040: 7e57 4c3d 9ed1 3dbd 2b7f 183d 57a2 ddbc
00000050: 6c0f d43c 0f50 163c 15fa d13c 1281 383d
00000060: 1c83 91bc bb33 5fbd e368 75bb 0337 76bd
00000070: 984f babc af3d cdbc e7fc 7abb 7cba d13d
00000080: a86e b53d 777b 3d3d 06f6 f83c 5cb1 52bb
00000090: 0612 b33d 1c19 68bd d98b ddb9 0bd3 a33d
000000a0: 0170 ca3c 1fd9 0d3e 1b18 c2bb 217b 19bd
000000b0: d359 f23c 0238 4d3d f9de ad3d 1a34 1d3d
000000c0: 0da2 213b dea2 4c3d 9030 673c 8ecc dc3c
000000d0: ec57 d13d c462 04bd ba55 183d 4a60 80bc
000000e0: 6941 633d 2aa3 c83d 56a1 37bd 6a3a 25bd
000000f0: 1811 14bd dc89 483d 59df a9bc 606d 02bd
-0.011802374 0.08721354 -0.0154863885 -0.03398011 0.0070236796 0.014491281 0.02395879 0.09161507
0.09772998 0.009636326 0.07679922 0.071700245 0.027113643 -0.0500772 -0.0641429 0.0375401
0.049888127 -0.046342485 0.03723065 -0.027054949 0.02588626 0.009174361 0.025631944 0.045044966
-0.017762713 -0.054492693 -0.003744655 -0.060111057 -0.022743031 -0.025053827 -0.0038297714 0.10240647
0.08858997 0.046260323 0.03039075 -0.0032149171 0.08743672 -0.05666457 -0.000422566 0.079992376
0.02471161 0.13852356 -0.0059232838 -0.03747094 0.029583847 0.05010224 0.08489794 0.038379766
0.002466324 0.04996001 0.014110699 0.026953008 0.10221848 -0.032320753 0.03719113 -0.015670914
0.0554823 0.09796746 -0.044831596 -0.04033891 -0.036149114 0.048959598 -0.020736383 -0.03184259

weight f4 [64, 64]
00000000: 8516 81bd d445 873d 489d 8fbd 9ae0 d23c
00000010: 2a1b ebbd 46db 883d ba2e b23c e3ad 1cbd
00000020: 88ef 3a3d a082 cabd 7bd8 64bc 5c90 ea3d
00000030: 4fee 4b3c 94c9 f2bd 3429 27bd 29bb c83d
00000040: 8fac 9e3d ae29 92bb bf71 8abc d931 ac3d
00000050: 8186 8c3d 49e4 ca3d 1f71 8a3d 1a17 ef3d
00000060: ef3a 363d d0ed e33c 3487 2dbd a230 113d
00000070: 0424 db3d f6d8 efbd 3e0d e83a b488 88bd
00000080: e218 8d3d b5b9 9b3d 2c5c 8e3d 29de 1e3d
00000090: ae72 763d b1a4 cf3d c4d0 fc3d 366d b33c
000000a0: 61e4 ccbd aa11 723d a6be a4bc 6b72 6a3d
000000b0: 98f6 c2bd 77ae a53d daad f2bd cb2d 53bc
000000c0: d2af 4f3c acb4 d7bd b0c9 b4bd 2b7e a2bd
000000d0: de5d a23d 9b3d 73bd d8a3 f33c 40e5 f3bb
000000e0: 998c a8bc ee7b 843c 360b a53d 96f1 953d
000000f0: e0e2 0f3b dca7 7dbd c284 5fbd 48e1 fe3c
00000100: 5e9b 97bd c645 75bd 8d80 a8bd e816 b5bd
00000110: a533 b03d f4cb afbd 69c7 b73d a3b3 de3d
00000120: bbc4 e33d 2e6b ef3d 5f49 adbd e47c eebc
00000130: b1b8 133d b9c0 373d d12f cabd d0a5 91bd
00000140: 417a f63c b9fa 2fbd 1db9 a7bc e024 d9bd
00000150: 7c52 f23d 36f6 a93d dc05 5a3d 546f 99bd
00000160: 5eb1 5c3d 3df2 88bd a173 f7bd 929b fc3b
00000170: 03c6 88bd 1c80 083d f372 523d 0699 bcbc
00000180: 0ff7 a3bd 1680 d73a a8b5 d43c a6d7 8a3d
00000190: ad7f 393d 2462 a4bd 3cad ba3d 76fb f83d
000001a0: e899 173d dd1a 90ba 7473 313d fe2c ac3d
000001b0: 7641 743d 33fd f1bd 0e69 af3c 174c ee3d
000001c0: d444 853d 4f20 08bd ffff a6bd efb0 10bd
000001d0: a082 9fbd abcb 89bd d028 593c 4dec 83bd
000001e0: 395b f7bd f314 173d d888 4dbd debf ac3d
000001f0: 721c ae3a 3128 ddbd 5846 5cbd 7d6f 0abd
00000200: 572d e6bc 8eb7 103e a782 c2bc f899 8c3d
00000210: 7aed f9bd 61f2 043d df57 a63d 952f 0b3e
00000220: b761 893d f387 3cbd 0fb9 6b3d b94e a93c
00000230: 5008 ef3d b1ae ac3c f504 a5bd 8b33 b63d
00000240: f870 0cbd 15bb f1bd 5a6c d23d 4b5a adbd
00000250: f75b 8d3d 3f93 933d 79e8 e3bc 1074 f2bc
00000260: a23b f13d 0713 b1bc be96 df3d e05f afbb
00000270: 1a94 bc3d 61fa ce3d c74f e33b fe28 133e
00000280: 7458 d8bb 2dfb 933c b54a 1bbb ccd7 fdbc
00000290: 8c16 963d 8684 d23d 094c f23d eb44 183e
000002a0: 6d21 8fbd 0f5c 893d 161f d73d 8c6b d0bd
000002b0: 1299 b9bd 44f8 36bd 5d32 a03d 4526 8bbd
000002c0: c078 8d3d fba9 edbd bdae f7bd 1e31 a03d
000002d0: f1ce dc3c abce b5bd bbfb dc3d ebf5 6b3d
000002e0: eaad 5e3d bb42 e8bc 5b47 8e3c 574a e33d
000002f0: 7b66 023e 2483 983d d233 b8bd f7ec 543d
00000300: 26cc c9bd 9453 b53d 97cb c03d 3602 6bb9
00000310: 80b5 94bd 0364 a7bc 8b0a f03d 8d16 08bd
00000320: be4b f93a 43eb f1bd f177 843c 3b55 cd39
00000330: 55a3 f3bd 0606 b13d 19e7 d0bd 500d d83c
00000340: 49c2 763b 02f4 31bd 632b 803d 6397 39bd
00000350: 78db 853d 8eb0 05bc 1e88 033d 14fd 443d
00000360: 22f3 b03d 9830 cabd 7710 aa3a 5b87 7dbd
00000370: 7007 a1bd 1554 90bd aa8e d83d 7686 7cbd
00000380: 8243 8b3c e680 c4bd b2e5 cbbd dccd a7bd
00000390: 99d5 df3d 2ac0 b8bd f611 ebbd 1560 e53d
000003a0: a744 9e3d 6eaa df3d 07cc 75bc 133f db3d
000003b0: 7208 533d 8a4c cbbc ba9c 503d 5d85 5cbd
000003c0: dd2d e1bc 0508 0fbc f2bd c83c cf1a 3f3d
000003d0: 73f0 91bc 8095 5b3d d374 c03d 0c96 88bd
000003e0: b44a 713d 3890 093e a4a7 8abd 1f92 d4bd
000003f0: 42a3 d53d 5c31 99bd 0529 0f3d cf05 003d
-0.063031234 0.066051155 -0.07012421 0.025741864 -0.114797905 0.06682448 0.021750797 -0.03825177
0.04563859 -0.09888196 -0.013967629 0.114533156 0.012446954 -0.11854854 -0.04081078 0.09801323
0.07747757 -0.004460535 -0.016899941 0.08407945 0.06861592 0.09906823 0.067598574 0.11674328
0.044489797 0.027823359 -0.042365268 0.03544677 0.10700229 -0.11711304 0.0017704142 -0.06666699
0.06889512 0.0760378 0.06951174 0.038786087 0.06016796 0.10138834 0.123445064 0.021902662
-0.10004497 0.059098877 -0.02011044 0.057238024 -0.0951969 0.08089917 -0.11849566 -0.012889336
0.012676196 -0.10532507 -0.08827531 -0.07934221 0.0792806 -0.059384923 0.029741213 -0.0074431
-0.020574855 0.016172376 0.08058779 0.073214695 0.0021955296 -0.06192766 -0.054569967 0.031113282
-0.07402681 -0.059880994 -0.08227644 -0.0884226 0.086036004 -0.08583823 0.08973581 0.10874107
0.11121508 0.11690365 -0.0846126 -0.029112287 0.036064807 0.04486153 -0.098724015 -0.07111704
0.030087592 -0.042963717 -0.020474011 -0.106027365 0.11832139 0.08298914 0.053228244 -0.07491937
0.053880088 -0.06686828 -0.12082601 0.007708975 -0.06678393 0.0333253 0.051379155 -0.023022186
-0.08006107 0.0016441371 0.025965527 0.06779413 0.045287777 -0.08026531 0.09115073 0.12157337
0.03701201 -0.0010994334 0.043322995 0.08407019 0.05963274 -0.11815872 0.021412399 0.11635607
0.065072685 -0.033233937 -0.08154296 -0.035324987 -0.077885866 -0.067283 0.013254359 -0.06441555
-0.12077946 0.036885213 -0.050179332 0.08435033 0.0013283624 -0.107986815 -0.053778023 -0.03379773
-0.028097792 0.1413252 -0.02374394 0.06865305 -0.12203498 0.032457713 0.08122229 0.1359237
0.06708091 -0.04602809 0.057549533 0.02066742 0.11671507 0.021079393 -0.08057586 0.0889655
-0.034287423 -0.11803261 0.10274573 -0.08464488 0.069023065 0.07205819 -0.027820813 -0.029596359
0.11778952 -0.021615518 0.10917424 -0.0053520054 0.09207936 0.1010635 0.0069370004 0.14371106
-0.0066023413 0.018064106 -0.0023695652 -0.030986689 0.07328519 0.10279183 0.11830909 0.1487004
-0.06988797 0.06707012 0.10503976 -0.10176763 -0.09062399 -0.04467036 0.07822106 -0.06794409
0.06907797 -0.11604687 -0.120938756 0.07821868 0.026954146 -0.088773094 0.10790201 0.057607573
0.054365076 -0.028352132 0.01736801 0.110981636 0.12734406 0.07446888 -0.08994259 0.0519838
-0.09853391 0.08853832 0.09413832 -0.0002241217 -0.07261181 -0.020433431 0.11720761 -0.03322463
0.0019019765 -0.11812451 0.016170474 0.0003916415 -0.118963875 0.08643727 -0.102003284 0.026373535
0.0037652424 -0.043445595 0.06258275 -0.04531039 0.06536001 -0.00815977 0.032112233 0.048092917
0.08640124 -0.0987255 0.0012974878 -0.061896663 -0.07862747 -0.070472874 0.10574086 -0.06165167
0.016999964 -0.09594898 -0.0995592 -0.081935614 0.109294124 -0.090210274 -0.11478035 0.11199967
0.07727938 0.10921179 -0.015002257 0.1070539 0.051521726 -0.02481677 0.050930716 -0.053838123
-0.02748769 -0.008729939 0.024504635 0.046656426 -0.01781485 0.05360937 0.093972825 -0.06669244
0.058909133 0.13433921 -0.06770256 -0.10379433 0.104315296 -0.07480118 0.03495123 0.03125554

bias f4 [64]
00000000: 479c d8bd b44e 403d 06fa 8c3e 65b1 0c3e
00000010: c84d ccbd b969 223c a256 b5bd d51f 403d
00000020: 60aa 8c3d 9255 ca3c a59f 8cbd 72e2 34bd
00000030: 7b7b fd3d ccef 87bd b674 493e 2873 573e
00000040: 9f2e 8d3d e8df 7a3d 1e73 1f3e c67b 503e
00000050: de3e 993d 376b adbd 8669 3ebc a8d3 29bd
00000060: 5740 a3bd 7893 8fbd 88e8 643e 7078 34bd
00000070: 3819 f1bd b3fe 803d e663 aebd 5e8c 833e
00000080: 3eb2 f93c 6bdb e8bb 4ccb fdbd a734 b43d
00000090: 5223 4f3e 3205 1c3e 3152 d43c d221 4e3e
000000a0: edd6 3b3e d77e c33c 0bc3 f4bd fffa 27bd
000000b0: 88f8 e93d 96d2 1b3c 7ee3 373e f705 743c
000000c0: 4560 0d3e 4991 bbbd 3989 e0bb c09a babd
000000d0: 7c33 a7bc 50a3 d0bd c2d4 55bc 7646 98bd
000000e0: c48c f23d 8e42 fa3d bc21 47bd 5d94 56bd
000000f0: 0c4d 753b 6892 bbbd ed94 6d3e e84a 2d3e
-0.105766825 0.046950057 0.27534503 0.13739546 -0.09975773 0.009912902 -0.088544145 0.046905357
0.06868434 0.024699006 -0.06866387 -0.044161268 0.12377068 -0.066375345 0.19673428 0.21040022
0.06893658 0.06124869 0.15571257 0.20359716 0.07482694 -0.08467715 -0.011621838 -0.041461617
-0.07971256 -0.07010549 0.22354329 -0.04406017 -0.11772388 0.0629858 -0.08515148 0.2569303
0.0304805 -0.007106235 -0.123922914 0.08799105 0.20228317 0.15236357 0.025918098 0.20130089
0.18343706 0.023864193 -0.11951264 -0.041010853 0.11424357 0.009510657 0.17957875 0.014894
0.13806255 -0.0915857 -0.0068522957 -0.091115475 -0.020410292 -0.101873994 -0.013051214 -0.07435314
0.11843255 0.122197255 -0.048616156 -0.052387584 0.0037429957 -0.09158784 0.23201342 0.16923106

weight f4 [64, 64]
00000000: f412 713d 14fa bd3d 98b2 d2bc 46ba b0bd
00000010: a8ff 82bd 6c75 b23d 9495 bf3d 84e2 f8ba
00000020: cc7c 663d 48a1 4a3d 6036 4c3c e2b3 86bd
00000030: b4ac 7abd cc5e 183d 3067 57bc 6087 9b3c
00000040: ba57 b6bd 9317 e6bc 70f4 d8bc b4bb 15bd
00000050: 9eea c8bd 2668 a1bd 7861 993c d44c 4a3d
00000060: e8fd e7bc 4800 a9bd 74fb 653d 706f c9bd
00000070: e880 cc3c dab5 b23d 1c52 c2bd c806 cd3c
00000080: c410 86bd 4059 0cbc 9ced 7b3d d452 7f3d
00000090: d84e cb3d dc51 8bbd 30df d23d bceb fdbd
000000a0: 5cf9 ff3d 546b 7fbd 2aca 98bd 0059 383a
000000b0: 74ec 2abd b43d d03d 4a42 86bd f0ef 32bc
000000c0: 5850 d1bc 40be a03c e0f1 a1bc 1011 80bd
000000d0: b08d e8bd 28f4 40bd feb8 bcbd 04fa 103d
000000e0: 1658 e73d 28d5 9bbc 005d 0d3a a26f c0bd
000000f0: 0ca3 1d3d b441 393d 32dd b2bd 30f1 86bd
00000100: ca2b 3abc 2032 f43d 8df5 e23c a9dd b1bd
00000110: 007b 14bb b14d c4bd 2c6a fbbd b62c 93bd
00000120: 74c1 733d d0e1 b2bc 453d 06bd f6a2 2c3d
00000130: fcc6 c73d 48e8 413d bcc0 7abc a064 163d
00000140: 0242 b6bd f05d bd3d 2c3c 773c f096 d13d
00000150: c466 d2bd c758 53bd 3d54 9a3d 6af2 ddbc
00000160: 8825 3dbd 76de fcbd 59dd 763d cb01 f63d
00000170: 72dd 983d f7b2 f33d 0b8f dc3a dbb7 47bb
00000180: 9645 a0bd 4465 cb3c 799a d53d 8a51 573d
00000190: 35cf b73c 5ad8 d43d b4b6 653a 9762 54bd
000001a0: 23ee 0a3d 9585 db3d f93e 5e3d 6331 63bd
000001b0: f2a1 8c3d 6968 513c 457c 803b cb77 92bd
000001c0: 2a62 ce3d 31e8 f7bc 5996 403b 6c8a 203d
000001d0: 2845 e0bd 36fe 223d d5ea 933d 9b00 ebbd
000001e0: d8a4 b73d 4b5c 3ebb ff72 4d3d 4b88 6abd
000001f0: 9736 1cbd d83b dc3d 13f3 29bd 8e49 833b
00000200: 7652 c1bd 1e03 e73d 542b 8fbd d038 be3d
00000210: 5cdf 663d 808c 07bb d297 eebd 24a7 78bc
00000220: 06f8 8f3d 1065 fdbc c045 47bd feed fdbd
00000230: ac94 cb3d e756 aebb 50e2 68bc dc6e f03d
00000240: bc9b 8abd 3090 cabd 2cd2 16bd 5a6f f0bd
00000250: f483 3e3d 501b f7bc 0428 40bd 142c 073d
00000260: 98b2 08bd b40a 24bd a4ef bc3d 04a2 e4bd
00000270: 9a79 f2bd 7cb3 adbd 708a e23c c096 7b3d
00000280: 58c7 2c3d 3065 693c 408f 01bc 24b5 0fbd
00000290: 6c71 c1bd 402b 4c3b a8d9 cfbc 68b5 dcbc
000002a0: 905a e9bd f835 7c3d c801 efbc 18c5 bebc
000002b0: ec7e 173d f878 6cbd da30 e6bd 7a25 acbd
000002c0: 4cad 0fbd 88db 5d3d f4ec 38bd b2a1 c13d
000002d0: 5cba 8cbd 3896 66bd dc27 223d a86e 953d
000002e0: 982a 873d 009e 28bd b4f9 543d 9219 c0bd
000002f0: a013 483d cc09 a53d 402e fe3b c227 92bd
00000300: a60d b8bd 6797 1a3c 283e d1bd 0195 c53d
00000310: 4c4b 0abd 9fb0 21bd c705 a2bd 9d0b abbd
00000320: ced5 263d 68c9 b6bc b1da 46bd 7e6b 2c3d
00000330: 07af 9bba 1a15 d93d f523 4bbd ef15 9abd
00000340: f1a9 c03b 3162 80bd 1e86 25bc c0ec 663d
00000350: 262d 9dbd 555f 8bbc fb7f e8bd 3fab b13c
00000360: 88bf cd3d 0d0f 923c 6ac5 e2bc 6e08 eebd
00000370: 58d4 fdbc bd5a 393d 1226 55bc 6caa 443d
00000380: 47d1 b03d a3dd f13d 1897 ce3c a9db 533d
00000390: 7a47 cabd 41fc 833d 8533 913d e9bb e2bd
000003a0: 26e4 a43d 38a8 c13d 0401 76bd b506 133d
000003b0: c707 893d 48ab f7bc f372 e7bd 29d5 ccbd
000003c0: eba8 723d c315 c9bc 8226 5dbd f8d4 83bd
000003d0: 7da0 86bd f49c fbbd c718 a3bd 6403 8c3d
000003e0: ea0b c9bc 8576 003d b635 a03d df25 b53d
000003f0: d9d1 45bd 607e 95bb d5ac bb3d e1c9 d0bd
0.058855966 0.09276214 -0.025719926 -0.08629279 -0.06396419 0.08713803 0.09354702 -0.0018988405
0.05627136 0.049470216 0.012464136 -0.06577279 -0.06119986 0.03719978 -0.01314716 0.01898545
-0.08903451 -0.028087413 -0.026483744 -0.03655596 -0.09810375 -0.07881193 0.018723235 0.049389675
-0.028319314 -0.08252007 0.056148008 -0.09835708 0.024963811 0.08726092 -0.09488317 0.025027648
-0.065461665 -0.008566201 0.0615059 0.06233485 0.099271476 -0.06802723 0.10296476 -0.123984784
0.124987334 -0.062358215 -0.07460435 0.0007032305 -0.041729406 0.10168019 -0.065556124 -0.010921463
-0.025551006 0.019621968 -0.019768655 -0.062532544 -0.1135515 -0.047107846 -0.09214972 0.035394683
0.11296098 -0.01902254 0.0005392581 -0.09396292 0.03848557 0.045228675 -0.08733596 -0.065889716
-0.011362979 0.11923623 0.027704978 -0.086848564 -0.0022656322 -0.09585131 -0.1227611 -0.07186262
0.059510663 -0.021836191 -0.032773275 0.0421476 0.0975475 0.04734066 -0.0153047405 0.036717057
-0.08899309 0.09246433 0.01509003 0.10233867 -0.10273507 -0.051598337 0.075355984 -0.027093131
-0.04617837 -0.123471186 0.060269687 0.12012061 0.07464112 0.11899369 0.0016827298 -0.0030474577
-0.078257725 0.02482856 0.10429854 0.052567996 0.022437671 0.10392828 0.00087628816 -0.051851835
0.03391851 0.10718838 0.054259274 -0.05546702 0.06866826 0.012781241 0.003921064 -0.07151755
0.10077317 -0.030262085 0.002938649 0.03919451 -0.109506905 0.039793216 0.07222525 -0.11474725
0.08966988 -0.002904671 0.050158497 -0.057258885 -0.038138 0.10753602 -0.04149158 0.004006571
-0.09439556 0.112798914 -0.06990686 0.0928818 0.056365356 -0.002068311 -0.11650051 -0.015176568
0.070297286 -0.03093198 -0.048650503 -0.12398909 0.09940466 -0.005320418 -0.014214113 0.11739895
-0.06767985 -0.09890783 -0.03682153 -0.117399886 0.04651256 -0.03016439 -0.046913162 0.03300102
-0.033373445 -0.04004927 0.09225395 -0.111637145 -0.118396 -0.084814996 0.027653903 0.061423063
0.042182297 0.014245316 -0.007907689 -0.03508486 -0.09445462 0.0031153709 -0.025372341 -0.02694197
-0.113942266 0.061574906 -0.029175654 -0.023287341 0.036986277 -0.057732552 -0.112397864 -0.084055856
-0.03507738 0.05416444 -0.04514785 0.09454669 -0.06871483 -0.056295604 0.039588794 0.07296497
0.06599921 -0.041166306 0.051995948 -0.09379877 0.04884684 0.08058509 0.0077569783 -0.071364895
-0.08986978 0.009435511 -0.102169335 0.09647561 -0.033763215 -0.03947508 -0.07911258 -0.083518244
0.040731244 -0.022312835 -0.048548404 0.0420947 -0.0011877724 0.10599728 -0.04959484 -0.07523715
0.0058796336 -0.062687285 -0.010102777 0.056378126 -0.07674627 -0.017013231 -0.11352535 0.021688102
0.10046297 0.017829442 -0.027682025 -0.116227016 -0.030985042 0.04525255 -0.013009565 0.04801409
0.086336665 0.11809852 0.025218531 0.051723156 -0.09876914 0.06444598 0.07089905 -0.11070997
0.08051328 0.09455913 -0.060059562 0.03589507 0.066909365 -0.03023304 -0.11301222 -0.100015946
0.059243124 -0.02454651 -0.053991802 -0.06437105 -0.065735795 -0.12285796 -0.0796371 0.06836584
-0.024541814 0.03136303 0.078227445 0.08845114 -0.04829583 -0.004562184 0.091638245 -0.10194755

bias f4 [64]
00000000: 082e 4fbd bbde b1bd 2e10 c7bd 7120 323d
00000010: 21e3 c4bd dee9 cd3d 97be 143d b0ee 6c3e
00000020: ebad 773d e44b 94bc 7f4d babc 68f6 f3bd
00000030: c079 87bd 2348 c83d 7c57 edbb 08df 90bd
00000040: 5a96 923e 7e57 83bd 6980 263e 8daa 103e
00000050: ab0e 25bd e2a9 683e 67a0 83bc 4cbe 8b3e
00000060: 000f af3b e88e a6bd 4aa8 1c3e 6415 a63e
00000070: cfea da3d 985c 243d 607c ba3b a832 4cbd
00000080: 722a 253e e78e 853e 99e4 7dbc f0ae 33bd
00000090: 73c5 903e 0e57 6a3c 7266 743d b60d 92bd
000000a0: 2018 95bd 412c 493e 3c85 44bd ab8f 61bd
000000b0: 25fe b5bc d54f 813e 0cbb b7bb b5ab 603e
000000c0: 0051 f2bd 9433 fcbd b154 a83d 14c4 d7bd
000000d0: 5eee b83d 17de 243e be42 773e 1065 eabc
000000e0: eaf7 84bd 8c3a a23d d591 9dbd 3431 f5bd
000000f0: 62a4 54bd c88f a8bc 5038 aebd 2a2d f6bd
-0.05058101 -0.086850606 -0.09719883 0.04348797 -0.09613634 0.10054372 0.036314573 0.23137927
0.060468595 -0.018102594 -0.022742031 -0.11912233 -0.06615019 0.09779384 -0.007243095 -0.0707379
0.28630334 -0.06413172 0.16259922 0.1412756 -0.04029719 0.22721055 -0.016067697 0.27293622
0.0053423643 -0.08132726 0.15298572 0.32438195 0.106893174 0.040127367 0.005691096 -0.049852997
0.16129473 0.26085588 -0.015496396 -0.043868005 0.28275642 0.014302982 0.059668012 -0.071315214
-0.07279992 0.19645788 -0.047978625 -0.055068653 -0.022215912 0.2525622 -0.0056070145 0.21940501
-0.11831856 -0.12314525 0.082192786 -0.10535446 0.0902984 0.16100346 0.24146554 -0.028612643
-0.06492598 0.07921323 -0.07693831 -0.119722754 -0.05191458 -0.020576373 -0.085068345 -0.12020333
