rl2024/exercise4/DDPG--racetrack-v0--critic_hidden_size:[32, 16, 16]_policy_hidden_size:[96, 96, 96]--0.pt (torch, 946243 bytes, 56 tensors)

weight f4 [96, 288]
000000 f1 44 56 3d 7b c4 1d bd 80 e3 a0 bc 3f 87 06 bd
       0.05231184 -0.038517457 -0.01963973 -0.032843824
000010 f0 ba 28 bc 35 b9 4c 3d d8 e5 93 bb c2 69 94 bc
       -0.010298476 0.049981315 -0.0045134835 -0.018116836
000020 16 a0 cf 3c f2 10 ab 3c 74 fe 31 3c 54 5f 29 3c
       0.02534489 0.020882104 0.010863889 0.010337669
000030 e1 ff 60 bd 88 73 93 bb a5 e8 5a 3d 03 ef 00 3d
       -0.054931525 -0.0044998564 0.053444523 0.03147794
000040 9d 65 51 3d d9 27 13 3d 00 92 ef 3a 1c 71 3c 3c
       0.051122297 0.035926674 0.0018277764 0.011501577
000050 72 c8 0b bd 80 23 06 3a eb 98 4b 3d 92 26 6a bd
       -0.034126706 0.0005116984 0.04970638 -0.05716569
000060 73 24 29 bd 22 1e 99 3c 74 9c cb bc ca b8 b5 3c
       -0.041294526 0.018691126 -0.024854876 0.02218284
000070 ac 6c 4f bd e6 52 d3 bc 10 8d 26 bc 1e bc 94 3c
       -0.050640747 -0.025796365 -0.010165468 0.018156108
000080 89 3a 42 bd a6 34 93 3c cf b0 59 3d bd 4b 6b bd
       -0.047419105 0.01796944 0.053147133 -0.057445277
000090 3e c9 be 3c 3c 86 7b bc c4 da 14 3c e1 b1 61 bd
       0.02328932 -0.015351828 0.009085361 -0.05510128
0000a0 d9 f9 46 3d 9e 82 8f bc 84 80 ba bc c3 c5 58 bd
       0.048578117 -0.017518338 -0.02276636 -0.052922975
0000b0 a7 01 05 bd 00 eb 0a 39 28 97 e6 bb e5 67 5c bd
       -0.03247228 0.0001324825 -0.007037062 -0.05381002
0000c0 58 6f 7b bc 22 8e 53 bd 13 02 50 3d f0 fe 33 3b
       -0.015346371 -0.05164922 0.050783228 0.0027465187
0000d0 53 0d 0b bd 37 7c 33 3d 15 a4 5a bd 0e 2b b8 3c
       -0.033948254 0.043819632 -0.053379137 0.022481468
0000e0 9c 61 5a 3c 61 c9 ed bc df 9b 1f 3d 22 d4 e0 3c
       0.013328936 -0.029026689 0.03896701 0.027444903
0000f0 ab 3d 52 3d c2 23 90 3c 6b c3 26 bd da 38 ed 3c
       0.051328342 0.017595176 -0.04071371 0.028957773
000100 2a 13 8a bc f1 7d 32 bd 60 8b f8 3a 7b 2b 38 3d
       -0.016854841 -0.04357714 0.0018962435 0.04496334
000110 dd ae 59 bd 72 f3 ac bc 36 5a b2 3c 0f 40 5a 3d
       -0.05314528 -0.021112178 0.021771532 0.053283747
000120 e6 0f d2 bc f8 be 3f bd f4 4c 0a bc 4b b7 6d 3d
       -0.025642347 -0.04681298 -0.008441199 0.05803613
000130 be 36 24 bd 0d a9 62 bd 46 6d 94 3d 88 16 cc bb
       -0.04009127 -0.055337 0.07247405 -0.006228272
000140 73 31 4b 3d f9 73 2e bd ae d7 0c bd 55 0b 19 3d
       0.049607705 -0.04259107 -0.034385376 0.037364323
000150 e1 b2 24 3d 7b 1f 6e 3d ce 4b c7 3c 39 72 65 3d
       0.040209655 0.05813549 0.024328139 0.056017134
000160 51 ac 44 bd 40 ed 13 bb 09 19 1a 3d 1a a9 0f bd
       -0.048015896 -0.0022571832 0.03762153 -0.035073377
000170 e9 d3 f9 bc 5e ac f2 3c b0 7e cf bc 72 57 bb bc
       -0.030496554 0.029623207 -0.025328964 -0.022868846
000180 37 a5 37 3d 1e 2f 8e bc 87 9b 35 bd 03 d3 12 3d
       0.044835296 -0.017356452 -0.044337776 0.035845768
000190 72 7c 9c bc c4 99 23 3c 48 77 9d bb 15 2c 0d 3d
       -0.019102309 0.009985391 -0.004805479 0.034465868
0001a0 52 b8 ed bc 76 92 63 bd 45 d2 6d bd 9b 84 43 bd
       -0.029018555 -0.055559598 -0.058061857 -0.047733884
0001b0 6a 53 a2 bc fa 9d fd 3c 48 05 9d 3b b7 d9 66 3d
       -0.019815166 0.030959118 0.0047918893 0.056359973
0001c0 0d 18 11 3d 02 31 85 3c 50 32 9e bb 2d 93 2d 3d
       0.035423327 0.01625872 -0.004827775 0.042376686
0001d0 52 92 a3 3c 64 14 d7 bc 88 52 60 bc 2d 70 4a 3d
       0.019967232 -0.02625484 -0.013691552 0.049423385
0001e0 32 70 60 bd f6 a6 4c bd 86 54 4f bd 94 8e 66 bd
       -0.054794498 -0.049963914 -0.050617717 -0.056288317
0001f0 db 25 0c 3d dc 38 ce bc a2 f2 f7 bc cd c0 49 3d
       0.03421579 -0.025173597 -0.030267064 0.049256135
000200 ed 18 49 3d fe a5 a2 3c 10 a6 8e bb f8 6c 8c 3b
       0.049096037 0.019854542 -0.0043532923 0.004285451
000210 10 0e 26 3b f2 84 dd 3c 05 78 41 bd 42 0b b6 3c
       0.0025337972 0.027040932 -0.0472336 0.022222165
000220 c8 55 48 bc ee 0a fc 3c 62 c8 b0 bc 57 a3 0f 3d
       -0.012227483 0.03076693 -0.021579925 0.035067882
000230 90 70 56 3b 0f 67 4c bd 82 23 21 bd 9b ff 01 bd
       0.00327209 -0.04990297 -0.039340504 -0.031737905
000240 08 bd 7c 3c 3e d6 87 bc 03 3b 31 3c 83 bc 08 bc
       0.015425928 -0.01658165 0.010817292 -0.008345726
000250 7c 9a 53 3d f1 b0 bf bc 47 5b 29 3b 80 18 3c bd
       0.051661 -0.023399802 0.002584176 -0.045921803
000260 9a 58 a8 3c 6b 7f 2a bd 1f 84 6c bd 94 d6 42 bd
       0.020550061 -0.04162542 -0.057743188 -0.04756792
000270 4e 02 f6 bc 7e b2 07 3c d5 26 ef bc e7 14 62 3d
       -0.030030396 0.008282302 -0.029193321 0.055195715
000280 b0 68 66 bd 8a b1 fe 3c 8a e6 6b bd 21 cf 2f 3d
       -0.05625218 0.031090517 -0.057592906 0.042922143
000290 ca e3 f5 3c 11 ca b1 bc b1 06 56 3b 3c c1 8e 3c
       0.030015845 -0.021702798 0.0032657797 0.017426126
0002a0 45 10 62 bd 36 bd 82 3c b3 0d d4 3c 5f 50 4a 3d
       -0.055191297 0.015959363 0.025885439 0.049393054
0002b0 92 87 12 3d 0e 0c c6 3c cb fc 8d 3c fa d2 fe 3c
       0.03577382 0.02417567 0.017332455 0.03110646
0002c0 30 0c ef bc 13 c8 18 bb e9 b2 6a 3c 70 71 02 bd
       -0.029180616 -0.0023312613 0.014324882 -0.031846464
0002d0 a9 05 43 bd 8a 74 a3 3c 39 22 7c 3c 95 d1 5e bd
       -0.04761282 0.019953031 0.015389019 -0.05439909
0002e0 6a d2 41 3b af ff 63 3d 25 83 db 3c bf 09 96 3c
       0.002957488 0.05566376 0.026795933 0.018315194
0002f0 aa e5 4a 3d 31 cc c1 bc 42 ee f4 bc 30 d3 29 bc
       0.04953543 -0.023656936 -0.029898766 -0.010365292
000300 43 29 b0 bb 3b 3e 60 3d 44 a5 52 bd c3 6d 0b bd
       -0.0053760125 0.054746848 -0.05142714 -0.034040224
000310 e4 2e 34 bb 1c 1a 0e 3b dc b3 1b 3d c4 47 2f 3d
       -0.002749377 0.0021683043 0.038013324 0.04279305
000320 a6 b1 48 3d 9d 14 17 3d 2a d3 19 bd 8c 7d 36 bd
       0.048997544 0.036884893 -0.037554897 -0.044553325
000330 a6 49 4c bd 0a 6d 84 3c eb 69 93 3c 37 2d 99 3c
       -0.049874924 0.016165275 0.017994842 0.018698318
000340 8a 85 8c b9 97 8c e9 3c 76 6e 5f 3d 31 bc 31 bd
       -0.00026802375 0.028509421 0.054548703 -0.043392364
000350 6f c0 0e 3c dd 71 35 3d 22 9a 31 3c 51 ce 96 3b
       0.008712872 0.04429804 0.010839971 0.0046022316
000360 1e 54 3a bd 4c 30 4a bd 8c 8f 4e 3b d0 a1 d5 bc
       -0.045490377 -0.049362466 0.0031518666 -0.026078135
000370 90 cb be 3c 75 cd 3b bd 95 59 b8 bb ba 91 13 3d
       0.023290426 -0.045850236 -0.0056259134 0.036027648
000380 c1 e0 57 3c e2 a9 25 bd ca de 2f 3d f4 8f 9c bc
       0.013176144 -0.040445216 0.042937078 -0.019111611
000390 1c a7 8a bb 89 60 21 3d 5c 33 3d bc 11 ae c7 bb
       -0.004231347 0.039398704 -0.01154789 -0.0060937484
0003a0 64 f4 df 3c ad f3 65 3d 46 56 c6 3b 6f fc ef bc
       0.027338214 0.05614059 0.006052765 -0.029295174
0003b0 a3 e8 dc bb 15 b7 05 bd d7 69 11 bd 67 c6 1a bd
       -0.0067415996 -0.032645304 -0.035501327 -0.037786867
0003c0 7e 42 e2 bc 11 c7 3e 3d a2 c2 de 3c 84 b6 78 bc
       -0.027619597 0.046576563 0.027192418 -0.015180234
0003d0 03 a5 0f 3d 9b e5 37 3d 0b d7 23 3d ee d4 19 bd
       0.035069477 0.044896703 0.040000003 -0.03755658
0003e0 bf 12 20 bd 16 27 f7 3c 5b 76 37 3d f7 39 1f 3d
       -0.039080378 0.030170005 0.044790607 0.03887364
0003f0 e6 75 fe 3c b8 e0 eb 3b 30 e8 d2 bb 6d 24 32 bd
       0.031062078 0.0071984194 -0.0064363703 -0.04349177

bias f4 [96]
000000 de 88 f0 3d d3 0d 87 3d 60 14 0d 3d ad 74 76 3c
       0.11744855 0.06594434 0.03444326 0.015042466
000010 e3 d6 3a 3d f4 c7 f7 3b 22 40 e7 bc 00 f6 ab 3d
       0.04561509 0.007561678 -0.028228823 0.0839653
000020 89 eb 31 3d f6 a2 2a bd 2b f1 c7 3c 4c f5 8b 3c
       0.043437514 -0.041659318 0.02440699 0.01708474
000030 4f 92 d9 bc 1b d8 55 bd cf 28 30 bd 9b 19 a5 bc
       -0.026559023 -0.052208047 -0.043007668 -0.020153811
000040 d4 c5 5f 3d 86 51 38 bd 12 b7 8a bc b0 33 20 bd
       0.054632023 -0.04499962 -0.016932998 -0.039111793
000050 84 67 22 3c c1 6b 16 bd e0 45 36 bd e4 fa 31 3d
       0.009912375 -0.036723856 -0.04450023 0.04345216
000060 cf 23 a0 3d 4a e2 03 bd 9d 58 3b 3c be 99 fe 3c
       0.0781933 -0.032198228 0.011434701 0.03107917
000070 dc bf 67 bd 6f 90 fc 3c c8 50 26 bb dd 72 37 bd
       -0.056579456 0.03083059 -0.002537774 -0.044787277
000080 48 f4 70 3d b0 5a 3a 3d 81 39 3c bc 2e b8 4a bd
       0.058826715 0.045496643 -0.011488319 -0.049492054
000090 a5 be f4 3c a3 5b 10 bc 9a 3c 4a bb ee b6 82 3b
       0.029876063 -0.00881091 -0.0030858875 0.003989092
0000a0 e2 07 ce 3c 02 32 bb bb df 53 25 bb b8 86 77 3c
       0.025150243 -0.0057127485 -0.0025226993 0.015107803
0000b0 f6 81 c3 bc bd ce c8 3c 3d 14 3f bd 85 39 9c 3c
       -0.023865681 0.024512643 -0.04665016 0.019070396
0000c0 9a 6d 66 3d 1b 78 b3 bb db d2 47 3c 03 7b 7c bc
       0.056256868 -0.005476964 0.012196268 -0.015410188
0000d0 2f 84 c4 bc 7f b8 4d bd a8 16 0a bd ec ce 31 bc
       -0.023988811 -0.050224777 -0.033713013 -0.010852557
0000e0 62 65 15 bc b4 6f 1e 3c d1 2c a2 bc 12 2e 3b bd
       -0.00911841 0.009670187 -0.01979676 -0.045698233
0000f0 83 77 17 bc 21 91 30 3d 98 bc 4e bd c1 46 21 bd
       -0.009244802 0.043107156 -0.050472826 -0.039374117
000100 ec 90 fa bc 08 e8 07 3a 17 a1 2f bd 32 e9 32 bd
       -0.030586682 0.00051844167 -0.042878237 -0.043679424
000110 03 0e e0 3c f7 cf 6e bd ea a9 3f bd 99 b5 aa 3d
       0.027350431 -0.0583038 -0.046792902 0.08335418
000120 a8 ae 49 bd b6 97 00 3d b6 b1 fa 3c d2 e0 3a bd
       -0.04923883 0.031394683 0.030602317 -0.04562456
000130 35 af 3b bd 75 c4 94 3c c1 4b 71 3d 8e 2a 47 3c
       -0.045821387 0.018160084 0.058910135 0.012156142
000140 a5 43 99 3d 31 0e 71 bd 41 3c 69 3c aa c1 1d bd
       0.07483605 -0.058851425 0.014235557 -0.03851477
000150 94 47 01 3d 6f ce e9 3c 03 b7 5a 3c 94 b1 5b bd
       0.031562403 0.028540818 0.013349297 -0.05363615
000160 fe d7 0e 3c 58 ba dd 3b f7 2b dc 3d 67 80 79 bb
       0.008718489 0.0067665987 0.10750573 -0.0038070919
000170 9b da 19 bd bd 36 b8 3b 0d af bb 3d 0e 46 9b bc
       -0.037561994 0.0056217597 0.09164248 -0.018954303

weight f4 [96, 96]
000000 d1 9c 68 3d 98 ec a9 3b a5 5e 89 3d 21 91 65 bd
       0.056790177 0.005185675 0.06707505 -0.05604661
000010 b0 77 bc bc da d9 95 bd dc b2 9a bd 22 34 60 bc
       -0.02300629 -0.073169425 -0.07553646 -0.013684304
000020 df fc b0 3d 28 51 a1 bd 15 38 f0 bc 83 1d dd 3a
       0.08641981 -0.078768075 -0.029323617 0.0016869757
000030 f8 54 ed bc 01 a9 ad 3d 4a 5f 5e 3c 77 17 30 3d
       -0.02897118 0.084795006 0.013572523 0.042991128
000040 02 20 11 3d c3 74 8e bd 8d 5d 71 3d c5 eb 82 bd
       0.035430916 -0.06955864 0.058927108 -0.06392626
000050 af 28 a0 bd 0b 3f f2 3a 33 e2 f6 3c 37 ba 13 bd
       -0.0782026 0.0018481923 0.030137157 -0.03606626
000060 a6 46 e9 3c 08 53 68 bd ee 8f aa bd ed 64 66 3d
       0.02847607 -0.05671981 -0.08328234 0.056248594
000070 67 53 9f bd e8 b4 be 3c 0e 8d aa bd 8d 41 03 bd
       -0.077795796 0.023279622 -0.08327685 -0.032044936
000080 2d 93 ca bc 70 15 b4 3d 44 58 40 bd 17 55 a8 bd
       -0.024728382 0.087931514 -0.046959177 -0.082193546
000090 6c f3 41 3d 61 de de bc dd 2a 51 bc f5 4c 5f 3d
       0.047351286 -0.027205648 -0.012766567 0.05451675
0000a0 e6 e3 df bb c1 0e bb bd 67 fe 29 3d 77 79 8c bd
       -0.0068325875 -0.091336735 0.041502383 -0.06859105
0000b0 1c 0c 87 bd 01 c4 a2 bd 14 1d 34 3d c0 01 90 3d
       -0.065941066 -0.07947541 0.043973044 0.07031584
0000c0 7b 68 c0 3d ef 55 82 bd 8a 0e 5b b9 86 b6 9a bc
       0.09394928 -0.06364047 -0.00020890884 -0.018885862
0000d0 fa 00 9f 3d ae 31 bc bb d3 a0 43 bd 3d c8 bd 3d
       0.07763858 -0.005743227 -0.047760796 0.09266708
0000e0 d5 f6 d0 3d 00 ee f5 bc 8c de c6 3d b0 22 2d 3d
       0.102033295 -0.030020714 0.09710416 0.04226941
0000f0 07 a8 43 3d 26 9a ca bb e6 40 8e 3c fa 38 85 3d
       0.047767665 -0.0061829267 0.01736493 0.06505008
000100 c9 eb 62 3d 53 64 76 3d b0 fc ee 3c 14 08 c8 bd
       0.055400643 0.06015427 0.029173225 -0.09767166
000110 a2 0b a9 3d 71 3b 1a bd ed e4 b5 3c e8 50 e3 bc
       0.08254172 -0.037654344 0.022203887 -0.02774854
000120 6d f9 46 3c ed 8e e5 3c 53 b6 bc bb 71 8f 8b 3d
       0.012144429 0.028022254 -0.0057590394 0.06814469
000130 f3 91 93 bd 95 a6 69 3d e9 4a 34 3d 7b b5 6a bd
       -0.07205572 0.05704363 0.044016752 -0.05730198
000140 fa 90 5b bb 84 cd 80 3d bb f6 b6 bd 0d b9 ed bb
       -0.003350316 0.06289199 -0.08933779 -0.007254726
000150 4e 4c 93 3d cb cc 4f 3d 72 b4 ac 3c 7c 24 81 3d
       0.07192288 0.050732415 0.021082137 0.06305787
000160 4f 14 90 3d 54 cf 17 3d 93 ec aa bd 4a 7a f6 bc
       0.070351236 0.037062958 -0.08345904 -0.030087609
000170 5f 54 9b bd 8a a0 b1 3d 71 a4 26 3d 58 a0 c2 3d
       -0.07584452 0.086731985 0.040684167 0.095032394
000180 96 a5 56 bd 32 80 48 bd 40 da cc bd e6 69 47 3d
       -0.05240401 -0.04895038 -0.100025654 0.048684977
000190 53 be 27 bd 1f f3 51 bc 88 43 85 3d 44 ea 45 3c
       -0.04095299 -0.012814312 0.06507021 0.012079779
0001a0 af 90 06 3d 1e 78 10 3d ce ed e1 3c c9 15 c8 3c
       0.032852825 0.035270803 0.027579214 0.02442445
0001b0 78 9e 99 3d d4 ff b5 bd 56 70 67 bd de 48 c9 bd
       0.07500929 -0.08886686 -0.056503616 -0.098283514
0001c0 a0 f5 9b bd a7 db 46 3d 79 c1 3b bd cf 9d b0 3c
       -0.076152086 0.04854932 -0.045838807 0.021559624
0001d0 95 80 91 3c dd 4a 92 bd ac f6 86 bc 05 da ee 3c
       0.017761508 -0.07143185 -0.016475044 0.029156694
0001e0 09 12 b4 3d 48 01 29 3c b8 d6 44 3d d1 0e 20 bc
       0.087925024 0.010315247 0.048056334 -0.0097691575
0001f0 fd 76 3c 3d 7e b1 bc 3d a9 0b 88 3d e0 4a c4 bd
       0.046011914 0.092135414 0.06642849 -0.09584594
000200 5b 3b 18 3d 04 bc 99 bd 9d 95 3a 3d b1 4f 46 3c
       0.03716598 -0.07506564 0.04555284 0.012103961
000210 b1 8f ca bc a9 1e 21 3d 71 b0 bf 3c 8f 33 cd 3d
       -0.02472672 0.03933588 0.023399564 0.100196
000220 a3 f8 a6 bd e8 e5 9f bd ff 28 4f 3c 07 5c 87 3d
       -0.081528924 -0.07807523 0.012644052 0.0660935
000230 c5 f3 6c bd 1f e5 4d bd 99 27 18 bd 90 de 2a bb
       -0.057849664 -0.050267335 -0.03714714 -0.00260726
000240 af 46 e9 3c 25 3a c6 bd 51 5c ab bd 0a 71 49 bd
       0.028476087 -0.09679059 -0.08367217 -0.049180068
000250 8c a6 a4 bb b2 a4 cf 3d 21 36 21 3c b7 ee 08 bd
       -0.0050247367 0.10138835 0.0098395655 -0.03343078
000260 5d f0 ad bd 74 89 bf 3d d0 11 ed bb f8 a1 d8 3a
       -0.08493111 0.09352389 -0.0072347894 0.0016527763
000270 78 c1 bd 3d ac 38 39 bd 3c 60 60 3d 93 a6 71 3d
       0.09265417 -0.045220062 0.054779276 0.05899675
000280 78 eb a8 3c ea c8 af bd 50 4b 9e bc 16 ca 34 3d
       0.020620093 -0.08583243 -0.019323021 0.044138037
000290 74 29 09 bd 36 0d 98 3d bc eb cf 3b 56 a9 97 bd
       -0.0334868 0.07424395 0.0063452404 -0.07405345
0002a0 1d 5b 33 3d 6b 2a 32 3d 43 04 64 3d 1e a0 4a bd
       0.043788064 0.043497484 0.055668127 -0.049469106
0002b0 6f 77 b4 3d b5 7d 21 bd b5 d8 0d 3d 68 97 b1 bd
       0.08811843 -0.039426524 0.034630496 -0.086714566
0002c0 e0 a3 f7 3c a0 de 5e bb 34 97 1f bd 3a 8d 41 3c
       0.030229509 -0.0034007207 -0.038962558 0.011813456
0002d0 00 99 46 3b 0e 1e 11 3d 06 0d 8d bc b0 86 66 3d
       0.0030303597 0.035429053 -0.017218124 0.05628079
0002e0 9e 57 a9 bd 1a 51 a1 bd 54 81 ab bb 80 ed 6e bc
       -0.08268665 -0.07876797 -0.005233923 -0.014582992
0002f0 39 ea 68 3d ec 97 ad bd b0 ca 23 bb 89 d5 cf bd
       0.056863997 -0.084762424 -0.0024992637 -0.101481505
000300 84 cc d9 bc 49 1c b4 bd 3e e4 9f bd 46 f9 2c bd
       -0.026586778 -0.087944575 -0.078072056 -0.042229913
000310 ff 08 75 bc 1f 06 8d bd 1a 2e 89 bd aa a5 53 3d
       -0.014955758 -0.06885933 -0.06698246 0.05167166
000320 31 40 82 bd 48 f5 99 bd 7d 33 5d bd f7 4c b0 3d
       -0.063599 -0.07517487 -0.05400418 0.0860843
000330 84 ff ab 3d 24 06 c4 bd 5c f6 65 3d e9 0a 98 bd
       0.08398345 -0.09571484 0.05614315 -0.07423956
000340 01 1d 49 3d 37 8c 69 3d aa 63 7e bd 53 e1 b5 bd
       0.049099926 0.057018485 -0.062106766 -0.08880868
000350 57 73 6c bd 50 e2 a5 3c 60 13 0b 3c 1f ee 15 3d
       -0.057727184 0.020249516 0.008488506 0.036604043
000360 3f 27 ed bc 34 7a 9a 3d f6 df 8e bd da 2c fa 3c
       -0.028949378 0.0754284 -0.06976311 0.030538965
000370 3b 77 3b bc 43 17 79 3d 4b 5d 05 bd 7d bb 55 3d
       -0.011442001 0.0608132 -0.032559674 0.052180756
000380 df d5 bd 3d 6b 85 24 3c 3f 76 8a bd d4 70 06 bd
       0.09269308 0.010041575 -0.06760835 -0.032822445
000390 25 f9 25 bb 97 35 b8 bd 6c 38 96 3c aa c4 96 3d
       -0.0025325504 -0.089945965 0.01833745 0.073617294
0003a0 f1 34 c1 3c b9 eb 3e bd 81 d1 8a 3d 9a 07 b4 3d
       0.023584815 -0.04661152 0.06778241 0.087905124
0003b0 30 7c b2 bd bd cd 15 bd e0 3c bc 3d db 78 94 3d
       -0.08715093 -0.03657316 0.091912985 0.07249614
0003c0 9d d6 23 3b 9c 8c 44 bd e4 a8 47 bc cb 9c 4d 3d
       0.0024999746 -0.047985658 -0.012186263 0.050198358
0003d0 fd e2 b1 bc 36 12 8b bd a9 77 ae bc d8 e0 54 bb
       -0.021714682 -0.06790583 -0.021297293 -0.003248265
0003e0 d5 62 fe 3c d2 ac c2 3d 6d 32 a9 bd f3 00 b1 3c
       0.031052986 0.09505619 -0.08261571 0.021606898
0003f0 22 c0 7e 3d 95 2e 87 3d 3f ae 2d 3d 24 35 c6 bd
       0.06219495 0.06600682 0.042402502 -0.096781045

bias f4 [96]
000000 e6 3c a2 3d 14 d5 83 bc ab 2d 8f bd fd 34 15 3b
       0.07921772 -0.016092815 -0.06991132 0.002276718
000010 6c 04 96 bc 49 df de ba 3a b8 97 bd ce cb 7b bd
       -0.018312655 -0.00170038 -0.07408185 -0.06147366
000020 54 aa 7c bc 5b 75 ce bd 26 64 8b 3c 44 4b 4e 3e
       -0.015421469 -0.100809775 0.017015528 0.20145899
000030 a8 81 c9 3d ff 2f 68 3d 31 2e bf bd 06 1e 47 bd
       0.09839183 0.056686398 -0.09334982 -0.048612617
000040 56 61 1f 3e c8 37 84 3d 00 36 af bd 44 69 c4 bd
       0.15564474 0.06455952 -0.085552216 -0.0959039
000050 05 75 19 3e 83 8c 53 3b 74 ae 5f 3d eb 58 f1 3c
       0.14986046 0.0032279796 0.05460973 0.029461345
000060 a7 df ab bd b6 bb ad 3d 5f 59 84 3c c3 de f6 bc
       -0.08392268 0.08483069 0.016155897 -0.030135518
000070 b0 49 8d bd b4 d0 b4 bd 5e b2 1f bd d6 75 94 bd
       -0.068988204 -0.088288695 -0.038988464 -0.07249038
000080 81 cb c6 bd 73 fa 8e bd e5 2e b8 bd fb 47 8f bd
       -0.09706784 -0.06981363 -0.089933194 -0.06996151
000090 c4 33 9c bd b8 3c 45 bc ca b0 fd bc 2d 5e 79 bd
       -0.07627061 -0.012038402 -0.030968089 -0.06088083
0000a0 d7 e3 d8 3d 01 a1 fa bc 80 b6 f6 bc 48 82 13 3e
       0.10590332 -0.03059435 -0.03011632 0.14405167
0000b0 d7 9e b4 3d 31 67 97 bd e4 e4 24 3d 59 a4 06 bd
       0.08819359 -0.07392729 0.04025735 -0.032871578
0000c0 2b 15 32 bc 78 ac 1c bd 71 4b 0e 3e 67 a8 32 3e
       -0.010869305 -0.038250417 0.13895966 0.17447053
0000d0 ab bf 8f 3c ab 9c b8 bd 84 47 c1 bd 4c 5f b0 3d
       0.01754745 -0.09014257 -0.09437469 0.086119264
0000e0 11 44 a7 bd 55 4f 7e bd 13 4f ab 3c ec 05 d1 bd
       -0.081672795 -0.062087376 0.020911729 -0.10206208
0000f0 a2 a3 43 3e 90 4d 9b bd 89 14 c6 bd 20 ae 0f bd
       0.1910539 -0.07583153 -0.096718855 -0.035078168
000100 7e b5 7f ba cc 49 5e 3c b2 66 67 3d 00 82 05 bc
       -0.00097545225 0.013567399 0.056494422 -0.00814867
000110 1c 11 91 bd 6a 1a be bc 4f f3 96 3d 14 a4 a2 bd
       -0.070833415 -0.023205955 0.07370626 -0.07941452
000120 16 c8 45 bd 19 2a 3f bd 3d 46 c8 bd 1e 21 7d bc
       -0.04828652 -0.046671007 -0.09779022 -0.01544979
000130 ba 7a 8a 3c c4 ed 20 bd d9 43 fa bc 3c e9 e5 3d
       0.016904224 -0.03928925 -0.03054993 0.112261266
000140 6f 48 87 bd 3f d8 0c 3e 9f f1 7f bd d5 10 8d bc
       -0.066056125 0.13754366 -0.062486287 -0.01721994
000150 55 45 2b 3d dc cd 88 3e b6 9a b3 bd 7f 63 a3 bd
       0.041814167 0.26719558 -0.08769743 -0.07977962
000160 28 9b 47 bd 28 05 b4 3d 9c ee 0e bd ea de 56 bd
       -0.048731953 0.08790046 -0.034895524 -0.05245868
000170 53 cd fc bc ce e7 27 3e 51 38 95 bd 5c 7a 47 3e
       -0.030859625 0.1639702 -0.07286132 0.1948027

weight f4 [96, 96]
000000 1b 15 43 bd 54 c1 42 3d f2 eb b7 3d 58 8e bc bd
       -0.04762755 0.047547653 0.0898055 -0.092068374
000010 e0 9d 0b 3c 17 90 c8 bd 46 b1 a5 bd 58 b4 67 3c
       0.008521527 -0.09793108 -0.08090453 0.014142118
000020 98 e8 c3 bc cf 28 ca bd 38 52 6f 3c c8 9c 0f 3d
       -0.02391462 -0.09871065 0.014607005 0.035061628
000030 14 ed ba 3d b8 ea 6d 3d 3b 0d cf bd 1d 2f 77 bd
       0.0912725 0.058085173 -0.101099454 -0.060347665
000040 d0 ce f5 3b f6 43 52 bd 18 ec 7d 3c 78 a5 c5 3c
       0.0075014606 -0.051334344 0.015498184 0.024126753
000050 5a fd 54 bd eb 39 57 bd 38 eb b1 3d 10 ae de bc
       -0.051999427 -0.05254547 0.086874425 -0.027182609
000060 00 38 9d 3b d4 5f 18 3d 48 50 a1 3d 18 05 23 bd
       0.0047979355 0.037200764 0.078766406 -0.03979978
000070 08 b7 cd bd 52 a6 a8 3d 40 e2 f3 ba 5c 6f 39 3d
       -0.10044676 0.08234848 -0.0018606856 0.045272216
000080 d1 ab 4f bd f2 21 b8 bd d8 12 af bd 64 cf 04 bd
       -0.050700966 -0.089908496 -0.08548516 -0.032424346
000090 38 55 72 3c 7c 11 c4 bd d0 31 23 3d f3 d4 ac bd
       0.014790826 -0.095736474 0.039842427 -0.08439054
0000a0 14 fd ab 3d f6 3a 85 3d 40 58 83 3d 20 8a c4 3b
       0.0839788 0.065053865 0.06413317 0.005997911
0000b0 83 69 ac bd 90 3c 74 3c ac 67 2b 3d 99 1d 3f bd
       -0.08418562 0.014907017 0.041846916 -0.046659086
0000c0 da 64 9a bd be c3 11 bd 1e 55 9c 3d 6e e9 9f 3d
       -0.07538767 -0.035587065 0.07633422 0.07808195
0000d0 a0 3a d1 3c 2c f8 8d 3d 72 31 a1 3d b2 b9 b4 bd
       0.02554065 0.06932101 0.07870759 -0.08824481
0000e0 52 2a af bd 24 66 05 3d 34 32 bb 3c 54 82 be 3d
       -0.08552994 0.032568112 0.022851087 0.09302202
0000f0 50 9a d7 3c 48 05 12 3d 36 0d 8f 3d 8e b0 96 bd
       0.0263187 0.035649568 0.06984942 -0.07357894
000100 d0 f9 0e 3c e6 ed 6b bd 14 c0 cd 3d 08 a0 bf bc
       0.008726552 -0.057599925 0.100464016 -0.023391739
000110 d0 f7 85 3d c4 3a 7e bd 80 0e c3 bb 1a e3 3b bd
       0.06541407 -0.062067762 -0.0059526563 -0.045870878
000120 f8 14 b5 3d 14 9d a2 3c dc aa 97 3d 00 43 31 ba
       0.0884189 0.019850291 0.07405636 -0.0006761998
000130 c7 68 d0 bd aa 70 98 3d 99 d0 2b bd 80 06 58 3b
       -0.10176235 0.07443364 -0.04194698 0.0032962859
000140 de c5 10 bd a4 3b 86 bc 91 f4 36 bd c2 6c 0a bd
       -0.03534495 -0.01638586 -0.04466683 -0.033795126
000150 58 0b 9b bd 14 7f c7 bc 50 ee a0 bd 8c df a3 bd
       -0.07570523 -0.024352588 -0.078579545 -0.080016226
000160 30 6a 07 bc b8 a5 a8 3d b4 dd ab 3c b4 2d 21 3d
       -0.008265063 0.08234733 0.02097974 0.039350227
000170 f4 6f 97 bc 50 7f e8 3c a2 b5 cc 3d 0c 92 98 bd
       -0.018486 0.02838102 0.09995581 -0.07449731
000180 a6 02 86 bd 42 81 1b bd 85 d8 66 bd d9 12 60 bd
       -0.06543474 -0.037965067 -0.056358833 -0.054705475
000190 54 66 9f bc e8 36 ba 3d 52 84 a2 3d 5e 4b 6c bc
       -0.019457974 0.09092504 0.07935394 -0.014422266
0001a0 77 0a 6f 3c 02 a8 80 3d 65 bf 1e bc be 3f a5 3c
       0.014589897 0.06282045 -0.009689187 0.020171996
0001b0 53 8b 38 bc 2f 3d aa bd e1 53 13 bb 52 6d b3 bd
       -0.011263686 -0.08312451 -0.0022480416 -0.087610856
0001c0 55 f6 8a bd e7 7b ae bd 6a 82 98 bd 90 60 93 bd
       -0.06785265 -0.08519726 -0.074467495 -0.07196152
0001d0 a1 1e bf bc cd 38 78 3b 7b bf 99 3d ba a4 06 bd
       -0.023330035 0.0037875653 0.07507225 -0.03287194
0001e0 d6 a5 3e 3c 30 b9 9e 3d d2 52 40 3d c9 cc ab bd
       0.011636218 0.077501655 0.046953984 -0.08388669
0001f0 68 16 d3 3c 78 34 c0 3c 10 dc c8 bd d6 4e 6e bd
       0.02576752 0.023462519 -0.098075986 -0.058180653
000200 fa 89 9f 3d c6 eb 09 bb 4c bb 86 3c 63 30 8b 3d
       0.07789989 -0.0021045073 0.016446732 0.067963384
000210 b9 a5 b3 3d 97 d8 c1 bd 15 a7 eb 3c d1 e9 67 bd
       0.087718435 -0.09465139 0.028766194 -0.05661947
000220 eb 16 51 bd e1 7e 97 bd 3d 81 11 bb e6 72 6f 3d
       -0.051047247 -0.07397247 -0.0022202276 0.058459185
000230 a4 ba 9b bd 91 cd 6e bc 1a b7 d1 3d e9 79 16 3b
       -0.07603958 -0.014575378 0.10240002 0.0022960848
000240 b8 fa b0 bd 18 fa 01 3d 88 ce 31 3d aa e7 d0 3d
       -0.08641571 0.03173265 0.043409854 0.102004364
000250 c7 4a 87 bd 90 11 03 bc 8a 29 9f bd 03 39 91 3c
       -0.066060595 -0.007999793 -0.07771595 0.01772738
000260 68 27 8a bd a4 67 33 bd d6 7a 02 bd 44 09 ba bd
       -0.067457974 -0.04380001 -0.031855427 -0.090837985
000270 67 91 34 3c ee 09 99 3d d5 10 3a bd 81 7e 77 bd
       0.011020995 0.07472597 -0.04542621 -0.060423378
000280 6d 35 ca 3d fa 17 be bc 72 eb 6c 3d f0 91 5a 3c
       0.098734714 -0.023204792 0.057841726 0.013340458
000290 74 7f 02 3d df f7 7e bd 3a e1 e0 3d 9a 55 9c 3d
       0.03185983 -0.062248107 0.109804586 0.07633515
0002a0 8c 48 9a 3d fb 0b 00 3c 57 96 7a 3d b9 a2 13 3d
       0.075333685 0.007815356 0.06117853 0.036043856
0002b0 42 a8 54 bd f0 54 ae bc c2 19 cd 3d fe 83 4a bb
       -0.051918276 -0.021280736 0.100146785 -0.0030901427
0002c0 20 9f 42 3c 88 50 6f bc 48 ac 43 3c 52 4a 98 3d
       0.011878759 -0.0146066025 0.0119429305 0.074360505
0002d0 5f c2 82 bd d6 d6 ae 3d 1a 68 49 3a 18 a8 b1 bd
       -0.063847296 0.085370705 0.0007683054 -0.086746395
0002e0 2e f0 44 3d 5a 04 48 3d 48 2c ed bc 5b fb 1c bd
       0.048080616 0.048832275 -0.028951779 -0.03832565
0002f0 af d8 cb bd eb c7 9f 3d a8 47 b9 3d c4 f8 d8 3c
       -0.099534385 0.07801803 0.090468705 0.026485808
000300 93 81 a7 bd e5 88 74 3d 6b 0d b4 bd 94 d6 bf bd
       -0.08179011 0.059700865 -0.08791622 -0.093670994
000310 cc f4 9d bd 53 c2 3e bd ee 4d ab 3d 38 0b b2 bd
       -0.07712707 -0.04657204 0.08364473 -0.08693546
000320 58 08 e6 3c 58 8e 84 bc d6 43 ff bc af a6 5c bd
       0.02808015 -0.016181156 -0.031160276 -0.0538699
000330 38 d8 56 bd 3a 3f a8 3d f1 21 26 bb 36 b7 77 bd
       -0.052452296 0.082151845 -0.002534982 -0.060477458
000340 d6 f1 89 bd b5 a2 82 bd 20 e6 03 bc ec 94 16 bd
       -0.0673558 -0.0637869 -0.008050472 -0.036763117
000350 4d 8f de 3d eb 6c 4b 3a 34 9d 81 bd 49 b6 b3 3d
       0.10867176 0.00077600655 -0.06328812 0.087750025
000360 73 e1 33 bd 19 23 8c bd f7 17 7f 3d bb 74 b0 3d
       -0.043916177 -0.06842632 0.062278714 0.086160146
000370 00 a9 93 b9 e8 6e 30 3c 4b 79 07 bd 52 8c d0 3d
       -0.0002816394 0.01076863 -0.03307466 0.10183014
000380 b5 da 5a bc f0 10 a3 bd 9c 33 bc 3d 85 a0 44 3d
       -0.013357808 -0.07962215 0.09189531 0.048004646
000390 fc 95 cc bd 3c 4c a1 bd 57 52 35 bd 7a 04 f7 bc
       -0.09989545 -0.07875869 -0.04426798 -0.030153502
0003a0 fe 72 78 bd 22 89 56 3d db 8c ad 3d c2 2f 82 bd
       -0.06065654 0.052376874 0.08474132 -0.06356765
0003b0 c2 63 4a bd 19 75 ba 3d c5 2a c3 bb fd a8 82 bd
       -0.049411543 0.09104366 -0.0059560263 -0.06379888
0003c0 39 cd bf bb a4 89 96 3d 71 c3 76 bd 69 f3 ba 3d
       -0.005853322 0.073504716 -0.06024498 0.09128458
0003d0 6b a4 22 bc d1 33 c9 bd 58 3d 65 3c 13 3e d5 bc
       -0.009926896 -0.09824336 0.013991676 -0.026030576
0003e0 cf 2c 0a 3d d0 ac 20 3d 64 98 7c 3d b4 55 0f 3d
       0.03373414 0.039227307 0.06166877 0.034993842
0003f0 79 41 3c bc 86 cb 8b bd 7e 23 84 3d 16 d1 cd bd
       -0.011490219 -0.068259284 0.06452082 -0.100496456

bias f4 [96]
000000 63 d3 d0 bd fb 70 3c 3e cc b5 34 3e e0 6c 62 bb
       -0.10196569 0.18402474 0.17647475 -0.0034549758
000010 cf dd b6 bd bd 6a 1e 3d bc 3e a2 bd 10 30 10 3d
       -0.089290254 0.038676012 -0.07922122 0.035202086
000020 3f e1 e1 3d 41 60 27 bd 59 95 a6 bb 8d 7b 31 bd
       0.110292904 -0.04086328 -0.0050837216 -0.043330718
000030 0f d3 2c 3e f3 84 04 bd 5b c4 a9 bd 53 21 69 3e
       0.16877387 -0.032353353 -0.08289405 0.22766618
000040 4a 2b bc bd af 7c f6 3c a0 74 9d bd fe fe 7f bd
       -0.09187944 0.03008875 -0.0768826 -0.06249904
000050 77 bd eb 3c 0e 95 ab bd 05 3d 82 bd 54 de ca 3d
       0.028776867 -0.08378039 -0.06359295 0.09905687
000060 0d c7 39 bd dc b0 bb 3c 2b bb 42 bd e0 b1 1d bd
       -0.045355845 0.022911482 -0.04754178 -0.038499713
000070 9e a6 88 3e 87 05 bb 3d 58 68 41 bd 84 12 94 3d
       0.2668962 0.09131914 -0.04721865 0.07230094
000080 f9 39 ab bd 2f 6a 9d bd b0 79 a0 bd bb 4a be bb
       -0.08360667 -0.076862685 -0.0783571 -0.0058072484
000090 90 f8 39 3d 8e 2b 33 bd 66 78 3a bc f5 10 ac 3c
       0.045403063 -0.04374271 -0.011381244 0.02100418
0000a0 3b b5 66 3c 04 39 a9 bc 73 14 bd 3d ae 75 3b 3e
       0.014081295 -0.02065707 0.09232416 0.1830661
0000b0 86 07 d1 3d 6c 25 83 3e eb 19 da 3d cd 4a 04 bc
       0.10206513 0.25614488 0.10649475 -0.0080744745
0000c0 6b 19 16 3d 56 b6 c5 bd d8 6d 43 3d f4 ae 5d bd
       0.036645334 -0.096539184 0.047712177 -0.054121926
0000d0 40 73 0e bc d9 8f 96 3e 0b a8 34 3e 50 bb 60 bc
       -0.00869447 0.29406622 0.17642228 -0.013716534
0000e0 11 fc 0f 3e 38 e7 07 bd 74 fe 80 bd ec 53 b3 bd
       0.14061 -0.03317949 -0.06298533 -0.08756241
0000f0 92 e9 06 bc b5 92 1b bc 14 74 fe 3d bc c9 13 3e
       -0.008234398 -0.009495427 0.12424484 0.14432424
000100 5e c2 a7 3e 7a 98 dd bc a8 b9 14 bd b0 31 a5 3c
       0.32765478 -0.027050246 -0.036309868 0.020165294
000110 94 6a 83 3e e4 4e be bd 6a 3e 8a 3e 58 36 6a 3e
       0.2566725 -0.09292391 0.27000743 0.22872293
000120 eb 7b cd bd 61 9c 6f 3c 76 73 25 3d 63 04 35 3d
       -0.10033401 0.014624686 0.040393315 0.044193637
000130 51 b4 d0 bd e2 23 d8 3c aa 9a 3e 3e 40 bf e0 3c
       -0.101906426 0.026384298 0.18613687 0.027434945
000140 8e 30 9a 3e 0e d2 1d bd b0 4b 22 bc 18 6a c2 bd
       0.3011517 -0.038530402 -0.009905741 -0.09492892
000150 7b d9 ba 3c 81 48 a1 bd 2f 6d 7f bd 3b 34 7d 3e
       0.02280878 -0.07875157 -0.062359985 0.24726956
000160 1b 22 c6 bd 68 f8 88 3d b8 9c c0 3c 5b 73 46 3d
       -0.09674474 0.06688005 0.02351223 0.048449855
000170 b0 61 8b 3e c3 23 4c bd c5 d0 ad 3b 46 e9 00 3e
       0.27222967 -0.049838793 0.0053044283 0.12588987

weight f4 [1, 96]
000000 34 f5 95 3d 22 70 5b be c6 1d 2e be bc 4f 9f 3d
       0.073221594 -0.21429494 -0.17003545 0.0777888
000010 2e 9f a7 3d 9e 4f 09 3d a8 7b 13 3d 51 68 b2 3d
       0.08184658 0.033523194 0.0360066 0.08711303
000020 6f 80 a7 bd 9d 99 cc 3c 8e 7a b9 bc 09 31 a6 3c
       -0.08178794 0.024975592 -0.022641446 0.020287054
000030 4a 94 19 be 67 03 3c 3d 13 d5 c6 bd 22 c0 7a be
       -0.14997974 0.045901682 -0.097086094 -0.24487355
000040 88 97 5f bc b9 d5 29 3d df bb 89 bd 71 c6 11 3d
       -0.013646968 0.041463587 -0.06725287 0.03558964
000050 9c 4a 02 3d 37 8e 0b 3d d8 4e 99 3d e5 f6 49 bd
       0.031809434 0.034071174 0.074857414 -0.049307723
000060 51 e1 5f bd 94 0b 90 3d 0d 5a be 3d b9 94 2c bd
       -0.054658238 0.07033458 0.092945196 -0.04213402
000070 f2 84 a8 be e7 90 1f be e1 0f 3c bd ec db 94 bc
       -0.3291393 -0.1558262 -0.04591358 -0.018171273
000080 fc 79 8c bc c6 10 84 bd ef b7 c0 bd 09 88 8e 3d
       -0.01714801 -0.06448512 -0.094100825 0.069595404
000090 c3 cc 07 bd 3c 4d 99 3d 69 01 b6 3d 6e e4 f8 bd
       -0.03315426 0.074854344 0.08886988 -0.121529445
0000a0 ba 19 b3 bc 0a 3f 1b bd be 3a 29 be b2 d8 10 be
       -0.021862853 -0.037901916 -0.16526315 -0.14145163
0000b0 66 cd c1 bd 25 3e 82 be 55 b1 e0 bd cf 09 93 bd
       -0.09463005 -0.25438038 -0.109713234 -0.07179605
0000c0 43 bd ae 3d 1b 22 bc bd 29 5e a7 3b 38 4e cb 3c
       0.085321926 -0.091861926 0.0051076603 0.024817571
0000d0 00 70 e0 b7 ce e5 a1 be d3 c0 36 be f6 f1 8c 3d
       -2.6755035e-05 -0.3162064 -0.17846994 0.06882088
0000e0 e2 3f 7b be bf 01 33 3d 81 0f 99 3c 60 df a2 bd
       -0.24536088 0.043702837 0.01868415 -0.07952762
0000f0 86 ad c6 3d f2 f7 83 3d 41 7a 4f be 7d 65 03 be
       0.09701066 0.06443776 -0.2026148 -0.12831683
000100 3f 0c c6 be ee e7 ac 3d d0 1c 13 3c 4e d3 0d 3d
       -0.38681218 0.084426746 0.008979037 0.034625344
000110 4d 2b a4 be 48 55 1f 3c 5a 4d 97 be 35 c1 51 be
       -0.32064286 0.0097249225 -0.29551202 -0.20483859
000120 74 d2 0c 3d 24 f7 20 3d c3 18 b9 3d 5f b0 61 3c
       0.03438039 0.03929819 0.09037926 0.01377496
000130 30 0e 94 3d c2 84 32 3d 54 3a 36 be 50 c4 a5 3d
       0.072292686 0.04358364 -0.17795688 0.08094084
000140 49 45 a5 be 97 66 22 bd 30 be 56 3d 88 c4 db 3c
       -0.32279423 -0.03964862 0.05242747 0.026827112
000150 b0 bb 0b 3d 14 be cb bd 1c 56 29 3d 30 a4 80 be
       0.03411454 -0.09948364 0.041341886 -0.25125265
000160 5b 64 67 3c 8a 5f 30 bc a4 88 95 3d 89 68 83 bd
       0.014123048 -0.010764966 0.07301453 -0.06416423
000170 14 62 9b be 60 d6 94 3c 7b 84 a1 3d 19 3d 20 be
       -0.30348265 0.018168628 0.07886597 -0.15648307

weight f4 [96, 288]
000000 f1 44 56 3d 7b c4 1d bd 80 e3 a0 bc 3f 87 06 bd
       0.05231184 -0.038517457 -0.01963973 -0.032843824
000010 f7 ba 28 bc 35 b9 4c 3d d8 e5 93 bb c2 69 94 bc
       -0.010298482 0.049981315 -0.0045134835 -0.018116836
000020 16 a0 cf 3c f2 10 ab 3c 74 fe 31 3c 54 5f 29 3c
       0.02534489 0.020882104 0.010863889 0.010337669
000030 e1 ff 60 bd 88 73 93 bb a5 e8 5a 3d 03 ef 00 3d
       -0.054931525 -0.0044998564 0.053444523 0.03147794
000040 9d 65 51 3d d9 27 13 3d 00 92 ef 3a 1c 71 3c 3c
       0.051122297 0.035926674 0.0018277764 0.011501577
000050 72 c8 0b bd 80 23 06 3a eb 98 4b 3d 92 26 6a bd
       -0.034126706 0.0005116984 0.04970638 -0.05716569
000060 73 24 29 bd 22 1e 99 3c 74 9c cb bc ca b8 b5 3c
       -0.041294526 0.018691126 -0.024854876 0.02218284
000070 ac 6c 4f bd e6 52 d3 bc 10 8d 26 bc 1e bc 94 3c
       -0.050640747 -0.025796365 -0.010165468 0.018156108
000080 89 3a 42 bd a6 34 93 3c cf b0 59 3d bd 4b 6b bd
       -0.047419105 0.01796944 0.053147133 -0.057445277
000090 3e c9 be 3c 3c 86 7b bc c4 da 14 3c e1 b1 61 bd
       0.02328932 -0.015351828 0.009085361 -0.05510128
0000a0 d9 f9 46 3d 9e 82 8f bc 84 80 ba bc c3 c5 58 bd
       0.048578117 -0.017518338 -0.02276636 -0.052922975
0000b0 a7 01 05 bd 00 eb 0a 39 28 97 e6 bb e5 67 5c bd
       -0.03247228 0.0001324825 -0.007037062 -0.05381002
0000c0 58 6f 7b bc 22 8e 53 bd 13 02 50 3d f0 fe 33 3b
       -0.015346371 -0.05164922 0.050783228 0.0027465187
0000d0 53 0d 0b bd 37 7c 33 3d 15 a4 5a bd 0e 2b b8 3c
       -0.033948254 0.043819632 -0.053379137 0.022481468
0000e0 9c 61 5a 3c 61 c9 ed bc df 9b 1f 3d 22 d4 e0 3c
       0.013328936 -0.029026689 0.03896701 0.027444903
0000f0 ab 3d 52 3d c2 23 90 3c 6b c3 26 bd da 38 ed 3c
       0.051328342 0.017595176 -0.04071371 0.028957773
000100 2a 13 8a bc f1 7d 32 bd 60 8b f8 3a 7b 2b 38 3d
       -0.016854841 -0.04357714 0.0018962435 0.04496334
000110 dd ae 59 bd 72 f3 ac bc 40 5a b2 3c 0f 40 5a 3d
       -0.05314528 -0.021112178 0.02177155 0.053283747
000120 e6 0f d2 bc f8 be 3f bd f4 4c 0a bc 4b b7 6d 3d
       -0.025642347 -0.04681298 -0.008441199 0.05803613
000130 be 36 24 bd 0d a9 62 bd dc 52 86 3d 89 16 cc bb
       -0.04009127 -0.055337 0.06558773 -0.0062282723
000140 73 31 4b 3d f9 73 2e bd ae d7 0c bd 56 0b 19 3d
       0.049607705 -0.04259107 -0.034385376 0.037364326
000150 e1 b2 24 3d 7b 1f 6e 3d ce 4b c7 3c 39 72 65 3d
       0.040209655 0.05813549 0.024328139 0.056017134
000160 51 ac 44 bd 40 ed 13 bb 09 19 1a 3d 1a a9 0f bd
       -0.048015896 -0.0022571832 0.03762153 -0.035073377
000170 ec d3 f9 bc 5e ac f2 3c b0 7e cf bc 72 57 bb bc
       -0.03049656 0.029623207 -0.025328964 -0.022868846
000180 37 a5 37 3d 1e 2f 8e bc 87 9b 35 bd 03 d3 12 3d
       0.044835296 -0.017356452 -0.044337776 0.035845768
000190 72 7c 9c bc c4 99 23 3c 48 77 9d bb 15 2c 0d 3d
       -0.019102309 0.009985391 -0.004805479 0.034465868
0001a0 52 b8 ed bc 76 92 63 bd 45 d2 6d bd 9b 84 43 bd
       -0.029018555 -0.055559598 -0.058061857 -0.047733884
0001b0 6a 53 a2 bc fa 9d fd 3c 4e 05 9d 3b b7 d9 66 3d
       -0.019815166 0.030959118 0.004791892 0.056359973
0001c0 0d 18 11 3d 02 31 85 3c 50 32 9e bb 2d 93 2d 3d
       0.035423327 0.01625872 -0.004827775 0.042376686
0001d0 52 92 a3 3c 64 14 d7 bc 88 52 60 bc 2d 70 4a 3d
       0.019967232 -0.02625484 -0.013691552 0.049423385
0001e0 32 70 60 bd f6 a6 4c bd 86 54 4f bd 94 8e 66 bd
       -0.054794498 -0.049963914 -0.050617717 -0.056288317
0001f0 db 25 0c 3d dc 38 ce bc ac f2 f7 bc cd c0 49 3d
       0.03421579 -0.025173597 -0.030267082 0.049256135
000200 ed 18 49 3d fe a5 a2 3c 10 a6 8e bb f8 6c 8c 3b
       0.049096037 0.019854542 -0.0043532923 0.004285451
000210 10 0e 26 3b f2 84 dd 3c 05 78 41 bd 42 0b b6 3c
       0.0025337972 0.027040932 -0.0472336 0.022222165
000220 c8 55 48 bc ee 0a fc 3c 62 c8 b0 bc 57 a3 0f 3d
       -0.012227483 0.03076693 -0.021579925 0.035067882
000230 90 70 56 3b 0f 67 4c bd 82 23 21 bd 9b ff 01 bd
       0.00327209 -0.04990297 -0.039340504 -0.031737905
000240 d7 e5 7a 3c 34 9c 88 bc a7 30 30 3c d0 c0 09 bc
       0.015313587 -0.016676046 0.010753787 -0.0084077865
000250 ca 5b 53 3d c8 c9 bf bc 88 c1 28 3b 69 25 3c bd
       0.05160121 -0.023411646 0.002575012 -0.045934115
000260 3e 2b a8 3c 86 9c 2a bd 06 8a 6c bd 91 d6 42 bd
       0.020528432 -0.04165318 -0.057748817 -0.047567908
000270 a7 04 f7 bc cb 48 06 3c b6 b3 ef bc 51 ad 61 3d
       -0.030153586 0.008196066 -0.029260498 0.055096928
000280 cd 81 66 bd 5d 96 fe 3c 06 f8 6b bd 24 c4 2f 3d
       -0.05627613 0.031077558 -0.05760958 0.042911664
000290 bf b2 f5 3c aa f4 b1 bc 95 a9 55 3b bc b6 8e 3c
       0.02999246 -0.02172311 0.00326023 0.017421119
0002a0 e2 59 62 bd a0 1c 82 3c f4 6d d3 3c 5f 04 4a 3d
       -0.0552615 0.01588279 0.025809266 0.049320575
0002b0 98 6e 12 3d d8 f0 c5 3c 00 da 8d 3c ea 9b fe 3c
       0.03575 0.024162695 0.017315865 0.031080205
0002c0 98 25 ef bc 37 d2 19 bb 11 89 6a 3c b5 77 02 bd
       -0.02919273 -0.0023471245 0.014314906 -0.031852443
0002d0 9c 7c 43 bd 8f 0a a3 3c 72 a8 7a 3c 53 0e 5f bd
       -0.04772626 0.019902496 0.01529895 -0.05445702
0002e0 b5 fd 3f 3b 95 ed 63 3d 40 45 db 3c 66 cf 95 3c
       0.0029295508 0.055646498 0.02676642 0.018287372
0002f0 aa c8 4a 3d 88 da c1 bc db f8 f4 bc 77 1d 2a bc
       0.049507774 -0.023663774 -0.02990382 -0.0103830015
000300 94 a4 b2 bb ca e5 5f 3d 9d fb 52 bd e3 8b 0b bd
       -0.005451748 0.054662503 -0.05150949 -0.034068953
000310 b1 d9 35 bb 5c d7 0b 3b 44 af 1b 3d ce 3c 2f 3d
       -0.0027748162 0.002133808 0.038008943 0.042782597
000320 75 9b 48 3d 0d 13 17 3d d3 e5 19 bd a0 8c 36 bd
       0.04897638 0.036883403 -0.037572693 -0.044567704
000330 16 e5 4c bd 3c 67 83 3c ef b6 92 3c e6 c4 98 3c
       -0.05002316 0.016040437 0.017909495 0.018648576
000340 67 f7 a2 b9 be 64 e9 3c ee 56 5f 3d 37 d6 31 bd
       -0.00031083377 0.02849042 0.054526262 -0.04341718
000350 49 86 0e 3c 01 54 35 3d b5 5e 31 3c c1 02 96 3b
       0.008699008 0.044269565 0.010825803 0.004577965
000360 47 e4 3a bd a3 a6 4a bd 78 d9 4a 3b 24 0b d6 bc
       -0.04562786 -0.049475323 0.0030952375 -0.02612836
000370 68 6c be 3c 4e 0a 3c bd ca c1 b9 bb da 71 13 3d
       0.023245052 -0.045908265 -0.0056688534 0.03599725
000380 b7 94 57 3c f1 b2 25 bd 5e d0 2f 3d b5 b8 9c bc
       0.013158015 -0.040453855 0.042923324 -0.019131044
000390 88 d8 8e bb 35 09 21 3d bf 6e 3e bc 5a 71 c9 bb
       -0.0043593086 0.03931542 -0.011623084 -0.0061475458
0003a0 9f 83 df 3c 45 c1 65 3d 55 25 c5 3b 72 3f f0 bc
       0.027284442 0.05609252 0.006016413 -0.029327128
0003b0 0b ee dd bb 64 d2 05 bd 12 7c 11 bd be d4 1a bd
       -0.0067727617 -0.032671347 -0.035518713 -0.037800543
0003c0 7e 42 e2 bc 11 c7 3e 3d a2 c2 de 3c 84 b6 78 bc
       -0.027619597 0.046576563 0.027192418 -0.015180234
0003d0 03 a5 0f 3d 9b e5 37 3d 0b d7 23 3d ee d4 19 bd
       0.035069477 0.044896703 0.040000003 -0.03755658
0003e0 bf 12 20 bd 16 27 f7 3c 5b 76 37 3d f7 39 1f 3d
       -0.039080378 0.030170005 0.044790607 0.03887364
0003f0 e6 75 fe 3c b8 e0 eb 3b 30 e8 d2 bb 6d 24 32 bd
       0.031062078 0.0071984194 -0.0064363703 -0.04349177

bias f4 [96]
000000 7a 6e e2 3d 4f b8 80 3d 3b a3 0d 3d b1 96 6d 3c
       0.11056228 0.06285154 0.034579497 0.01450126
000010 60 f3 38 3d 4e 64 ce 3b d6 48 e2 bc 4a 01 a6 3d
       0.045153975 0.0062985783 -0.027622622 0.081057146
000020 7b 8c 1f 3d 8e a1 2a bd 1f 69 b2 3c 16 30 8c 3c
       0.038952332 -0.041657977 0.021778641 0.017112773
000030 ac c0 d9 bc 28 2f 56 bd fe 2f 30 bd 04 5b a5 bc
       -0.02658113 -0.052291065 -0.04301452 -0.020185001
000040 6d c9 51 3d 5a 0f 38 bd 11 88 8a bc d5 32 20 bd
       0.051217485 -0.044936515 -0.016910585 -0.039110977
000050 eb 7c 0a 3c 55 6f 16 bd c3 2a 36 bd ba cf 2a 3d
       0.008452634 -0.03672727 -0.044474375 0.04170201
000060 9b ec 95 3d aa 98 03 bd 16 af 40 3c 95 e4 fe 3c
       0.073205195 -0.032128014 0.011760494 0.031114856
000070 50 c8 67 bd 5b 5c 04 3d e6 53 26 bb 59 6d 37 bd
       -0.056587517 0.03231464 -0.0025379597 -0.044782016
000080 36 50 6b 3d 74 a1 2e 3d 31 d1 3b bc 0b b4 4a bd
       0.057449542 0.042634442 -0.011463449 -0.04948811
000090 a7 66 f8 3c cb 04 f7 bb 8b f8 47 bb 68 ba 82 3b
       0.030322386 -0.007538413 -0.0030513133 0.0039895065
0000a0 49 11 ce 3c 49 37 d5 bb 3a 30 85 bb 8a a2 45 3c
       0.025154727 -0.0065068346 -0.004064587 0.012062678
0000b0 70 82 c3 bc 1e 73 af 3c a8 3e 3f bd 27 03 af 3c
       -0.023865908 0.021417197 -0.046690613 0.021363808
0000c0 6e 2f 64 3d be c4 9a bb 5f 57 1e 3c 9f c8 7c bc
       0.055709295 -0.0047231605 0.009664386 -0.015428691
0000d0 d4 fe be bc f8 03 53 bd 52 5d 09 bd ea 35 34 bc
       -0.02331487 -0.051517457 -0.033536263 -0.010999182
0000e0 b7 f9 15 bc 54 0e 25 3c a4 45 a2 bc 3d d6 3a bd
       -0.009153775 0.010074217 -0.019808598 -0.04561447
0000f0 1c 2f 16 bc 59 9a 30 3d c9 b8 4e bd de 3f 21 bd
       -0.009166505 0.043115947 -0.050469194 -0.03936755
000100 44 9d fa bc 3f 18 00 ba e3 90 2f bd 9d cb 32 bd
       -0.030592568 -0.00048864254 -0.042862784 -0.043651212
000110 d3 12 c9 3c 3c a6 6e bd 39 a8 3f bd 02 d6 a3 3d
       0.024545109 -0.058264002 -0.04679129 0.07999803
000120 6d 98 49 bd 0a a6 05 3d 0d aa f5 3c 94 c2 3a bd
       -0.04921763 0.03262905 0.029988313 -0.04559572
000130 19 77 3b bd 1c 19 9e 3c ec e9 6d 3d 12 d5 19 3c
       -0.045767877 0.019299082 0.058084413 0.009389179
000140 e8 a9 90 3d d8 f5 70 bd c5 a1 56 3c 11 ab 1d bd
       0.07063657 -0.058828205 0.013100092 -0.03849322
000150 d3 4c 01 3d 46 ab de 3c 22 da 59 3c 94 b1 5b bd
       0.031567406 0.027181279 0.013296636 -0.05363615
000160 87 3e 1e 3c 58 ba dd 3b 85 ae cf 3d fa 8d 79 bb
       0.009658462 0.0067665987 0.10140709 -0.003807901
000170 f1 d1 19 bd 6b 3b b9 3b 67 d7 b3 3d f8 a3 8c bc
       -0.03755373 0.005652835 0.08781319 -0.01716803

weight f4 [96, 96]
000000 67 ef 66 3d 7a 93 a2 3b 69 5b 89 3d 4b e3 65 bd
       0.056380656 0.004961428 0.06706888 -0.056124967
000010 94 79 be bc 89 1d 96 bd 53 b4 9a bd 04 6a 65 bc
       -0.023251332 -0.07329852 -0.07553925 -0.014002327
000020 a5 73 b0 3d eb 52 a1 bd 4f 7f f1 bc b2 11 dd 3a
       0.086158074 -0.078771435 -0.02947965 0.0016866236
000030 a1 56 ed bc 96 a6 ad 3d ca 5c 5e 3c 2c 15 30 3d
       -0.028971972 0.08479039 0.013571927 0.04298894
000040 3f bb 0f 3d 12 77 8e bd 28 5c 71 3d e2 ec 82 bd
       0.03509068 -0.069563046 0.058925778 -0.06392838
000050 10 72 a0 bd 92 34 f2 3a bc dc f6 3c c6 b0 14 bd
       -0.07834256 0.0018478802 0.030134551 -0.036301397
000060 22 f5 e6 3c c2 54 68 bd 14 a7 aa bd ec 5f 66 3d
       0.02819306 -0.056721456 -0.08332649 0.056243822
000070 26 53 9f bd 04 b5 bd 3c cc 8d aa bd df 43 03 bd
       -0.07779531 0.023157604 -0.08327827 -0.03204715
000080 86 17 cc bc ad 96 b3 3d d2 59 40 bd 4f 56 a8 bd
       -0.02491356 0.087689735 -0.04696066 -0.08219587
000090 db 6e 41 3d df 2a df bc bd 33 51 bc 49 4d 5f 3d
       0.04722486 -0.027242122 -0.012768683 0.054517064
0000a0 7b ea df bb 76 4b bb bd 25 8f 29 3d 08 dd 8c bd
       -0.006833372 -0.091452524 0.04139628 -0.06878096
0000b0 84 0d 87 bd 2f 23 a3 bd 6a 1b 34 3d a1 ed 8f 3d
       -0.06594375 -0.07965695 0.043971457 0.07027746
0000c0 90 53 c0 3d 37 58 82 bd 5e d1 bc b9 c2 bd 9a bc
       0.09390938 -0.06364482 -0.00036014145 -0.018889312
0000d0 7d ea 9e 3d b8 66 bc bb ad a1 43 bd 97 c3 bd 3d
       0.07759569 -0.0057495497 -0.047761608 0.092658214
0000e0 ba f4 d0 3d 7c 0b f6 bc 04 de c6 3d dc 21 2d 3d
       0.10202928 -0.030034773 0.09710315 0.04226862
0000f0 19 a1 43 3d 94 a7 ca bb 73 3a 8e 3c 2b 38 85 3d
       0.047761057 -0.0061845277 0.017361855 0.06504854
000100 8c eb 62 3d 58 19 76 3d 7b f6 ee 3c dc 08 c8 bd
       0.055400416 0.060082763 0.029170265 -0.09767315
000110 c5 8e a8 3d ab 3e 1a bd cd e3 b5 3c 2e 6c e6 bc
       0.08230356 -0.03765742 0.02220335 -0.028127756
000120 c2 f4 46 3c 12 59 e5 3c a0 d0 be bb e0 8c 8b 3d
       0.012143316 0.027996574 -0.00582321 0.06813979
000130 ab 93 93 bd c7 28 69 3d 06 fb 33 3d 04 73 6b bd
       -0.072059 0.056923654 0.043940566 -0.057482734
000140 87 be 72 bb 57 cc 80 3d d6 47 b7 bd e7 cc ed bb
       -0.0037039833 0.06288975 -0.089492485 -0.0072570923
000150 f8 4a 93 3d df 3c 4f 3d c4 ac ac 3c 7c 24 81 3d
       0.071920335 0.05059516 0.021078475 0.06305787
000160 33 10 90 3d 54 cf 17 3d d5 a8 ab bd e1 7d f6 bc
       0.0703434 0.037062958 -0.083818115 -0.03008932
000170 86 56 9b bd bb 9f b1 3d 6d 0f 25 3d 10 8e c2 3d
       -0.075848624 0.08673044 0.040297914 0.094997525
000180 e2 a4 56 bd 90 80 48 bd a0 da cc bd a9 69 47 3d
       -0.05240334 -0.04895073 -0.10002637 0.04868475
000190 9e be 27 bd be f3 51 bc 88 43 85 3d 11 ea 45 3c
       -0.04095327 -0.01281446 0.06507021 0.012079732
0001a0 c8 90 06 3d 06 78 10 3d f2 ed e1 3c 89 15 c8 3c
       0.032852918 0.035270713 0.027579281 0.024424331
0001b0 78 9e 99 3d 9f 00 b6 bd 56 70 67 bd 58 49 c9 bd
       0.07500929 -0.08886837 -0.056503616 -0.09828442
0001c0 35 f6 9b bd 42 db 46 3d 79 c1 3b bd 7f 9e b0 3c
       -0.0761532 0.048548944 -0.045838807 0.021559952
0001d0 16 80 91 3c 6e 4a 92 bd ac f6 86 bc 0d d9 ee 3c
       0.017761271 -0.071431026 -0.016475044 0.029156232
0001e0 58 11 b4 3d 48 01 29 3c b8 d6 44 3d 8b 0f 20 bc
       0.087923706 0.010315247 0.048056334 -0.009769331
0001f0 88 76 3c 3d 20 b1 bc 3d c4 0b 88 3d e0 4a c4 bd
       0.046011478 0.092134714 0.06642869 -0.09584594
000200 be 3a 18 3d ad bc 99 bd 48 95 3a 3d 5f 4e 46 3c
       0.037165396 -0.0750669 0.045552522 0.012103646
000210 ef 8f ca bc 87 1e 21 3d 99 af bf 3c e9 32 cd 3d
       -0.024726836 0.039335754 0.023399161 0.10019476
000220 a3 f8 a6 bd 05 e6 9f bd 41 25 4f 3c fd 5b 87 3d
       -0.081528924 -0.078075446 0.012643159 0.06609342
000230 d2 f3 6c bd d0 e5 4d bd 36 27 18 bd a3 e2 2a bb
       -0.057849713 -0.050267994 -0.03714677 -0.0026075027
000240 6b 46 e9 3c c1 39 c6 bd 51 5c ab bd 9e 71 49 bd
       0.02847596 -0.096789844 -0.08367217 -0.04918062
000250 85 a9 a4 bb b1 a4 cf 3d f7 35 21 3c 94 ef 08 bd
       -0.005025091 0.10138834 0.009839526 -0.033431605
000260 8e f0 ad bd 40 89 bf 3d d0 11 ed bb 7a a1 d8 3a
       -0.08493148 0.0935235 -0.0072347894 0.0016527616
000270 00 c1 bd 3d d7 38 39 bd 84 5f 60 3d 2c a6 71 3d
       0.092653275 -0.045220222 0.05477859 0.058996364
000280 78 eb a8 3c 36 c9 af bd 50 4b 9e bc b0 c9 34 3d
       0.020620093 -0.085833 -0.019323021 0.044137657
000290 b4 29 09 bd a6 0c 98 3d 02 eb cf 3b a6 a8 97 bd
       -0.033487037 0.074242875 0.006345154 -0.07405214
0002a0 80 5a 33 3d a4 29 32 3d 11 03 64 3d 86 a0 4a bd
       0.04378748 0.043496743 0.055666987 -0.049469493
0002b0 e0 76 b4 3d d6 7d 21 bd 25 d8 0d 3d 68 97 b1 bd
       0.08811736 -0.039426647 0.03462996 -0.086714566
0002c0 b0 a3 f7 3c 5a de 5e bb 1e 97 1f bd a8 8d 41 3c
       0.03022942 -0.0034007044 -0.038962476 0.011813559
0002d0 00 99 46 3b a6 1d 11 3d cc 0d 8d bc b0 86 66 3d
       0.0030303597 0.035428666 -0.017218493 0.05628079
0002e0 70 57 a9 bd 1a 51 a1 bd 68 83 ab bb 80 ed 6e bc
       -0.082686305 -0.07876797 -0.0052341707 -0.014582992
0002f0 1c ea 68 3d 46 98 ad bd 1f ca 23 bb 5c d5 cf bd
       0.05686389 -0.084763095 -0.00249923 -0.10148117
000300 87 ca d9 bc eb 1b b4 bd 9c e3 9f bd ff f5 2c bd
       -0.02658583 -0.087943874 -0.07807085 -0.042226788
000310 38 fb 74 bc e9 04 8d bd 1a 2e 89 bd dd a8 53 3d
       -0.014952473 -0.06885702 -0.06698246 0.051674712
000320 2d 40 82 bd 41 f4 99 bd 75 32 5d bd fc 4c b0 3d
       -0.06359897 -0.07517291 -0.054003198 0.086084336
000330 84 ff ab 3d 0d 05 c4 bd c2 f6 65 3d 4e 0a 98 bd
       0.08398345 -0.09571276 0.05614353 -0.074238405
000340 52 25 49 3d 83 8e 69 3d 1c 63 7e bd 98 e0 b5 bd
       0.049107857 0.057020675 -0.062106237 -0.088807285
000350 eb 72 6c bd d6 e2 a5 3c 60 13 0b 3c 41 f3 15 3d
       -0.05772678 0.020249765 0.008488506 0.036608938
000360 cb 24 ed bc 85 7a 9a 3d f6 df 8e bd 74 2f fa 3c
       -0.028948208 0.075429 -0.06976311 0.030540206
000370 de 76 3b bc a3 17 79 3d 0d 5d 05 bd 11 bc 55 3d
       -0.011441914 0.060813557 -0.032559443 0.052181307
000380 7c d6 bd 3d 56 95 24 3c bd 75 8a bd 16 6e 06 bd
       0.09269425 0.01004537 -0.06760738 -0.03281983
000390 e1 e9 25 bb 46 34 b8 bd 61 3e 96 3c 86 c4 96 3d
       -0.0025316405 -0.08994345 0.018340291 0.073617026
0003a0 60 35 c1 3c fd e8 3e bd 1b d5 8a 3d 73 09 b4 3d
       0.023585021 -0.046608914 0.06778928 0.08790865
0003b0 d8 7b b2 bd 06 cb 15 bd 7f 3d bc 3d 05 79 94 3d
       -0.087150276 -0.03657057 0.09191417 0.07249645
0003c0 6d ea 23 3b 11 8c 44 bd de a7 47 bc 14 a0 4d 3d
       0.0025011555 -0.04798514 -0.012186019 0.05020149
0003d0 90 de b1 bc a2 11 8b bd 76 76 ae bc de 95 54 bb
       -0.021712571 -0.067904726 -0.021296721 -0.003243796
0003e0 dc 64 fe 3c 31 ae c2 3d 58 32 a9 bd 07 02 b1 3c
       0.031053953 0.095058806 -0.082615554 0.021607412
0003f0 db c0 7e 3d a2 2f 87 3d af af 2d 3d 7f 34 c6 bd
       0.06219564 0.06600882 0.042403873 -0.096779816
